WARNING: Logging before InitGoogleLogging() is written to STDERR
I0728 23:09:55.479864 16577 net.cpp:51] Initializing net from parameters: 
state {
  phase: TEST
  level: 0
}
layer {
  name: "data"
  type: "DummyData"
  top: "data"
  dummy_data_param {
    shape {
      dim: 1
      dim: 3
      dim: 480
      dim: 576
    }
  }
}
layer {
  name: "backbone_body_stem_conv1"
  type: "Convolution"
  bottom: "data"
  top: "backbone_body_stem_conv1"
  convolution_param {
    num_output: 64
    bias_term: false
    pad: 3
    kernel_size: 7
    stride: 2
  }
}
layer {
  name: "backbone_body_stem_bn1"
  type: "BatchNorm"
  bottom: "backbone_body_stem_conv1"
  top: "backbone_body_stem_conv1"
  batch_norm_param {
    use_global_stats: true
  }
}
layer {
  name: "backbone_body_stem_scale"
  type: "Scale"
  bottom: "backbone_body_stem_conv1"
  top: "backbone_body_stem_conv1"
  scale_param {
    bias_term: true
  }
}
layer {
  name: "backbone_body_stem_relu"
  type: "ReLU"
  bottom: "backbone_body_stem_conv1"
  top: "backbone_body_stem_conv1"
}
layer {
  name: "backbone_body_stem_maxpool"
  type: "Pooling"
  bottom: "backbone_body_stem_conv1"
  top: "backbone_body_stem_maxpool"
  pooling_param {
    pool: MAX
    kernel_size: 3
    stride: 2
  }
}
layer {
  name: "backbone_body_layer1_0_downsample_0"
  type: "Convolution"
  bottom: "backbone_body_stem_maxpool"
  top: "backbone_body_layer1_0_downsample_0"
  convolution_param {
    num_output: 256
    bias_term: false
    pad: 0
    kernel_size: 1
    stride: 1
  }
}
layer {
  name: "backbone_body_layer1_0_downsample_1"
  type: "BatchNorm"
  bottom: "backbone_body_layer1_0_downsample_0"
  top: "backbone_body_layer1_0_downsample_0"
  batch_norm_param {
    use_global_stats: true
  }
}
layer {
  name: "backbone_body_layer1_0_downsample_scale"
  type: "Scale"
  bottom: "backbone_body_layer1_0_downsample_0"
  top: "backbone_body_layer1_0_downsample_0"
  scale_param {
    bias_term: true
  }
}
layer {
  name: "backbone_body_layer1_0_conv1"
  type: "Convolution"
  bottom: "backbone_body_stem_maxpool"
  top: "backbone_body_layer1_0_conv1"
  convolution_param {
    num_output: 64
    bias_term: false
    pad: 0
    kernel_size: 1
    stride: 1
  }
}
layer {
  name: "backbone_body_layer1_0_bn1"
  type: "BatchNorm"
  bottom: "backbone_body_layer1_0_conv1"
  top: "backbone_body_layer1_0_conv1"
  batch_norm_param {
    use_global_stats: true
  }
}
layer {
  name: "backbone_body_layer1_0_scale1"
  type: "Scale"
  bottom: "backbone_body_layer1_0_conv1"
  top: "backbone_body_layer1_0_conv1"
  scale_param {
    bias_term: true
  }
}
layer {
  name: "backbone_body_layer1_0_relu1"
  type: "ReLU"
  bottom: "backbone_body_layer1_0_conv1"
  top: "backbone_body_layer1_0_conv1"
}
layer {
  name: "backbone_body_layer1_0_conv2"
  type: "Convolution"
  bottom: "backbone_body_layer1_0_conv1"
  top: "backbone_body_layer1_0_conv2"
  convolution_param {
    num_output: 64
    bias_term: false
    pad: 1
    kernel_size: 3
    stride: 1
  }
}
layer {
  name: "backbone_body_layer1_0_bn2"
  type: "BatchNorm"
  bottom: "backbone_body_layer1_0_conv2"
  top: "backbone_body_layer1_0_conv2"
  batch_norm_param {
    use_global_stats: true
  }
}
layer {
  name: "backbone_body_layer1_0_scale2"
  type: "Scale"
  bottom: "backbone_body_layer1_0_conv2"
  top: "backbone_body_layer1_0_conv2"
  scale_param {
    bias_term: true
  }
}
layer {
  name: "backbone_body_layer1_0_relu2"
  type: "ReLU"
  bottom: "backbone_body_layer1_0_conv2"
  top: "backbone_body_layer1_0_conv2"
}
layer {
  name: "backbone_body_layer1_0_conv3"
  type: "Convolution"
  bottom: "backbone_body_layer1_0_conv2"
  top: "backbone_body_layer1_0_conv3"
  convolution_param {
    num_output: 256
    bias_term: false
    pad: 0
    kernel_size: 1
    stride: 1
  }
}
layer {
  name: "backbone_body_layer1_0_bn3"
  type: "BatchNorm"
  bottom: "backbone_body_layer1_0_conv3"
  top: "backbone_body_layer1_0_conv3"
  batch_norm_param {
    use_global_stats: true
  }
}
layer {
  name: "backbone_body_layer1_0_scale3"
  type: "Scale"
  bottom: "backbone_body_layer1_0_conv3"
  top: "backbone_body_layer1_0_conv3"
  scale_param {
    bias_term: true
  }
}
layer {
  name: "backbone_body_layer1_0_eltwise"
  type: "Eltwise"
  bottom: "backbone_body_layer1_0_downsample_0"
  bottom: "backbone_body_layer1_0_conv3"
  top: "backbone_body_layer1_0_eltwise"
}
layer {
  name: "backbone_body_layer1_0_relu"
  type: "ReLU"
  bottom: "backbone_body_layer1_0_eltwise"
  top: "backbone_body_layer1_0_eltwise"
}
layer {
  name: "backbone_body_layer1_1_conv1"
  type: "Convolution"
  bottom: "backbone_body_layer1_0_eltwise"
  top: "backbone_body_layer1_1_conv1"
  convolution_param {
    num_output: 64
    bias_term: false
    pad: 0
    kernel_size: 1
    stride: 1
  }
}
layer {
  name: "backbone_body_layer1_1_bn1"
  type: "BatchNorm"
  bottom: "backbone_body_layer1_1_conv1"
  top: "backbone_body_layer1_1_conv1"
  batch_norm_param {
    use_global_stats: true
  }
}
layer {
  name: "backbone_body_layer1_1_scale1"
  type: "Scale"
  bottom: "backbone_body_layer1_1_conv1"
  top: "backbone_body_layer1_1_conv1"
  scale_param {
    bias_term: true
  }
}
layer {
  name: "backbone_body_layer1_1_relu1"
  type: "ReLU"
  bottom: "backbone_body_layer1_1_conv1"
  top: "backbone_body_layer1_1_conv1"
}
layer {
  name: "backbone_body_layer1_1_conv2"
  type: "Convolution"
  bottom: "backbone_body_layer1_1_conv1"
  top: "backbone_body_layer1_1_conv2"
  convolution_param {
    num_output: 64
    bias_term: false
    pad: 1
    kernel_size: 3
    stride: 1
  }
}
layer {
  name: "backbone_body_layer1_1_bn2"
  type: "BatchNorm"
  bottom: "backbone_body_layer1_1_conv2"
  top: "backbone_body_layer1_1_conv2"
  batch_norm_param {
    use_global_stats: true
  }
}
layer {
  name: "backbone_body_layer1_1_scale2"
  type: "Scale"
  bottom: "backbone_body_layer1_1_conv2"
  top: "backbone_body_layer1_1_conv2"
  scale_param {
    bias_term: true
  }
}
layer {
  name: "backbone_body_layer1_1_relu2"
  type: "ReLU"
  bottom: "backbone_body_layer1_1_conv2"
  top: "backbone_body_layer1_1_conv2"
}
layer {
  name: "backbone_body_layer1_1_conv3"
  type: "Convolution"
  bottom: "backbone_body_layer1_1_conv2"
  top: "backbone_body_layer1_1_conv3"
  convolution_param {
    num_output: 256
    bias_term: false
    pad: 0
    kernel_size: 1
    stride: 1
  }
}
layer {
  name: "backbone_body_layer1_1_bn3"
  type: "BatchNorm"
  bottom: "backbone_body_layer1_1_conv3"
  top: "backbone_body_layer1_1_conv3"
  batch_norm_param {
    use_global_stats: true
  }
}
layer {
  name: "backbone_body_layer1_1_scale3"
  type: "Scale"
  bottom: "backbone_body_layer1_1_conv3"
  top: "backbone_body_layer1_1_conv3"
  scale_param {
    bias_term: true
  }
}
layer {
  name: "backbone_body_layer1_1_eltwise"
  type: "Eltwise"
  bottom: "backbone_body_layer1_0_eltwise"
  bottom: "backbone_body_layer1_1_conv3"
  top: "backbone_body_layer1_1_eltwise"
}
layer {
  name: "backbone_body_layer1_1_relu"
  type: "ReLU"
  bottom: "backbone_body_layer1_1_eltwise"
  top: "backbone_body_layer1_1_eltwise"
}
layer {
  name: "backbone_body_layer1_2_conv1"
  type: "Convolution"
  bottom: "backbone_body_layer1_1_eltwise"
  top: "backbone_body_layer1_2_conv1"
  convolution_param {
    num_output: 64
    bias_term: false
    pad: 0
    kernel_size: 1
    stride: 1
  }
}
layer {
  name: "backbone_body_layer1_2_bn1"
  type: "BatchNorm"
  bottom: "backbone_body_layer1_2_conv1"
  top: "backbone_body_layer1_2_conv1"
  batch_norm_param {
    use_global_stats: true
  }
}
layer {
  name: "backbone_body_layer1_2_scale1"
  type: "Scale"
  bottom: "backbone_body_layer1_2_conv1"
  top: "backbone_body_layer1_2_conv1"
  scale_param {
    bias_term: true
  }
}
layer {
  name: "backbone_body_layer1_2_relu1"
  type: "ReLU"
  bottom: "backbone_body_layer1_2_conv1"
  top: "backbone_body_layer1_2_conv1"
}
layer {
  name: "backbone_body_layer1_2_conv2"
  type: "Convolution"
  bottom: "backbone_body_layer1_2_conv1"
  top: "backbone_body_layer1_2_conv2"
  convolution_param {
    num_output: 64
    bias_term: false
    pad: 1
    kernel_size: 3
    stride: 1
  }
}
layer {
  name: "backbone_body_layer1_2_bn2"
  type: "BatchNorm"
  bottom: "backbone_body_layer1_2_conv2"
  top: "backbone_body_layer1_2_conv2"
  batch_norm_param {
    use_global_stats: true
  }
}
layer {
  name: "backbone_body_layer1_2_scale2"
  type: "Scale"
  bottom: "backbone_body_layer1_2_conv2"
  top: "backbone_body_layer1_2_conv2"
  scale_param {
    bias_term: true
  }
}
layer {
  name: "backbone_body_layer1_2_relu2"
  type: "ReLU"
  bottom: "backbone_body_layer1_2_conv2"
  top: "backbone_body_layer1_2_conv2"
}
layer {
  name: "backbone_body_layer1_2_conv3"
  type: "Convolution"
  bottom: "backbone_body_layer1_2_conv2"
  top: "backbone_body_layer1_2_conv3"
  convolution_param {
    num_output: 256
    bias_term: false
    pad: 0
    kernel_size: 1
    stride: 1
  }
}
layer {
  name: "backbone_body_layer1_2_bn3"
  type: "BatchNorm"
  bottom: "backbone_body_layer1_2_conv3"
  top: "backbone_body_layer1_2_conv3"
  batch_norm_param {
    use_global_stats: true
  }
}
layer {
  name: "backbone_body_layer1_2_scale3"
  type: "Scale"
  bottom: "backbone_body_layer1_2_conv3"
  top: "backbone_body_layer1_2_conv3"
  scale_param {
    bias_term: true
  }
}
layer {
  name: "backbone_body_layer1_2_eltwise"
  type: "Eltwise"
  bottom: "backbone_body_layer1_1_eltwise"
  bottom: "backbone_body_layer1_2_conv3"
  top: "backbone_body_layer1_2_eltwise"
}
layer {
  name: "backbone_body_layer1_2_relu"
  type: "ReLU"
  bottom: "backbone_body_layer1_2_eltwise"
  top: "backbone_body_layer1_2_eltwise"
}
layer {
  name: "backbone_body_layer2_0_downsample_0"
  type: "Convolution"
  bottom: "backbone_body_layer1_2_eltwise"
  top: "backbone_body_layer2_0_downsample_0"
  convolution_param {
    num_output: 512
    bias_term: false
    pad: 0
    kernel_size: 1
    stride: 2
  }
}
layer {
  name: "backbone_body_layer2_0_downsample_1"
  type: "BatchNorm"
  bottom: "backbone_body_layer2_0_downsample_0"
  top: "backbone_body_layer2_0_downsample_0"
  batch_norm_param {
    use_global_stats: true
  }
}
layer {
  name: "backbone_body_layer2_0_downsample_scale"
  type: "Scale"
  bottom: "backbone_body_layer2_0_downsample_0"
  top: "backbone_body_layer2_0_downsample_0"
  scale_param {
    bias_term: true
  }
}
layer {
  name: "backbone_body_layer2_0_conv1"
  type: "Convolution"
  bottom: "backbone_body_layer1_2_eltwise"
  top: "backbone_body_layer2_0_conv1"
  convolution_param {
    num_output: 128
    bias_term: false
    pad: 0
    kernel_size: 1
    stride: 2
  }
}
layer {
  name: "backbone_body_layer2_0_bn1"
  type: "BatchNorm"
  bottom: "backbone_body_layer2_0_conv1"
  top: "backbone_body_layer2_0_conv1"
  batch_norm_param {
    use_global_stats: true
  }
}
layer {
  name: "backbone_body_layer2_0_scale1"
  type: "Scale"
  bottom: "backbone_body_layer2_0_conv1"
  top: "backbone_body_layer2_0_conv1"
  scale_param {
    bias_term: true
  }
}
layer {
  name: "backbone_body_layer2_0_relu1"
  type: "ReLU"
  bottom: "backbone_body_layer2_0_conv1"
  top: "backbone_body_layer2_0_conv1"
}
layer {
  name: "backbone_body_layer2_0_conv2"
  type: "Convolution"
  bottom: "backbone_body_layer2_0_conv1"
  top: "backbone_body_layer2_0_conv2"
  convolution_param {
    num_output: 128
    bias_term: false
    pad: 1
    kernel_size: 3
    stride: 1
  }
}
layer {
  name: "backbone_body_layer2_0_bn2"
  type: "BatchNorm"
  bottom: "backbone_body_layer2_0_conv2"
  top: "backbone_body_layer2_0_conv2"
  batch_norm_param {
    use_global_stats: true
  }
}
layer {
  name: "backbone_body_layer2_0_scale2"
  type: "Scale"
  bottom: "backbone_body_layer2_0_conv2"
  top: "backbone_body_layer2_0_conv2"
  scale_param {
    bias_term: true
  }
}
layer {
  name: "backbone_body_layer2_0_relu2"
  type: "ReLU"
  bottom: "backbone_body_layer2_0_conv2"
  top: "backbone_body_layer2_0_conv2"
}
layer {
  name: "backbone_body_layer2_0_conv3"
  type: "Convolution"
  bottom: "backbone_body_layer2_0_conv2"
  top: "backbone_body_layer2_0_conv3"
  convolution_param {
    num_output: 512
    bias_term: false
    pad: 0
    kernel_size: 1
    stride: 1
  }
}
layer {
  name: "backbone_body_layer2_0_bn3"
  type: "BatchNorm"
  bottom: "backbone_body_layer2_0_conv3"
  top: "backbone_body_layer2_0_conv3"
  batch_norm_param {
    use_global_stats: true
  }
}
layer {
  name: "backbone_body_layer2_0_scale3"
  type: "Scale"
  bottom: "backbone_body_layer2_0_conv3"
  top: "backbone_body_layer2_0_conv3"
  scale_param {
    bias_term: true
  }
}
layer {
  name: "backbone_body_layer2_0_eltwise"
  type: "Eltwise"
  bottom: "backbone_body_layer2_0_downsample_0"
  bottom: "backbone_body_layer2_0_conv3"
  top: "backbone_body_layer2_0_eltwise"
}
layer {
  name: "backbone_body_layer2_0_relu"
  type: "ReLU"
  bottom: "backbone_body_layer2_0_eltwise"
  top: "backbone_body_layer2_0_eltwise"
}
layer {
  name: "backbone_body_layer2_1_conv1"
  type: "Convolution"
  bottom: "backbone_body_layer2_0_eltwise"
  top: "backbone_body_layer2_1_conv1"
  convolution_param {
    num_output: 128
    bias_term: false
    pad: 0
    kernel_size: 1
    stride: 1
  }
}
layer {
  name: "backbone_body_layer2_1_bn1"
  type: "BatchNorm"
  bottom: "backbone_body_layer2_1_conv1"
  top: "backbone_body_layer2_1_conv1"
  batch_norm_param {
    use_global_stats: true
  }
}
layer {
  name: "backbone_body_layer2_1_scale1"
  type: "Scale"
  bottom: "backbone_body_layer2_1_conv1"
  top: "backbone_body_layer2_1_conv1"
  scale_param {
    bias_term: true
  }
}
layer {
  name: "backbone_body_layer2_1_relu1"
  type: "ReLU"
  bottom: "backbone_body_layer2_1_conv1"
  top: "backbone_body_layer2_1_conv1"
}
layer {
  name: "backbone_body_layer2_1_conv2"
  type: "Convolution"
  bottom: "backbone_body_layer2_1_conv1"
  top: "backbone_body_layer2_1_conv2"
  convolution_param {
    num_output: 128
    bias_term: false
    pad: 1
    kernel_size: 3
    stride: 1
  }
}
layer {
  name: "backbone_body_layer2_1_bn2"
  type: "BatchNorm"
  bottom: "backbone_body_layer2_1_conv2"
  top: "backbone_body_layer2_1_conv2"
  batch_norm_param {
    use_global_stats: true
  }
}
layer {
  name: "backbone_body_layer2_1_scale2"
  type: "Scale"
  bottom: "backbone_body_layer2_1_conv2"
  top: "backbone_body_layer2_1_conv2"
  scale_param {
    bias_term: true
  }
}
layer {
  name: "backbone_body_layer2_1_relu2"
  type: "ReLU"
  bottom: "backbone_body_layer2_1_conv2"
  top: "backbone_body_layer2_1_conv2"
}
layer {
  name: "backbone_body_layer2_1_conv3"
  type: "Convolution"
  bottom: "backbone_body_layer2_1_conv2"
  top: "backbone_body_layer2_1_conv3"
  convolution_param {
    num_output: 512
    bias_term: false
    pad: 0
    kernel_size: 1
    stride: 1
  }
}
layer {
  name: "backbone_body_layer2_1_bn3"
  type: "BatchNorm"
  bottom: "backbone_body_layer2_1_conv3"
  top: "backbone_body_layer2_1_conv3"
  batch_norm_param {
    use_global_stats: true
  }
}
layer {
  name: "backbone_body_layer2_1_scale3"
  type: "Scale"
  bottom: "backbone_body_layer2_1_conv3"
  top: "backbone_body_layer2_1_conv3"
  scale_param {
    bias_term: true
  }
}
layer {
  name: "backbone_body_layer2_1_eltwise"
  type: "Eltwise"
  bottom: "backbone_body_layer2_0_eltwise"
  bottom: "backbone_body_layer2_1_conv3"
  top: "backbone_body_layer2_1_eltwise"
}
layer {
  name: "backbone_body_layer2_1_relu"
  type: "ReLU"
  bottom: "backbone_body_layer2_1_eltwise"
  top: "backbone_body_layer2_1_eltwise"
}
layer {
  name: "backbone_body_layer2_2_conv1"
  type: "Convolution"
  bottom: "backbone_body_layer2_1_eltwise"
  top: "backbone_body_layer2_2_conv1"
  convolution_param {
    num_output: 128
    bias_term: false
    pad: 0
    kernel_size: 1
    stride: 1
  }
}
layer {
  name: "backbone_body_layer2_2_bn1"
  type: "BatchNorm"
  bottom: "backbone_body_layer2_2_conv1"
  top: "backbone_body_layer2_2_conv1"
  batch_norm_param {
    use_global_stats: true
  }
}
layer {
  name: "backbone_body_layer2_2_scale1"
  type: "Scale"
  bottom: "backbone_body_layer2_2_conv1"
  top: "backbone_body_layer2_2_conv1"
  scale_param {
    bias_term: true
  }
}
layer {
  name: "backbone_body_layer2_2_relu1"
  type: "ReLU"
  bottom: "backbone_body_layer2_2_conv1"
  top: "backbone_body_layer2_2_conv1"
}
layer {
  name: "backbone_body_layer2_2_conv2"
  type: "Convolution"
  bottom: "backbone_body_layer2_2_conv1"
  top: "backbone_body_layer2_2_conv2"
  convolution_param {
    num_output: 128
    bias_term: false
    pad: 1
    kernel_size: 3
    stride: 1
  }
}
layer {
  name: "backbone_body_layer2_2_bn2"
  type: "BatchNorm"
  bottom: "backbone_body_layer2_2_conv2"
  top: "backbone_body_layer2_2_conv2"
  batch_norm_param {
    use_global_stats: true
  }
}
layer {
  name: "backbone_body_layer2_2_scale2"
  type: "Scale"
  bottom: "backbone_body_layer2_2_conv2"
  top: "backbone_body_layer2_2_conv2"
  scale_param {
    bias_term: true
  }
}
layer {
  name: "backbone_body_layer2_2_relu2"
  type: "ReLU"
  bottom: "backbone_body_layer2_2_conv2"
  top: "backbone_body_layer2_2_conv2"
}
layer {
  name: "backbone_body_layer2_2_conv3"
  type: "Convolution"
  bottom: "backbone_body_layer2_2_conv2"
  top: "backbone_body_layer2_2_conv3"
  convolution_param {
    num_output: 512
    bias_term: false
    pad: 0
    kernel_size: 1
    stride: 1
  }
}
layer {
  name: "backbone_body_layer2_2_bn3"
  type: "BatchNorm"
  bottom: "backbone_body_layer2_2_conv3"
  top: "backbone_body_layer2_2_conv3"
  batch_norm_param {
    use_global_stats: true
  }
}
layer {
  name: "backbone_body_layer2_2_scale3"
  type: "Scale"
  bottom: "backbone_body_layer2_2_conv3"
  top: "backbone_body_layer2_2_conv3"
  scale_param {
    bias_term: true
  }
}
layer {
  name: "backbone_body_layer2_2_eltwise"
  type: "Eltwise"
  bottom: "backbone_body_layer2_1_eltwise"
  bottom: "backbone_body_layer2_2_conv3"
  top: "backbone_body_layer2_2_eltwise"
}
layer {
  name: "backbone_body_layer2_2_relu"
  type: "ReLU"
  bottom: "backbone_body_layer2_2_eltwise"
  top: "backbone_body_layer2_2_eltwise"
}
layer {
  name: "backbone_body_layer2_3_conv1"
  type: "Convolution"
  bottom: "backbone_body_layer2_2_eltwise"
  top: "backbone_body_layer2_3_conv1"
  convolution_param {
    num_output: 128
    bias_term: false
    pad: 0
    kernel_size: 1
    stride: 1
  }
}
layer {
  name: "backbone_body_layer2_3_bn1"
  type: "BatchNorm"
  bottom: "backbone_body_layer2_3_conv1"
  top: "backbone_body_layer2_3_conv1"
  batch_norm_param {
    use_global_stats: true
  }
}
layer {
  name: "backbone_body_layer2_3_scale1"
  type: "Scale"
  bottom: "backbone_body_layer2_3_conv1"
  top: "backbone_body_layer2_3_conv1"
  scale_param {
    bias_term: true
  }
}
layer {
  name: "backbone_body_layer2_3_relu1"
  type: "ReLU"
  bottom: "backbone_body_layer2_3_conv1"
  top: "backbone_body_layer2_3_conv1"
}
layer {
  name: "backbone_body_layer2_3_conv2"
  type: "Convolution"
  bottom: "backbone_body_layer2_3_conv1"
  top: "backbone_body_layer2_3_conv2"
  convolution_param {
    num_output: 128
    bias_term: false
    pad: 1
    kernel_size: 3
    stride: 1
  }
}
layer {
  name: "backbone_body_layer2_3_bn2"
  type: "BatchNorm"
  bottom: "backbone_body_layer2_3_conv2"
  top: "backbone_body_layer2_3_conv2"
  batch_norm_param {
    use_global_stats: true
  }
}
layer {
  name: "backbone_body_layer2_3_scale2"
  type: "Scale"
  bottom: "backbone_body_layer2_3_conv2"
  top: "backbone_body_layer2_3_conv2"
  scale_param {
    bias_term: true
  }
}
layer {
  name: "backbone_body_layer2_3_relu2"
  type: "ReLU"
  bottom: "backbone_body_layer2_3_conv2"
  top: "backbone_body_layer2_3_conv2"
}
layer {
  name: "backbone_body_layer2_3_conv3"
  type: "Convolution"
  bottom: "backbone_body_layer2_3_conv2"
  top: "backbone_body_layer2_3_conv3"
  convolution_param {
    num_output: 512
    bias_term: false
    pad: 0
    kernel_size: 1
    stride: 1
  }
}
layer {
  name: "backbone_body_layer2_3_bn3"
  type: "BatchNorm"
  bottom: "backbone_body_layer2_3_conv3"
  top: "backbone_body_layer2_3_conv3"
  batch_norm_param {
    use_global_stats: true
  }
}
layer {
  name: "backbone_body_layer2_3_scale3"
  type: "Scale"
  bottom: "backbone_body_layer2_3_conv3"
  top: "backbone_body_layer2_3_conv3"
  scale_param {
    bias_term: true
  }
}
layer {
  name: "backbone_body_layer2_3_eltwise"
  type: "Eltwise"
  bottom: "backbone_body_layer2_2_eltwise"
  bottom: "backbone_body_layer2_3_conv3"
  top: "backbone_body_layer2_3_eltwise"
}
layer {
  name: "backbone_body_layer2_3_relu"
  type: "ReLU"
  bottom: "backbone_body_layer2_3_eltwise"
  top: "backbone_body_layer2_3_eltwise"
}
layer {
  name: "backbone_body_layer3_0_downsample_0"
  type: "Convolution"
  bottom: "backbone_body_layer2_3_eltwise"
  top: "backbone_body_layer3_0_downsample_0"
  convolution_param {
    num_output: 1024
    bias_term: false
    pad: 0
    kernel_size: 1
    stride: 2
  }
}
layer {
  name: "backbone_body_layer3_0_downsample_1"
  type: "BatchNorm"
  bottom: "backbone_body_layer3_0_downsample_0"
  top: "backbone_body_layer3_0_downsample_0"
  batch_norm_param {
    use_global_stats: true
  }
}
layer {
  name: "backbone_body_layer3_0_downsample_scale"
  type: "Scale"
  bottom: "backbone_body_layer3_0_downsample_0"
  top: "backbone_body_layer3_0_downsample_0"
  scale_param {
    bias_term: true
  }
}
layer {
  name: "backbone_body_layer3_0_conv1"
  type: "Convolution"
  bottom: "backbone_body_layer2_3_eltwise"
  top: "backbone_body_layer3_0_conv1"
  convolution_param {
    num_output: 256
    bias_term: false
    pad: 0
    kernel_size: 1
    stride: 2
  }
}
layer {
  name: "backbone_body_layer3_0_bn1"
  type: "BatchNorm"
  bottom: "backbone_body_layer3_0_conv1"
  top: "backbone_body_layer3_0_conv1"
  batch_norm_param {
    use_global_stats: true
  }
}
layer {
  name: "backbone_body_layer3_0_scale1"
  type: "Scale"
  bottom: "backbone_body_layer3_0_conv1"
  top: "backbone_body_layer3_0_conv1"
  scale_param {
    bias_term: true
  }
}
layer {
  name: "backbone_body_layer3_0_relu1"
  type: "ReLU"
  bottom: "backbone_body_layer3_0_conv1"
  top: "backbone_body_layer3_0_conv1"
}
layer {
  name: "backbone_body_layer3_0_conv2"
  type: "Convolution"
  bottom: "backbone_body_layer3_0_conv1"
  top: "backbone_body_layer3_0_conv2"
  convolution_param {
    num_output: 256
    bias_term: false
    pad: 1
    kernel_size: 3
    stride: 1
  }
}
layer {
  name: "backbone_body_layer3_0_bn2"
  type: "BatchNorm"
  bottom: "backbone_body_layer3_0_conv2"
  top: "backbone_body_layer3_0_conv2"
  batch_norm_param {
    use_global_stats: true
  }
}
layer {
  name: "backbone_body_layer3_0_scale2"
  type: "Scale"
  bottom: "backbone_body_layer3_0_conv2"
  top: "backbone_body_layer3_0_conv2"
  scale_param {
    bias_term: true
  }
}
layer {
  name: "backbone_body_layer3_0_relu2"
  type: "ReLU"
  bottom: "backbone_body_layer3_0_conv2"
  top: "backbone_body_layer3_0_conv2"
}
layer {
  name: "backbone_body_layer3_0_conv3"
  type: "Convolution"
  bottom: "backbone_body_layer3_0_conv2"
  top: "backbone_body_layer3_0_conv3"
  convolution_param {
    num_output: 1024
    bias_term: false
    pad: 0
    kernel_size: 1
    stride: 1
  }
}
layer {
  name: "backbone_body_layer3_0_bn3"
  type: "BatchNorm"
  bottom: "backbone_body_layer3_0_conv3"
  top: "backbone_body_layer3_0_conv3"
  batch_norm_param {
    use_global_stats: true
  }
}
layer {
  name: "backbone_body_layer3_0_scale3"
  type: "Scale"
  bottom: "backbone_body_layer3_0_conv3"
  top: "backbone_body_layer3_0_conv3"
  scale_param {
    bias_term: true
  }
}
layer {
  name: "backbone_body_layer3_0_eltwise"
  type: "Eltwise"
  bottom: "backbone_body_layer3_0_downsample_0"
  bottom: "backbone_body_layer3_0_conv3"
  top: "backbone_body_layer3_0_eltwise"
}
layer {
  name: "backbone_body_layer3_0_relu"
  type: "ReLU"
  bottom: "backbone_body_layer3_0_eltwise"
  top: "backbone_body_layer3_0_eltwise"
}
layer {
  name: "backbone_body_layer3_1_conv1"
  type: "Convolution"
  bottom: "backbone_body_layer3_0_eltwise"
  top: "backbone_body_layer3_1_conv1"
  convolution_param {
    num_output: 256
    bias_term: false
    pad: 0
    kernel_size: 1
    stride: 1
  }
}
layer {
  name: "backbone_body_layer3_1_bn1"
  type: "BatchNorm"
  bottom: "backbone_body_layer3_1_conv1"
  top: "backbone_body_layer3_1_conv1"
  batch_norm_param {
    use_global_stats: true
  }
}
layer {
  name: "backbone_body_layer3_1_scale1"
  type: "Scale"
  bottom: "backbone_body_layer3_1_conv1"
  top: "backbone_body_layer3_1_conv1"
  scale_param {
    bias_term: true
  }
}
layer {
  name: "backbone_body_layer3_1_relu1"
  type: "ReLU"
  bottom: "backbone_body_layer3_1_conv1"
  top: "backbone_body_layer3_1_conv1"
}
layer {
  name: "backbone_body_layer3_1_conv2"
  type: "Convolution"
  bottom: "backbone_body_layer3_1_conv1"
  top: "backbone_body_layer3_1_conv2"
  convolution_param {
    num_output: 256
    bias_term: false
    pad: 1
    kernel_size: 3
    stride: 1
  }
}
layer {
  name: "backbone_body_layer3_1_bn2"
  type: "BatchNorm"
  bottom: "backbone_body_layer3_1_conv2"
  top: "backbone_body_layer3_1_conv2"
  batch_norm_param {
    use_global_stats: true
  }
}
layer {
  name: "backbone_body_layer3_1_scale2"
  type: "Scale"
  bottom: "backbone_body_layer3_1_conv2"
  top: "backbone_body_layer3_1_conv2"
  scale_param {
    bias_term: true
  }
}
layer {
  name: "backbone_body_layer3_1_relu2"
  type: "ReLU"
  bottom: "backbone_body_layer3_1_conv2"
  top: "backbone_body_layer3_1_conv2"
}
layer {
  name: "backbone_body_layer3_1_conv3"
  type: "Convolution"
  bottom: "backbone_body_layer3_1_conv2"
  top: "backbone_body_layer3_1_conv3"
  convolution_param {
    num_output: 1024
    bias_term: false
    pad: 0
    kernel_size: 1
    stride: 1
  }
}
layer {
  name: "backbone_body_layer3_1_bn3"
  type: "BatchNorm"
  bottom: "backbone_body_layer3_1_conv3"
  top: "backbone_body_layer3_1_conv3"
  batch_norm_param {
    use_global_stats: true
  }
}
layer {
  name: "backbone_body_layer3_1_scale3"
  type: "Scale"
  bottom: "backbone_body_layer3_1_conv3"
  top: "backbone_body_layer3_1_conv3"
  scale_param {
    bias_term: true
  }
}
layer {
  name: "backbone_body_layer3_1_eltwise"
  type: "Eltwise"
  bottom: "backbone_body_layer3_0_eltwise"
  bottom: "backbone_body_layer3_1_conv3"
  top: "backbone_body_layer3_1_eltwise"
}
layer {
  name: "backbone_body_layer3_1_relu"
  type: "ReLU"
  bottom: "backbone_body_layer3_1_eltwise"
  top: "backbone_body_layer3_1_eltwise"
}
layer {
  name: "backbone_body_layer3_2_conv1"
  type: "Convolution"
  bottom: "backbone_body_layer3_1_eltwise"
  top: "backbone_body_layer3_2_conv1"
  convolution_param {
    num_output: 256
    bias_term: false
    pad: 0
    kernel_size: 1
    stride: 1
  }
}
layer {
  name: "backbone_body_layer3_2_bn1"
  type: "BatchNorm"
  bottom: "backbone_body_layer3_2_conv1"
  top: "backbone_body_layer3_2_conv1"
  batch_norm_param {
    use_global_stats: true
  }
}
layer {
  name: "backbone_body_layer3_2_scale1"
  type: "Scale"
  bottom: "backbone_body_layer3_2_conv1"
  top: "backbone_body_layer3_2_conv1"
  scale_param {
    bias_term: true
  }
}
layer {
  name: "backbone_body_layer3_2_relu1"
  type: "ReLU"
  bottom: "backbone_body_layer3_2_conv1"
  top: "backbone_body_layer3_2_conv1"
}
layer {
  name: "backbone_body_layer3_2_conv2"
  type: "Convolution"
  bottom: "backbone_body_layer3_2_conv1"
  top: "backbone_body_layer3_2_conv2"
  convolution_param {
    num_output: 256
    bias_term: false
    pad: 1
    kernel_size: 3
    stride: 1
  }
}
layer {
  name: "backbone_body_layer3_2_bn2"
  type: "BatchNorm"
  bottom: "backbone_body_layer3_2_conv2"
  top: "backbone_body_layer3_2_conv2"
  batch_norm_param {
    use_global_stats: true
  }
}
layer {
  name: "backbone_body_layer3_2_scale2"
  type: "Scale"
  bottom: "backbone_body_layer3_2_conv2"
  top: "backbone_body_layer3_2_conv2"
  scale_param {
    bias_term: true
  }
}
layer {
  name: "backbone_body_layer3_2_relu2"
  type: "ReLU"
  bottom: "backbone_body_layer3_2_conv2"
  top: "backbone_body_layer3_2_conv2"
}
layer {
  name: "backbone_body_layer3_2_conv3"
  type: "Convolution"
  bottom: "backbone_body_layer3_2_conv2"
  top: "backbone_body_layer3_2_conv3"
  convolution_param {
    num_output: 1024
    bias_term: false
    pad: 0
    kernel_size: 1
    stride: 1
  }
}
layer {
  name: "backbone_body_layer3_2_bn3"
  type: "BatchNorm"
  bottom: "backbone_body_layer3_2_conv3"
  top: "backbone_body_layer3_2_conv3"
  batch_norm_param {
    use_global_stats: true
  }
}
layer {
  name: "backbone_body_layer3_2_scale3"
  type: "Scale"
  bottom: "backbone_body_layer3_2_conv3"
  top: "backbone_body_layer3_2_conv3"
  scale_param {
    bias_term: true
  }
}
layer {
  name: "backbone_body_layer3_2_eltwise"
  type: "Eltwise"
  bottom: "backbone_body_layer3_1_eltwise"
  bottom: "backbone_body_layer3_2_conv3"
  top: "backbone_body_layer3_2_eltwise"
}
layer {
  name: "backbone_body_layer3_2_relu"
  type: "ReLU"
  bottom: "backbone_body_layer3_2_eltwise"
  top: "backbone_body_layer3_2_eltwise"
}
layer {
  name: "backbone_body_layer3_3_conv1"
  type: "Convolution"
  bottom: "backbone_body_layer3_2_eltwise"
  top: "backbone_body_layer3_3_conv1"
  convolution_param {
    num_output: 256
    bias_term: false
    pad: 0
    kernel_size: 1
    stride: 1
  }
}
layer {
  name: "backbone_body_layer3_3_bn1"
  type: "BatchNorm"
  bottom: "backbone_body_layer3_3_conv1"
  top: "backbone_body_layer3_3_conv1"
  batch_norm_param {
    use_global_stats: true
  }
}
layer {
  name: "backbone_body_layer3_3_scale1"
  type: "Scale"
  bottom: "backbone_body_layer3_3_conv1"
  top: "backbone_body_layer3_3_conv1"
  scale_param {
    bias_term: true
  }
}
layer {
  name: "backbone_body_layer3_3_relu1"
  type: "ReLU"
  bottom: "backbone_body_layer3_3_conv1"
  top: "backbone_body_layer3_3_conv1"
}
layer {
  name: "backbone_body_layer3_3_conv2"
  type: "Convolution"
  bottom: "backbone_body_layer3_3_conv1"
  top: "backbone_body_layer3_3_conv2"
  convolution_param {
    num_output: 256
    bias_term: false
    pad: 1
    kernel_size: 3
    stride: 1
  }
}
layer {
  name: "backbone_body_layer3_3_b
I0728 23:09:55.480638 16577 layer_factory.hpp:77] Creating layer data
I0728 23:09:55.480654 16577 net.cpp:84] Creating Layer data
I0728 23:09:55.480659 16577 net.cpp:380] data -> data
I0728 23:09:55.481575 16577 net.cpp:122] Setting up data
I0728 23:09:55.481583 16577 net.cpp:129] Top shape: 1 3 480 576 (829440)
I0728 23:09:55.481586 16577 net.cpp:137] Memory required for data: 3317760
I0728 23:09:55.481590 16577 layer_factory.hpp:77] Creating layer backbone_body_stem_conv1
I0728 23:09:55.481598 16577 net.cpp:84] Creating Layer backbone_body_stem_conv1
I0728 23:09:55.481601 16577 net.cpp:406] backbone_body_stem_conv1 <- data
I0728 23:09:55.481606 16577 net.cpp:380] backbone_body_stem_conv1 -> backbone_body_stem_conv1
I0728 23:09:56.915256 16577 net.cpp:122] Setting up backbone_body_stem_conv1
I0728 23:09:56.915284 16577 net.cpp:129] Top shape: 1 64 240 288 (4423680)
I0728 23:09:56.915288 16577 net.cpp:137] Memory required for data: 21012480
I0728 23:09:56.915307 16577 layer_factory.hpp:77] Creating layer backbone_body_stem_bn1
I0728 23:09:56.915316 16577 net.cpp:84] Creating Layer backbone_body_stem_bn1
I0728 23:09:56.915320 16577 net.cpp:406] backbone_body_stem_bn1 <- backbone_body_stem_conv1
I0728 23:09:56.915324 16577 net.cpp:367] backbone_body_stem_bn1 -> backbone_body_stem_conv1 (in-place)
I0728 23:09:56.915359 16577 net.cpp:122] Setting up backbone_body_stem_bn1
I0728 23:09:56.915365 16577 net.cpp:129] Top shape: 1 64 240 288 (4423680)
I0728 23:09:56.915369 16577 net.cpp:137] Memory required for data: 38707200
I0728 23:09:56.915375 16577 layer_factory.hpp:77] Creating layer backbone_body_stem_scale
I0728 23:09:56.915382 16577 net.cpp:84] Creating Layer backbone_body_stem_scale
I0728 23:09:56.915385 16577 net.cpp:406] backbone_body_stem_scale <- backbone_body_stem_conv1
I0728 23:09:56.915388 16577 net.cpp:367] backbone_body_stem_scale -> backbone_body_stem_conv1 (in-place)
I0728 23:09:56.915400 16577 layer_factory.hpp:77] Creating layer backbone_body_stem_scale
I0728 23:09:56.915457 16577 net.cpp:122] Setting up backbone_body_stem_scale
I0728 23:09:56.915464 16577 net.cpp:129] Top shape: 1 64 240 288 (4423680)
I0728 23:09:56.915467 16577 net.cpp:137] Memory required for data: 56401920
I0728 23:09:56.915473 16577 layer_factory.hpp:77] Creating layer backbone_body_stem_relu
I0728 23:09:56.915478 16577 net.cpp:84] Creating Layer backbone_body_stem_relu
I0728 23:09:56.915482 16577 net.cpp:406] backbone_body_stem_relu <- backbone_body_stem_conv1
I0728 23:09:56.915485 16577 net.cpp:367] backbone_body_stem_relu -> backbone_body_stem_conv1 (in-place)
I0728 23:09:56.915894 16577 net.cpp:122] Setting up backbone_body_stem_relu
I0728 23:09:56.915907 16577 net.cpp:129] Top shape: 1 64 240 288 (4423680)
I0728 23:09:56.915911 16577 net.cpp:137] Memory required for data: 74096640
I0728 23:09:56.915915 16577 layer_factory.hpp:77] Creating layer backbone_body_stem_maxpool
I0728 23:09:56.915920 16577 net.cpp:84] Creating Layer backbone_body_stem_maxpool
I0728 23:09:56.915923 16577 net.cpp:406] backbone_body_stem_maxpool <- backbone_body_stem_conv1
I0728 23:09:56.915928 16577 net.cpp:380] backbone_body_stem_maxpool -> backbone_body_stem_maxpool
I0728 23:09:56.915939 16577 net.cpp:122] Setting up backbone_body_stem_maxpool
I0728 23:09:56.915944 16577 net.cpp:129] Top shape: 1 64 120 144 (1105920)
I0728 23:09:56.915946 16577 net.cpp:137] Memory required for data: 78520320
I0728 23:09:56.915949 16577 layer_factory.hpp:77] Creating layer backbone_body_stem_maxpool_backbone_body_stem_maxpool_0_split
I0728 23:09:56.915954 16577 net.cpp:84] Creating Layer backbone_body_stem_maxpool_backbone_body_stem_maxpool_0_split
I0728 23:09:56.915957 16577 net.cpp:406] backbone_body_stem_maxpool_backbone_body_stem_maxpool_0_split <- backbone_body_stem_maxpool
I0728 23:09:56.915961 16577 net.cpp:380] backbone_body_stem_maxpool_backbone_body_stem_maxpool_0_split -> backbone_body_stem_maxpool_backbone_body_stem_maxpool_0_split_0
I0728 23:09:56.915966 16577 net.cpp:380] backbone_body_stem_maxpool_backbone_body_stem_maxpool_0_split -> backbone_body_stem_maxpool_backbone_body_stem_maxpool_0_split_1
I0728 23:09:56.915971 16577 net.cpp:122] Setting up backbone_body_stem_maxpool_backbone_body_stem_maxpool_0_split
I0728 23:09:56.915975 16577 net.cpp:129] Top shape: 1 64 120 144 (1105920)
I0728 23:09:56.915979 16577 net.cpp:129] Top shape: 1 64 120 144 (1105920)
I0728 23:09:56.915982 16577 net.cpp:137] Memory required for data: 87367680
I0728 23:09:56.915984 16577 layer_factory.hpp:77] Creating layer backbone_body_layer1_0_downsample_0
I0728 23:09:56.915992 16577 net.cpp:84] Creating Layer backbone_body_layer1_0_downsample_0
I0728 23:09:56.915994 16577 net.cpp:406] backbone_body_layer1_0_downsample_0 <- backbone_body_stem_maxpool_backbone_body_stem_maxpool_0_split_0
I0728 23:09:56.915998 16577 net.cpp:380] backbone_body_layer1_0_downsample_0 -> backbone_body_layer1_0_downsample_0
I0728 23:09:56.917537 16577 net.cpp:122] Setting up backbone_body_layer1_0_downsample_0
I0728 23:09:56.917551 16577 net.cpp:129] Top shape: 1 256 120 144 (4423680)
I0728 23:09:56.917554 16577 net.cpp:137] Memory required for data: 105062400
I0728 23:09:56.917559 16577 layer_factory.hpp:77] Creating layer backbone_body_layer1_0_downsample_1
I0728 23:09:56.917565 16577 net.cpp:84] Creating Layer backbone_body_layer1_0_downsample_1
I0728 23:09:56.917568 16577 net.cpp:406] backbone_body_layer1_0_downsample_1 <- backbone_body_layer1_0_downsample_0
I0728 23:09:56.917573 16577 net.cpp:367] backbone_body_layer1_0_downsample_1 -> backbone_body_layer1_0_downsample_0 (in-place)
I0728 23:09:56.917589 16577 net.cpp:122] Setting up backbone_body_layer1_0_downsample_1
I0728 23:09:56.917595 16577 net.cpp:129] Top shape: 1 256 120 144 (4423680)
I0728 23:09:56.917598 16577 net.cpp:137] Memory required for data: 122757120
I0728 23:09:56.917604 16577 layer_factory.hpp:77] Creating layer backbone_body_layer1_0_downsample_scale
I0728 23:09:56.917609 16577 net.cpp:84] Creating Layer backbone_body_layer1_0_downsample_scale
I0728 23:09:56.917613 16577 net.cpp:406] backbone_body_layer1_0_downsample_scale <- backbone_body_layer1_0_downsample_0
I0728 23:09:56.917616 16577 net.cpp:367] backbone_body_layer1_0_downsample_scale -> backbone_body_layer1_0_downsample_0 (in-place)
I0728 23:09:56.917624 16577 layer_factory.hpp:77] Creating layer backbone_body_layer1_0_downsample_scale
I0728 23:09:56.917644 16577 net.cpp:122] Setting up backbone_body_layer1_0_downsample_scale
I0728 23:09:56.917649 16577 net.cpp:129] Top shape: 1 256 120 144 (4423680)
I0728 23:09:56.917652 16577 net.cpp:137] Memory required for data: 140451840
I0728 23:09:56.917656 16577 layer_factory.hpp:77] Creating layer backbone_body_layer1_0_conv1
I0728 23:09:56.917662 16577 net.cpp:84] Creating Layer backbone_body_layer1_0_conv1
I0728 23:09:56.917665 16577 net.cpp:406] backbone_body_layer1_0_conv1 <- backbone_body_stem_maxpool_backbone_body_stem_maxpool_0_split_1
I0728 23:09:56.917670 16577 net.cpp:380] backbone_body_layer1_0_conv1 -> backbone_body_layer1_0_conv1
I0728 23:09:56.920145 16577 net.cpp:122] Setting up backbone_body_layer1_0_conv1
I0728 23:09:56.920161 16577 net.cpp:129] Top shape: 1 64 120 144 (1105920)
I0728 23:09:56.920164 16577 net.cpp:137] Memory required for data: 144875520
I0728 23:09:56.920169 16577 layer_factory.hpp:77] Creating layer backbone_body_layer1_0_bn1
I0728 23:09:56.920176 16577 net.cpp:84] Creating Layer backbone_body_layer1_0_bn1
I0728 23:09:56.920179 16577 net.cpp:406] backbone_body_layer1_0_bn1 <- backbone_body_layer1_0_conv1
I0728 23:09:56.920186 16577 net.cpp:367] backbone_body_layer1_0_bn1 -> backbone_body_layer1_0_conv1 (in-place)
I0728 23:09:56.920226 16577 net.cpp:122] Setting up backbone_body_layer1_0_bn1
I0728 23:09:56.920231 16577 net.cpp:129] Top shape: 1 64 120 144 (1105920)
I0728 23:09:56.920234 16577 net.cpp:137] Memory required for data: 149299200
I0728 23:09:56.920239 16577 layer_factory.hpp:77] Creating layer backbone_body_layer1_0_scale1
I0728 23:09:56.920244 16577 net.cpp:84] Creating Layer backbone_body_layer1_0_scale1
I0728 23:09:56.920248 16577 net.cpp:406] backbone_body_layer1_0_scale1 <- backbone_body_layer1_0_conv1
I0728 23:09:56.920253 16577 net.cpp:367] backbone_body_layer1_0_scale1 -> backbone_body_layer1_0_conv1 (in-place)
I0728 23:09:56.920260 16577 layer_factory.hpp:77] Creating layer backbone_body_layer1_0_scale1
I0728 23:09:56.920326 16577 net.cpp:122] Setting up backbone_body_layer1_0_scale1
I0728 23:09:56.920334 16577 net.cpp:129] Top shape: 1 64 120 144 (1105920)
I0728 23:09:56.920337 16577 net.cpp:137] Memory required for data: 153722880
I0728 23:09:56.920343 16577 layer_factory.hpp:77] Creating layer backbone_body_layer1_0_relu1
I0728 23:09:56.920351 16577 net.cpp:84] Creating Layer backbone_body_layer1_0_relu1
I0728 23:09:56.920353 16577 net.cpp:406] backbone_body_layer1_0_relu1 <- backbone_body_layer1_0_conv1
I0728 23:09:56.920357 16577 net.cpp:367] backbone_body_layer1_0_relu1 -> backbone_body_layer1_0_conv1 (in-place)
I0728 23:09:56.920862 16577 net.cpp:122] Setting up backbone_body_layer1_0_relu1
I0728 23:09:56.920876 16577 net.cpp:129] Top shape: 1 64 120 144 (1105920)
I0728 23:09:56.920879 16577 net.cpp:137] Memory required for data: 158146560
I0728 23:09:56.920883 16577 layer_factory.hpp:77] Creating layer backbone_body_layer1_0_conv2
I0728 23:09:56.920888 16577 net.cpp:84] Creating Layer backbone_body_layer1_0_conv2
I0728 23:09:56.920892 16577 net.cpp:406] backbone_body_layer1_0_conv2 <- backbone_body_layer1_0_conv1
I0728 23:09:56.920898 16577 net.cpp:380] backbone_body_layer1_0_conv2 -> backbone_body_layer1_0_conv2
I0728 23:09:56.922659 16577 net.cpp:122] Setting up backbone_body_layer1_0_conv2
I0728 23:09:56.922673 16577 net.cpp:129] Top shape: 1 64 120 144 (1105920)
I0728 23:09:56.922677 16577 net.cpp:137] Memory required for data: 162570240
I0728 23:09:56.922683 16577 layer_factory.hpp:77] Creating layer backbone_body_layer1_0_bn2
I0728 23:09:56.922688 16577 net.cpp:84] Creating Layer backbone_body_layer1_0_bn2
I0728 23:09:56.922693 16577 net.cpp:406] backbone_body_layer1_0_bn2 <- backbone_body_layer1_0_conv2
I0728 23:09:56.922696 16577 net.cpp:367] backbone_body_layer1_0_bn2 -> backbone_body_layer1_0_conv2 (in-place)
I0728 23:09:56.922740 16577 net.cpp:122] Setting up backbone_body_layer1_0_bn2
I0728 23:09:56.922747 16577 net.cpp:129] Top shape: 1 64 120 144 (1105920)
I0728 23:09:56.922750 16577 net.cpp:137] Memory required for data: 166993920
I0728 23:09:56.922755 16577 layer_factory.hpp:77] Creating layer backbone_body_layer1_0_scale2
I0728 23:09:56.922761 16577 net.cpp:84] Creating Layer backbone_body_layer1_0_scale2
I0728 23:09:56.922765 16577 net.cpp:406] backbone_body_layer1_0_scale2 <- backbone_body_layer1_0_conv2
I0728 23:09:56.922768 16577 net.cpp:367] backbone_body_layer1_0_scale2 -> backbone_body_layer1_0_conv2 (in-place)
I0728 23:09:56.922777 16577 layer_factory.hpp:77] Creating layer backbone_body_layer1_0_scale2
I0728 23:09:56.922845 16577 net.cpp:122] Setting up backbone_body_layer1_0_scale2
I0728 23:09:56.922853 16577 net.cpp:129] Top shape: 1 64 120 144 (1105920)
I0728 23:09:56.922856 16577 net.cpp:137] Memory required for data: 171417600
I0728 23:09:56.922861 16577 layer_factory.hpp:77] Creating layer backbone_body_layer1_0_relu2
I0728 23:09:56.922868 16577 net.cpp:84] Creating Layer backbone_body_layer1_0_relu2
I0728 23:09:56.922870 16577 net.cpp:406] backbone_body_layer1_0_relu2 <- backbone_body_layer1_0_conv2
I0728 23:09:56.922875 16577 net.cpp:367] backbone_body_layer1_0_relu2 -> backbone_body_layer1_0_conv2 (in-place)
I0728 23:09:56.923368 16577 net.cpp:122] Setting up backbone_body_layer1_0_relu2
I0728 23:09:56.923382 16577 net.cpp:129] Top shape: 1 64 120 144 (1105920)
I0728 23:09:56.923384 16577 net.cpp:137] Memory required for data: 175841280
I0728 23:09:56.923388 16577 layer_factory.hpp:77] Creating layer backbone_body_layer1_0_conv3
I0728 23:09:56.923394 16577 net.cpp:84] Creating Layer backbone_body_layer1_0_conv3
I0728 23:09:56.923398 16577 net.cpp:406] backbone_body_layer1_0_conv3 <- backbone_body_layer1_0_conv2
I0728 23:09:56.923403 16577 net.cpp:380] backbone_body_layer1_0_conv3 -> backbone_body_layer1_0_conv3
I0728 23:09:56.925001 16577 net.cpp:122] Setting up backbone_body_layer1_0_conv3
I0728 23:09:56.925015 16577 net.cpp:129] Top shape: 1 256 120 144 (4423680)
I0728 23:09:56.925019 16577 net.cpp:137] Memory required for data: 193536000
I0728 23:09:56.925024 16577 layer_factory.hpp:77] Creating layer backbone_body_layer1_0_bn3
I0728 23:09:56.925030 16577 net.cpp:84] Creating Layer backbone_body_layer1_0_bn3
I0728 23:09:56.925034 16577 net.cpp:406] backbone_body_layer1_0_bn3 <- backbone_body_layer1_0_conv3
I0728 23:09:56.925040 16577 net.cpp:367] backbone_body_layer1_0_bn3 -> backbone_body_layer1_0_conv3 (in-place)
I0728 23:09:56.925081 16577 net.cpp:122] Setting up backbone_body_layer1_0_bn3
I0728 23:09:56.925087 16577 net.cpp:129] Top shape: 1 256 120 144 (4423680)
I0728 23:09:56.925089 16577 net.cpp:137] Memory required for data: 211230720
I0728 23:09:56.925096 16577 layer_factory.hpp:77] Creating layer backbone_body_layer1_0_scale3
I0728 23:09:56.925101 16577 net.cpp:84] Creating Layer backbone_body_layer1_0_scale3
I0728 23:09:56.925104 16577 net.cpp:406] backbone_body_layer1_0_scale3 <- backbone_body_layer1_0_conv3
I0728 23:09:56.925108 16577 net.cpp:367] backbone_body_layer1_0_scale3 -> backbone_body_layer1_0_conv3 (in-place)
I0728 23:09:56.925117 16577 layer_factory.hpp:77] Creating layer backbone_body_layer1_0_scale3
I0728 23:09:56.925184 16577 net.cpp:122] Setting up backbone_body_layer1_0_scale3
I0728 23:09:56.925192 16577 net.cpp:129] Top shape: 1 256 120 144 (4423680)
I0728 23:09:56.925195 16577 net.cpp:137] Memory required for data: 228925440
I0728 23:09:56.925199 16577 layer_factory.hpp:77] Creating layer backbone_body_layer1_0_eltwise
I0728 23:09:56.925204 16577 net.cpp:84] Creating Layer backbone_body_layer1_0_eltwise
I0728 23:09:56.925207 16577 net.cpp:406] backbone_body_layer1_0_eltwise <- backbone_body_layer1_0_downsample_0
I0728 23:09:56.925211 16577 net.cpp:406] backbone_body_layer1_0_eltwise <- backbone_body_layer1_0_conv3
I0728 23:09:56.925217 16577 net.cpp:380] backbone_body_layer1_0_eltwise -> backbone_body_layer1_0_eltwise
I0728 23:09:56.925223 16577 net.cpp:122] Setting up backbone_body_layer1_0_eltwise
I0728 23:09:56.925227 16577 net.cpp:129] Top shape: 1 256 120 144 (4423680)
I0728 23:09:56.925230 16577 net.cpp:137] Memory required for data: 246620160
I0728 23:09:56.925233 16577 layer_factory.hpp:77] Creating layer backbone_body_layer1_0_relu
I0728 23:09:56.925240 16577 net.cpp:84] Creating Layer backbone_body_layer1_0_relu
I0728 23:09:56.925242 16577 net.cpp:406] backbone_body_layer1_0_relu <- backbone_body_layer1_0_eltwise
I0728 23:09:56.925246 16577 net.cpp:367] backbone_body_layer1_0_relu -> backbone_body_layer1_0_eltwise (in-place)
I0728 23:09:56.925741 16577 net.cpp:122] Setting up backbone_body_layer1_0_relu
I0728 23:09:56.925755 16577 net.cpp:129] Top shape: 1 256 120 144 (4423680)
I0728 23:09:56.925758 16577 net.cpp:137] Memory required for data: 264314880
I0728 23:09:56.925761 16577 layer_factory.hpp:77] Creating layer backbone_body_layer1_0_eltwise_backbone_body_layer1_0_relu_0_split
I0728 23:09:56.925766 16577 net.cpp:84] Creating Layer backbone_body_layer1_0_eltwise_backbone_body_layer1_0_relu_0_split
I0728 23:09:56.925770 16577 net.cpp:406] backbone_body_layer1_0_eltwise_backbone_body_layer1_0_relu_0_split <- backbone_body_layer1_0_eltwise
I0728 23:09:56.925776 16577 net.cpp:380] backbone_body_layer1_0_eltwise_backbone_body_layer1_0_relu_0_split -> backbone_body_layer1_0_eltwise_backbone_body_layer1_0_relu_0_split_0
I0728 23:09:56.925782 16577 net.cpp:380] backbone_body_layer1_0_eltwise_backbone_body_layer1_0_relu_0_split -> backbone_body_layer1_0_eltwise_backbone_body_layer1_0_relu_0_split_1
I0728 23:09:56.925791 16577 net.cpp:122] Setting up backbone_body_layer1_0_eltwise_backbone_body_layer1_0_relu_0_split
I0728 23:09:56.925796 16577 net.cpp:129] Top shape: 1 256 120 144 (4423680)
I0728 23:09:56.925799 16577 net.cpp:129] Top shape: 1 256 120 144 (4423680)
I0728 23:09:56.925802 16577 net.cpp:137] Memory required for data: 299704320
I0728 23:09:56.925806 16577 layer_factory.hpp:77] Creating layer backbone_body_layer1_1_conv1
I0728 23:09:56.925812 16577 net.cpp:84] Creating Layer backbone_body_layer1_1_conv1
I0728 23:09:56.925814 16577 net.cpp:406] backbone_body_layer1_1_conv1 <- backbone_body_layer1_0_eltwise_backbone_body_layer1_0_relu_0_split_0
I0728 23:09:56.925819 16577 net.cpp:380] backbone_body_layer1_1_conv1 -> backbone_body_layer1_1_conv1
I0728 23:09:56.928409 16577 net.cpp:122] Setting up backbone_body_layer1_1_conv1
I0728 23:09:56.928423 16577 net.cpp:129] Top shape: 1 64 120 144 (1105920)
I0728 23:09:56.928427 16577 net.cpp:137] Memory required for data: 304128000
I0728 23:09:56.928432 16577 layer_factory.hpp:77] Creating layer backbone_body_layer1_1_bn1
I0728 23:09:56.928439 16577 net.cpp:84] Creating Layer backbone_body_layer1_1_bn1
I0728 23:09:56.928443 16577 net.cpp:406] backbone_body_layer1_1_bn1 <- backbone_body_layer1_1_conv1
I0728 23:09:56.928447 16577 net.cpp:367] backbone_body_layer1_1_bn1 -> backbone_body_layer1_1_conv1 (in-place)
I0728 23:09:56.928491 16577 net.cpp:122] Setting up backbone_body_layer1_1_bn1
I0728 23:09:56.928498 16577 net.cpp:129] Top shape: 1 64 120 144 (1105920)
I0728 23:09:56.928500 16577 net.cpp:137] Memory required for data: 308551680
I0728 23:09:56.928508 16577 layer_factory.hpp:77] Creating layer backbone_body_layer1_1_scale1
I0728 23:09:56.928514 16577 net.cpp:84] Creating Layer backbone_body_layer1_1_scale1
I0728 23:09:56.928519 16577 net.cpp:406] backbone_body_layer1_1_scale1 <- backbone_body_layer1_1_conv1
I0728 23:09:56.928522 16577 net.cpp:367] backbone_body_layer1_1_scale1 -> backbone_body_layer1_1_conv1 (in-place)
I0728 23:09:56.928531 16577 layer_factory.hpp:77] Creating layer backbone_body_layer1_1_scale1
I0728 23:09:56.928597 16577 net.cpp:122] Setting up backbone_body_layer1_1_scale1
I0728 23:09:56.928606 16577 net.cpp:129] Top shape: 1 64 120 144 (1105920)
I0728 23:09:56.928609 16577 net.cpp:137] Memory required for data: 312975360
I0728 23:09:56.928613 16577 layer_factory.hpp:77] Creating layer backbone_body_layer1_1_relu1
I0728 23:09:56.928619 16577 net.cpp:84] Creating Layer backbone_body_layer1_1_relu1
I0728 23:09:56.928622 16577 net.cpp:406] backbone_body_layer1_1_relu1 <- backbone_body_layer1_1_conv1
I0728 23:09:56.928627 16577 net.cpp:367] backbone_body_layer1_1_relu1 -> backbone_body_layer1_1_conv1 (in-place)
I0728 23:09:56.928999 16577 net.cpp:122] Setting up backbone_body_layer1_1_relu1
I0728 23:09:56.929010 16577 net.cpp:129] Top shape: 1 64 120 144 (1105920)
I0728 23:09:56.929013 16577 net.cpp:137] Memory required for data: 317399040
I0728 23:09:56.929016 16577 layer_factory.hpp:77] Creating layer backbone_body_layer1_1_conv2
I0728 23:09:56.929023 16577 net.cpp:84] Creating Layer backbone_body_layer1_1_conv2
I0728 23:09:56.929028 16577 net.cpp:406] backbone_body_layer1_1_conv2 <- backbone_body_layer1_1_conv1
I0728 23:09:56.929033 16577 net.cpp:380] backbone_body_layer1_1_conv2 -> backbone_body_layer1_1_conv2
I0728 23:09:56.930910 16577 net.cpp:122] Setting up backbone_body_layer1_1_conv2
I0728 23:09:56.930925 16577 net.cpp:129] Top shape: 1 64 120 144 (1105920)
I0728 23:09:56.930929 16577 net.cpp:137] Memory required for data: 321822720
I0728 23:09:56.930934 16577 layer_factory.hpp:77] Creating layer backbone_body_layer1_1_bn2
I0728 23:09:56.930939 16577 net.cpp:84] Creating Layer backbone_body_layer1_1_bn2
I0728 23:09:56.930943 16577 net.cpp:406] backbone_body_layer1_1_bn2 <- backbone_body_layer1_1_conv2
I0728 23:09:56.930949 16577 net.cpp:367] backbone_body_layer1_1_bn2 -> backbone_body_layer1_1_conv2 (in-place)
I0728 23:09:56.930990 16577 net.cpp:122] Setting up backbone_body_layer1_1_bn2
I0728 23:09:56.930995 16577 net.cpp:129] Top shape: 1 64 120 144 (1105920)
I0728 23:09:56.930999 16577 net.cpp:137] Memory required for data: 326246400
I0728 23:09:56.931005 16577 layer_factory.hpp:77] Creating layer backbone_body_layer1_1_scale2
I0728 23:09:56.931010 16577 net.cpp:84] Creating Layer backbone_body_layer1_1_scale2
I0728 23:09:56.931013 16577 net.cpp:406] backbone_body_layer1_1_scale2 <- backbone_body_layer1_1_conv2
I0728 23:09:56.931018 16577 net.cpp:367] backbone_body_layer1_1_scale2 -> backbone_body_layer1_1_conv2 (in-place)
I0728 23:09:56.931028 16577 layer_factory.hpp:77] Creating layer backbone_body_layer1_1_scale2
I0728 23:09:56.931097 16577 net.cpp:122] Setting up backbone_body_layer1_1_scale2
I0728 23:09:56.931104 16577 net.cpp:129] Top shape: 1 64 120 144 (1105920)
I0728 23:09:56.931107 16577 net.cpp:137] Memory required for data: 330670080
I0728 23:09:56.931111 16577 layer_factory.hpp:77] Creating layer backbone_body_layer1_1_relu2
I0728 23:09:56.931116 16577 net.cpp:84] Creating Layer backbone_body_layer1_1_relu2
I0728 23:09:56.931119 16577 net.cpp:406] backbone_body_layer1_1_relu2 <- backbone_body_layer1_1_conv2
I0728 23:09:56.931125 16577 net.cpp:367] backbone_body_layer1_1_relu2 -> backbone_body_layer1_1_conv2 (in-place)
I0728 23:09:56.931506 16577 net.cpp:122] Setting up backbone_body_layer1_1_relu2
I0728 23:09:56.931519 16577 net.cpp:129] Top shape: 1 64 120 144 (1105920)
I0728 23:09:56.931521 16577 net.cpp:137] Memory required for data: 335093760
I0728 23:09:56.931524 16577 layer_factory.hpp:77] Creating layer backbone_body_layer1_1_conv3
I0728 23:09:56.931535 16577 net.cpp:84] Creating Layer backbone_body_layer1_1_conv3
I0728 23:09:56.931537 16577 net.cpp:406] backbone_body_layer1_1_conv3 <- backbone_body_layer1_1_conv2
I0728 23:09:56.931545 16577 net.cpp:380] backbone_body_layer1_1_conv3 -> backbone_body_layer1_1_conv3
I0728 23:09:56.934060 16577 net.cpp:122] Setting up backbone_body_layer1_1_conv3
I0728 23:09:56.934074 16577 net.cpp:129] Top shape: 1 256 120 144 (4423680)
I0728 23:09:56.934077 16577 net.cpp:137] Memory required for data: 352788480
I0728 23:09:56.934083 16577 layer_factory.hpp:77] Creating layer backbone_body_layer1_1_bn3
I0728 23:09:56.934090 16577 net.cpp:84] Creating Layer backbone_body_layer1_1_bn3
I0728 23:09:56.934093 16577 net.cpp:406] backbone_body_layer1_1_bn3 <- backbone_body_layer1_1_conv3
I0728 23:09:56.934098 16577 net.cpp:367] backbone_body_layer1_1_bn3 -> backbone_body_layer1_1_conv3 (in-place)
I0728 23:09:56.934139 16577 net.cpp:122] Setting up backbone_body_layer1_1_bn3
I0728 23:09:56.934145 16577 net.cpp:129] Top shape: 1 256 120 144 (4423680)
I0728 23:09:56.934147 16577 net.cpp:137] Memory required for data: 370483200
I0728 23:09:56.934154 16577 layer_factory.hpp:77] Creating layer backbone_body_layer1_1_scale3
I0728 23:09:56.934159 16577 net.cpp:84] Creating Layer backbone_body_layer1_1_scale3
I0728 23:09:56.934162 16577 net.cpp:406] backbone_body_layer1_1_scale3 <- backbone_body_layer1_1_conv3
I0728 23:09:56.934168 16577 net.cpp:367] backbone_body_layer1_1_scale3 -> backbone_body_layer1_1_conv3 (in-place)
I0728 23:09:56.934176 16577 layer_factory.hpp:77] Creating layer backbone_body_layer1_1_scale3
I0728 23:09:56.934242 16577 net.cpp:122] Setting up backbone_body_layer1_1_scale3
I0728 23:09:56.934249 16577 net.cpp:129] Top shape: 1 256 120 144 (4423680)
I0728 23:09:56.934252 16577 net.cpp:137] Memory required for data: 388177920
I0728 23:09:56.934257 16577 layer_factory.hpp:77] Creating layer backbone_body_layer1_1_eltwise
I0728 23:09:56.934263 16577 net.cpp:84] Creating Layer backbone_body_layer1_1_eltwise
I0728 23:09:56.934267 16577 net.cpp:406] backbone_body_layer1_1_eltwise <- backbone_body_layer1_0_eltwise_backbone_body_layer1_0_relu_0_split_1
I0728 23:09:56.934270 16577 net.cpp:406] backbone_body_layer1_1_eltwise <- backbone_body_layer1_1_conv3
I0728 23:09:56.934274 16577 net.cpp:380] backbone_body_layer1_1_eltwise -> backbone_body_layer1_1_eltwise
I0728 23:09:56.934280 16577 net.cpp:122] Setting up backbone_body_layer1_1_eltwise
I0728 23:09:56.934285 16577 net.cpp:129] Top shape: 1 256 120 144 (4423680)
I0728 23:09:56.934288 16577 net.cpp:137] Memory required for data: 405872640
I0728 23:09:56.934290 16577 layer_factory.hpp:77] Creating layer backbone_body_layer1_1_relu
I0728 23:09:56.934298 16577 net.cpp:84] Creating Layer backbone_body_layer1_1_relu
I0728 23:09:56.934300 16577 net.cpp:406] backbone_body_layer1_1_relu <- backbone_body_layer1_1_eltwise
I0728 23:09:56.934304 16577 net.cpp:367] backbone_body_layer1_1_relu -> backbone_body_layer1_1_eltwise (in-place)
I0728 23:09:56.934799 16577 net.cpp:122] Setting up backbone_body_layer1_1_relu
I0728 23:09:56.934813 16577 net.cpp:129] Top shape: 1 256 120 144 (4423680)
I0728 23:09:56.934815 16577 net.cpp:137] Memory required for data: 423567360
I0728 23:09:56.934818 16577 layer_factory.hpp:77] Creating layer backbone_body_layer1_1_eltwise_backbone_body_layer1_1_relu_0_split
I0728 23:09:56.934824 16577 net.cpp:84] Creating Layer backbone_body_layer1_1_eltwise_backbone_body_layer1_1_relu_0_split
I0728 23:09:56.934828 16577 net.cpp:406] backbone_body_layer1_1_eltwise_backbone_body_layer1_1_relu_0_split <- backbone_body_layer1_1_eltwise
I0728 23:09:56.934834 16577 net.cpp:380] backbone_body_layer1_1_eltwise_backbone_body_layer1_1_relu_0_split -> backbone_body_layer1_1_eltwise_backbone_body_layer1_1_relu_0_split_0
I0728 23:09:56.934844 16577 net.cpp:380] backbone_body_layer1_1_eltwise_backbone_body_layer1_1_relu_0_split -> backbone_body_layer1_1_eltwise_backbone_body_layer1_1_relu_0_split_1
I0728 23:09:56.934850 16577 net.cpp:122] Setting up backbone_body_layer1_1_eltwise_backbone_body_layer1_1_relu_0_split
I0728 23:09:56.934854 16577 net.cpp:129] Top shape: 1 256 120 144 (4423680)
I0728 23:09:56.934859 16577 net.cpp:129] Top shape: 1 256 120 144 (4423680)
I0728 23:09:56.934861 16577 net.cpp:137] Memory required for data: 458956800
I0728 23:09:56.934864 16577 layer_factory.hpp:77] Creating layer backbone_body_layer1_2_conv1
I0728 23:09:56.934870 16577 net.cpp:84] Creating Layer backbone_body_layer1_2_conv1
I0728 23:09:56.934873 16577 net.cpp:406] backbone_body_layer1_2_conv1 <- backbone_body_layer1_1_eltwise_backbone_body_layer1_1_relu_0_split_0
I0728 23:09:56.934880 16577 net.cpp:380] backbone_body_layer1_2_conv1 -> backbone_body_layer1_2_conv1
I0728 23:09:56.936592 16577 net.cpp:122] Setting up backbone_body_layer1_2_conv1
I0728 23:09:56.936606 16577 net.cpp:129] Top shape: 1 64 120 144 (1105920)
I0728 23:09:56.936609 16577 net.cpp:137] Memory required for data: 463380480
I0728 23:09:56.936614 16577 layer_factory.hpp:77] Creating layer backbone_body_layer1_2_bn1
I0728 23:09:56.936621 16577 net.cpp:84] Creating Layer backbone_body_layer1_2_bn1
I0728 23:09:56.936625 16577 net.cpp:406] backbone_body_layer1_2_bn1 <- backbone_body_layer1_2_conv1
I0728 23:09:56.936630 16577 net.cpp:367] backbone_body_layer1_2_bn1 -> backbone_body_layer1_2_conv1 (in-place)
I0728 23:09:56.936672 16577 net.cpp:122] Setting up backbone_body_layer1_2_bn1
I0728 23:09:56.936677 16577 net.cpp:129] Top shape: 1 64 120 144 (1105920)
I0728 23:09:56.936681 16577 net.cpp:137] Memory required for data: 467804160
I0728 23:09:56.936686 16577 layer_factory.hpp:77] Creating layer backbone_body_layer1_2_scale1
I0728 23:09:56.936694 16577 net.cpp:84] Creating Layer backbone_body_layer1_2_scale1
I0728 23:09:56.936697 16577 net.cpp:406] backbone_body_layer1_2_scale1 <- backbone_body_layer1_2_conv1
I0728 23:09:56.936702 16577 net.cpp:367] backbone_body_layer1_2_scale1 -> backbone_body_layer1_2_conv1 (in-place)
I0728 23:09:56.936710 16577 layer_factory.hpp:77] Creating layer backbone_body_layer1_2_scale1
I0728 23:09:56.936775 16577 net.cpp:122] Setting up backbone_body_layer1_2_scale1
I0728 23:09:56.936784 16577 net.cpp:129] Top shape: 1 64 120 144 (1105920)
I0728 23:09:56.936786 16577 net.cpp:137] Memory required for data: 472227840
I0728 23:09:56.936791 16577 layer_factory.hpp:77] Creating layer backbone_body_layer1_2_relu1
I0728 23:09:56.936798 16577 net.cpp:84] Creating Layer backbone_body_layer1_2_relu1
I0728 23:09:56.936801 16577 net.cpp:406] backbone_body_layer1_2_relu1 <- backbone_body_layer1_2_conv1
I0728 23:09:56.936805 16577 net.cpp:367] backbone_body_layer1_2_relu1 -> backbone_body_layer1_2_conv1 (in-place)
I0728 23:09:56.937287 16577 net.cpp:122] Setting up backbone_body_layer1_2_relu1
I0728 23:09:56.937300 16577 net.cpp:129] Top shape: 1 64 120 144 (1105920)
I0728 23:09:56.937304 16577 net.cpp:137] Memory required for data: 476651520
I0728 23:09:56.937307 16577 layer_factory.hpp:77] Creating layer backbone_body_layer1_2_conv2
I0728 23:09:56.937314 16577 net.cpp:84] Creating Layer backbone_body_layer1_2_conv2
I0728 23:09:56.937317 16577 net.cpp:406] backbone_body_layer1_2_conv2 <- backbone_body_layer1_2_conv1
I0728 23:09:56.937322 16577 net.cpp:380] backbone_body_layer1_2_conv2 -> backbone_body_layer1_2_conv2
I0728 23:09:56.938964 16577 net.cpp:122] Setting up backbone_body_layer1_2_conv2
I0728 23:09:56.938978 16577 net.cpp:129] Top shape: 1 64 120 144 (1105920)
I0728 23:09:56.938982 16577 net.cpp:137] Memory required for data: 481075200
I0728 23:09:56.938987 16577 layer_factory.hpp:77] Creating layer backbone_body_layer1_2_bn2
I0728 23:09:56.938993 16577 net.cpp:84] Creating Layer backbone_body_layer1_2_bn2
I0728 23:09:56.938997 16577 net.cpp:406] backbone_body_layer1_2_bn2 <- backbone_body_layer1_2_conv2
I0728 23:09:56.939002 16577 net.cpp:367] backbone_body_layer1_2_bn2 -> backbone_body_layer1_2_conv2 (in-place)
I0728 23:09:56.939043 16577 net.cpp:122] Setting up backbone_body_layer1_2_bn2
I0728 23:09:56.939049 16577 net.cpp:129] Top shape: 1 64 120 144 (1105920)
I0728 23:09:56.939051 16577 net.cpp:137] Memory required for data: 485498880
I0728 23:09:56.939057 16577 layer_factory.hpp:77] Creating layer backbone_body_layer1_2_scale2
I0728 23:09:56.939064 16577 net.cpp:84] Creating Layer backbone_body_layer1_2_scale2
I0728 23:09:56.939066 16577 net.cpp:406] backbone_body_layer1_2_scale2 <- backbone_body_layer1_2_conv2
I0728 23:09:56.939070 16577 net.cpp:367] backbone_body_layer1_2_scale2 -> backbone_body_layer1_2_conv2 (in-place)
I0728 23:09:56.939077 16577 layer_factory.hpp:77] Creating layer backbone_body_layer1_2_scale2
I0728 23:09:56.939146 16577 net.cpp:122] Setting up backbone_body_layer1_2_scale2
I0728 23:09:56.939154 16577 net.cpp:129] Top shape: 1 64 120 144 (1105920)
I0728 23:09:56.939157 16577 net.cpp:137] Memory required for data: 489922560
I0728 23:09:56.939162 16577 layer_factory.hpp:77] Creating layer backbone_body_layer1_2_relu2
I0728 23:09:56.939167 16577 net.cpp:84] Creating Layer backbone_body_layer1_2_relu2
I0728 23:09:56.939170 16577 net.cpp:406] backbone_body_layer1_2_relu2 <- backbone_body_layer1_2_conv2
I0728 23:09:56.939177 16577 net.cpp:367] backbone_body_layer1_2_relu2 -> backbone_body_layer1_2_conv2 (in-place)
I0728 23:09:56.939672 16577 net.cpp:122] Setting up backbone_body_layer1_2_relu2
I0728 23:09:56.939685 16577 net.cpp:129] Top shape: 1 64 120 144 (1105920)
I0728 23:09:56.939689 16577 net.cpp:137] Memory required for data: 494346240
I0728 23:09:56.939692 16577 layer_factory.hpp:77] Creating layer backbone_body_layer1_2_conv3
I0728 23:09:56.939699 16577 net.cpp:84] Creating Layer backbone_body_layer1_2_conv3
I0728 23:09:56.939703 16577 net.cpp:406] backbone_body_layer1_2_conv3 <- backbone_body_layer1_2_conv2
I0728 23:09:56.939709 16577 net.cpp:380] backbone_body_layer1_2_conv3 -> backbone_body_layer1_2_conv3
I0728 23:09:56.942224 16577 net.cpp:122] Setting up backbone_body_layer1_2_conv3
I0728 23:09:56.942236 16577 net.cpp:129] Top shape: 1 256 120 144 (4423680)
I0728 23:09:56.942240 16577 net.cpp:137] Memory required for data: 512040960
I0728 23:09:56.942245 16577 layer_factory.hpp:77] Creating layer backbone_body_layer1_2_bn3
I0728 23:09:56.942252 16577 net.cpp:84] Creating Layer backbone_body_layer1_2_bn3
I0728 23:09:56.942256 16577 net.cpp:406] backbone_body_layer1_2_bn3 <- backbone_body_layer1_2_conv3
I0728 23:09:56.942260 16577 net.cpp:367] backbone_body_layer1_2_bn3 -> backbone_body_layer1_2_conv3 (in-place)
I0728 23:09:56.942302 16577 net.cpp:122] Setting up backbone_body_layer1_2_bn3
I0728 23:09:56.942308 16577 net.cpp:129] Top shape: 1 256 120 144 (4423680)
I0728 23:09:56.942312 16577 net.cpp:137] Memory required for data: 529735680
I0728 23:09:56.942317 16577 layer_factory.hpp:77] Creating layer backbone_body_layer1_2_scale3
I0728 23:09:56.942322 16577 net.cpp:84] Creating Layer backbone_body_layer1_2_scale3
I0728 23:09:56.942325 16577 net.cpp:406] backbone_body_layer1_2_scale3 <- backbone_body_layer1_2_conv3
I0728 23:09:56.942332 16577 net.cpp:367] backbone_body_layer1_2_scale3 -> backbone_body_layer1_2_conv3 (in-place)
I0728 23:09:56.942339 16577 layer_factory.hpp:77] Creating layer backbone_body_layer1_2_scale3
I0728 23:09:56.942406 16577 net.cpp:122] Setting up backbone_body_layer1_2_scale3
I0728 23:09:56.942415 16577 net.cpp:129] Top shape: 1 256 120 144 (4423680)
I0728 23:09:56.942418 16577 net.cpp:137] Memory required for data: 547430400
I0728 23:09:56.942430 16577 layer_factory.hpp:77] Creating layer backbone_body_layer1_2_eltwise
I0728 23:09:56.942435 16577 net.cpp:84] Creating Layer backbone_body_layer1_2_eltwise
I0728 23:09:56.942437 16577 net.cpp:406] backbone_body_layer1_2_eltwise <- backbone_body_layer1_1_eltwise_backbone_body_layer1_1_relu_0_split_1
I0728 23:09:56.942440 16577 net.cpp:406] backbone_body_layer1_2_eltwise <- backbone_body_layer1_2_conv3
I0728 23:09:56.942445 16577 net.cpp:380] backbone_body_layer1_2_eltwise -> backbone_body_layer1_2_eltwise
I0728 23:09:56.942452 16577 net.cpp:122] Setting up backbone_body_layer1_2_eltwise
I0728 23:09:56.942456 16577 net.cpp:129] Top shape: 1 256 120 144 (4423680)
I0728 23:09:56.942459 16577 net.cpp:137] Memory required for data: 565125120
I0728 23:09:56.942462 16577 layer_factory.hpp:77] Creating layer backbone_body_layer1_2_relu
I0728 23:09:56.942466 16577 net.cpp:84] Creating Layer backbone_body_layer1_2_relu
I0728 23:09:56.942469 16577 net.cpp:406] backbone_body_layer1_2_relu <- backbone_body_layer1_2_eltwise
I0728 23:09:56.942473 16577 net.cpp:367] backbone_body_layer1_2_relu -> backbone_body_layer1_2_eltwise (in-place)
I0728 23:09:56.942988 16577 net.cpp:122] Setting up backbone_body_layer1_2_relu
I0728 23:09:56.943001 16577 net.cpp:129] Top shape: 1 256 120 144 (4423680)
I0728 23:09:56.943006 16577 net.cpp:137] Memory required for data: 582819840
I0728 23:09:56.943008 16577 layer_factory.hpp:77] Creating layer backbone_body_layer1_2_eltwise_backbone_body_layer1_2_relu_0_split
I0728 23:09:56.943014 16577 net.cpp:84] Creating Layer backbone_body_layer1_2_eltwise_backbone_body_layer1_2_relu_0_split
I0728 23:09:56.943017 16577 net.cpp:406] backbone_body_layer1_2_eltwise_backbone_body_layer1_2_relu_0_split <- backbone_body_layer1_2_eltwise
I0728 23:09:56.943022 16577 net.cpp:380] backbone_body_layer1_2_eltwise_backbone_body_layer1_2_relu_0_split -> backbone_body_layer1_2_eltwise_backbone_body_layer1_2_relu_0_split_0
I0728 23:09:56.943029 16577 net.cpp:380] backbone_body_layer1_2_eltwise_backbone_body_layer1_2_relu_0_split -> backbone_body_layer1_2_eltwise_backbone_body_layer1_2_relu_0_split_1
I0728 23:09:56.943037 16577 net.cpp:122] Setting up backbone_body_layer1_2_eltwise_backbone_body_layer1_2_relu_0_split
I0728 23:09:56.943040 16577 net.cpp:129] Top shape: 1 256 120 144 (4423680)
I0728 23:09:56.943044 16577 net.cpp:129] Top shape: 1 256 120 144 (4423680)
I0728 23:09:56.943048 16577 net.cpp:137] Memory required for data: 618209280
I0728 23:09:56.943050 16577 layer_factory.hpp:77] Creating layer backbone_body_layer2_0_downsample_0
I0728 23:09:56.943056 16577 net.cpp:84] Creating Layer backbone_body_layer2_0_downsample_0
I0728 23:09:56.943059 16577 net.cpp:406] backbone_body_layer2_0_downsample_0 <- backbone_body_layer1_2_eltwise_backbone_body_layer1_2_relu_0_split_0
I0728 23:09:56.943064 16577 net.cpp:380] backbone_body_layer2_0_downsample_0 -> backbone_body_layer2_0_downsample_0
I0728 23:09:56.944974 16577 net.cpp:122] Setting up backbone_body_layer2_0_downsample_0
I0728 23:09:56.944988 16577 net.cpp:129] Top shape: 1 512 60 72 (2211840)
I0728 23:09:56.944991 16577 net.cpp:137] Memory required for data: 627056640
I0728 23:09:56.944996 16577 layer_factory.hpp:77] Creating layer backbone_body_layer2_0_downsample_1
I0728 23:09:56.945003 16577 net.cpp:84] Creating Layer backbone_body_layer2_0_downsample_1
I0728 23:09:56.945008 16577 net.cpp:406] backbone_body_layer2_0_downsample_1 <- backbone_body_layer2_0_downsample_0
I0728 23:09:56.945011 16577 net.cpp:367] backbone_body_layer2_0_downsample_1 -> backbone_body_layer2_0_downsample_0 (in-place)
I0728 23:09:56.945035 16577 net.cpp:122] Setting up backbone_body_layer2_0_downsample_1
I0728 23:09:56.945040 16577 net.cpp:129] Top shape: 1 512 60 72 (2211840)
I0728 23:09:56.945044 16577 net.cpp:137] Memory required for data: 635904000
I0728 23:09:56.945048 16577 layer_factory.hpp:77] Creating layer backbone_body_layer2_0_downsample_scale
I0728 23:09:56.945055 16577 net.cpp:84] Creating Layer backbone_body_layer2_0_downsample_scale
I0728 23:09:56.945057 16577 net.cpp:406] backbone_body_layer2_0_downsample_scale <- backbone_body_layer2_0_downsample_0
I0728 23:09:56.945061 16577 net.cpp:367] backbone_body_layer2_0_downsample_scale -> backbone_body_layer2_0_downsample_0 (in-place)
I0728 23:09:56.945070 16577 layer_factory.hpp:77] Creating layer backbone_body_layer2_0_downsample_scale
I0728 23:09:56.945096 16577 net.cpp:122] Setting up backbone_body_layer2_0_downsample_scale
I0728 23:09:56.945101 16577 net.cpp:129] Top shape: 1 512 60 72 (2211840)
I0728 23:09:56.945103 16577 net.cpp:137] Memory required for data: 644751360
I0728 23:09:56.945107 16577 layer_factory.hpp:77] Creating layer backbone_body_layer2_0_conv1
I0728 23:09:56.945114 16577 net.cpp:84] Creating Layer backbone_body_layer2_0_conv1
I0728 23:09:56.945120 16577 net.cpp:406] backbone_body_layer2_0_conv1 <- backbone_body_layer1_2_eltwise_backbone_body_layer1_2_relu_0_split_1
I0728 23:09:56.945124 16577 net.cpp:380] backbone_body_layer2_0_conv1 -> backbone_body_layer2_0_conv1
I0728 23:09:56.946772 16577 net.cpp:122] Setting up backbone_body_layer2_0_conv1
I0728 23:09:56.946786 16577 net.cpp:129] Top shape: 1 128 60 72 (552960)
I0728 23:09:56.946789 16577 net.cpp:137] Memory required for data: 646963200
I0728 23:09:56.946794 16577 layer_factory.hpp:77] Creating layer backbone_body_layer2_0_bn1
I0728 23:09:56.946801 16577 net.cpp:84] Creating Layer backbone_body_layer2_0_bn1
I0728 23:09:56.946805 16577 net.cpp:406] backbone_body_layer2_0_bn1 <- backbone_body_layer2_0_conv1
I0728 23:09:56.946810 16577 net.cpp:367] backbone_body_layer2_0_bn1 -> backbone_body_layer2_0_conv1 (in-place)
I0728 23:09:56.946831 16577 net.cpp:122] Setting up backbone_body_layer2_0_bn1
I0728 23:09:56.946836 16577 net.cpp:129] Top shape: 1 128 60 72 (552960)
I0728 23:09:56.946839 16577 net.cpp:137] Memory required for data: 649175040
I0728 23:09:56.946844 16577 layer_factory.hpp:77] Creating layer backbone_body_layer2_0_scale1
I0728 23:09:56.946851 16577 net.cpp:84] Creating Layer backbone_body_layer2_0_scale1
I0728 23:09:56.946853 16577 net.cpp:406] backbone_body_layer2_0_scale1 <- backbone_body_layer2_0_conv1
I0728 23:09:56.946857 16577 net.cpp:367] backbone_body_layer2_0_scale1 -> backbone_body_layer2_0_conv1 (in-place)
I0728 23:09:56.946864 16577 layer_factory.hpp:77] Creating layer backbone_body_layer2_0_scale1
I0728 23:09:56.946887 16577 net.cpp:122] Setting up backbone_body_layer2_0_scale1
I0728 23:09:56.946893 16577 net.cpp:129] Top shape: 1 128 60 72 (552960)
I0728 23:09:56.946895 16577 net.cpp:137] Memory required for data: 651386880
I0728 23:09:56.946900 16577 layer_factory.hpp:77] Creating layer backbone_body_layer2_0_relu1
I0728 23:09:56.946907 16577 net.cpp:84] Creating Layer backbone_body_layer2_0_relu1
I0728 23:09:56.946909 16577 net.cpp:406] backbone_body_layer2_0_relu1 <- backbone_body_layer2_0_conv1
I0728 23:09:56.946913 16577 net.cpp:367] backbone_body_layer2_0_relu1 -> backbone_body_layer2_0_conv1 (in-place)
I0728 23:09:56.948207 16577 net.cpp:122] Setting up backbone_body_layer2_0_relu1
I0728 23:09:56.948221 16577 net.cpp:129] Top shape: 1 128 60 72 (552960)
I0728 23:09:56.948225 16577 net.cpp:137] Memory required for data: 653598720
I0728 23:09:56.948228 16577 layer_factory.hpp:77] Creating layer backbone_body_layer2_0_conv2
I0728 23:09:56.948235 16577 net.cpp:84] Creating Layer backbone_body_layer2_0_conv2
I0728 23:09:56.948240 16577 net.cpp:406] backbone_body_layer2_0_conv2 <- backbone_body_layer2_0_conv1
I0728 23:09:56.948244 16577 net.cpp:380] backbone_body_layer2_0_conv2 -> backbone_body_layer2_0_conv2
I0728 23:09:56.950158 16577 net.cpp:122] Setting up backbone_body_layer2_0_conv2
I0728 23:09:56.950174 16577 net.cpp:129] Top shape: 1 128 60 72 (552960)
I0728 23:09:56.950177 16577 net.cpp:137] Memory required for data: 655810560
I0728 23:09:56.950182 16577 layer_factory.hpp:77] Creating layer backbone_body_layer2_0_bn2
I0728 23:09:56.950188 16577 net.cpp:84] Creating Layer backbone_body_layer2_0_bn2
I0728 23:09:56.950191 16577 net.cpp:406] backbone_body_layer2_0_bn2 <- backbone_body_layer2_0_conv2
I0728 23:09:56.950197 16577 net.cpp:367] backbone_body_layer2_0_bn2 -> backbone_body_layer2_0_conv2 (in-place)
I0728 23:09:56.950219 16577 net.cpp:122] Setting up backbone_body_layer2_0_bn2
I0728 23:09:56.950223 16577 net.cpp:129] Top shape: 1 128 60 72 (552960)
I0728 23:09:56.950227 16577 net.cpp:137] Memory required for data: 658022400
I0728 23:09:56.950232 16577 layer_factory.hpp:77] Creating layer backbone_body_layer2_0_scale2
I0728 23:09:56.950237 16577 net.cpp:84] Creating Layer backbone_body_layer2_0_scale2
I0728 23:09:56.950240 16577 net.cpp:406] backbone_body_layer2_0_scale2 <- backbone_body_layer2_0_conv2
I0728 23:09:56.950244 16577 net.cpp:367] backbone_body_layer2_0_scale2 -> backbone_body_layer2_0_conv2 (in-place)
I0728 23:09:56.950251 16577 layer_factory.hpp:77] Creating layer backbone_body_layer2_0_scale2
I0728 23:09:56.950278 16577 net.cpp:122] Setting up backbone_body_layer2_0_scale2
I0728 23:09:56.950282 16577 net.cpp:129] Top shape: 1 128 60 72 (552960)
I0728 23:09:56.950285 16577 net.cpp:137] Memory required for data: 660234240
I0728 23:09:56.950290 16577 layer_factory.hpp:77] Creating layer backbone_body_layer2_0_relu2
I0728 23:09:56.950294 16577 net.cpp:84] Creating Layer backbone_body_layer2_0_relu2
I0728 23:09:56.950297 16577 net.cpp:406] backbone_body_layer2_0_relu2 <- backbone_body_layer2_0_conv2
I0728 23:09:56.950302 16577 net.cpp:367] backbone_body_layer2_0_relu2 -> backbone_body_layer2_0_conv2 (in-place)
I0728 23:09:56.950798 16577 net.cpp:122] Setting up backbone_body_layer2_0_relu2
I0728 23:09:56.950809 16577 net.cpp:129] Top shape: 1 128 60 72 (552960)
I0728 23:09:56.950812 16577 net.cpp:137] Memory required for data: 662446080
I0728 23:09:56.950816 16577 layer_factory.hpp:77] Creating layer backbone_body_layer2_0_conv3
I0728 23:09:56.950824 16577 net.cpp:84] Creating Layer backbone_body_layer2_0_conv3
I0728 23:09:56.950827 16577 net.cpp:406] backbone_body_layer2_0_conv3 <- backbone_body_layer2_0_conv2
I0728 23:09:56.950832 16577 net.cpp:380] backbone_body_layer2_0_conv3 -> backbone_body_layer2_0_conv3
I0728 23:09:56.952525 16577 net.cpp:122] Setting up backbone_body_layer2_0_conv3
I0728 23:09:56.952539 16577 net.cpp:129] Top shape: 1 512 60 72 (2211840)
I0728 23:09:56.952543 16577 net.cpp:137] Memory required for data: 671293440
I0728 23:09:56.952548 16577 layer_factory.hpp:77] Creating layer backbone_body_layer2_0_bn3
I0728 23:09:56.952562 16577 net.cpp:84] Creating Layer backbone_body_layer2_0_bn3
I0728 23:09:56.952565 16577 net.cpp:406] backbone_body_layer2_0_bn3 <- backbone_body_layer2_0_conv3
I0728 23:09:56.952570 16577 net.cpp:367] backbone_body_layer2_0_bn3 -> backbone_body_layer2_0_conv3 (in-place)
I0728 23:09:56.952592 16577 net.cpp:122] Setting up backbone_body_layer2_0_bn3
I0728 23:09:56.952597 16577 net.cpp:129] Top shape: 1 512 60 72 (2211840)
I0728 23:09:56.952600 16577 net.cpp:137] Memory required for data: 680140800
I0728 23:09:56.952605 16577 layer_factory.hpp:77] Creating layer backbone_body_layer2_0_scale3
I0728 23:09:56.952610 16577 net.cpp:84] Creating Layer backbone_body_layer2_0_scale3
I0728 23:09:56.952613 16577 net.cpp:406] backbone_body_layer2_0_scale3 <- backbone_body_layer2_0_conv3
I0728 23:09:56.952616 16577 net.cpp:367] backbone_body_layer2_0_scale3 -> backbone_body_layer2_0_conv3 (in-place)
I0728 23:09:56.952626 16577 layer_factory.hpp:77] Creating layer backbone_body_layer2_0_scale3
I0728 23:09:56.952651 16577 net.cpp:122] Setting up backbone_body_layer2_0_scale3
I0728 23:09:56.952656 16577 net.cpp:129] Top shape: 1 512 60 72 (2211840)
I0728 23:09:56.952658 16577 net.cpp:137] Memory required for data: 688988160
I0728 23:09:56.952663 16577 layer_factory.hpp:77] Creating layer backbone_body_layer2_0_eltwise
I0728 23:09:56.952667 16577 net.cpp:84] Creating Layer backbone_body_layer2_0_eltwise
I0728 23:09:56.952670 16577 net.cpp:406] backbone_body_layer2_0_eltwise <- backbone_body_layer2_0_downsample_0
I0728 23:09:56.952674 16577 net.cpp:406] backbone_body_layer2_0_eltwise <- backbone_body_layer2_0_conv3
I0728 23:09:56.952679 16577 net.cpp:380] backbone_body_layer2_0_eltwise -> backbone_body_layer2_0_eltwise
I0728 23:09:56.952685 16577 net.cpp:122] Setting up backbone_body_layer2_0_eltwise
I0728 23:09:56.952689 16577 net.cpp:129] Top shape: 1 512 60 72 (2211840)
I0728 23:09:56.952692 16577 net.cpp:137] Memory required for data: 697835520
I0728 23:09:56.952695 16577 layer_factory.hpp:77] Creating layer backbone_body_layer2_0_relu
I0728 23:09:56.952699 16577 net.cpp:84] Creating Layer backbone_body_layer2_0_relu
I0728 23:09:56.952702 16577 net.cpp:406] backbone_body_layer2_0_relu <- backbone_body_layer2_0_eltwise
I0728 23:09:56.952708 16577 net.cpp:367] backbone_body_layer2_0_relu -> backbone_body_layer2_0_eltwise (in-place)
I0728 23:09:56.953207 16577 net.cpp:122] Setting up backbone_body_layer2_0_relu
I0728 23:09:56.953219 16577 net.cpp:129] Top shape: 1 512 60 72 (2211840)
I0728 23:09:56.953222 16577 net.cpp:137] Memory required for data: 706682880
I0728 23:09:56.953225 16577 layer_factory.hpp:77] Creating layer backbone_body_layer2_0_eltwise_backbone_body_layer2_0_relu_0_split
I0728 23:09:56.953230 16577 net.cpp:84] Creating Layer backbone_body_layer2_0_eltwise_backbone_body_layer2_0_relu_0_split
I0728 23:09:56.953233 16577 net.cpp:406] backbone_body_layer2_0_eltwise_backbone_body_layer2_0_relu_0_split <- backbone_body_layer2_0_eltwise
I0728 23:09:56.953240 16577 net.cpp:380] backbone_body_layer2_0_eltwise_backbone_body_layer2_0_relu_0_split -> backbone_body_layer2_0_eltwise_backbone_body_layer2_0_relu_0_split_0
I0728 23:09:56.953246 16577 net.cpp:380] backbone_body_layer2_0_eltwise_backbone_body_layer2_0_relu_0_split -> backbone_body_layer2_0_eltwise_backbone_body_layer2_0_relu_0_split_1
I0728 23:09:56.953253 16577 net.cpp:122] Setting up backbone_body_layer2_0_eltwise_backbone_body_layer2_0_relu_0_split
I0728 23:09:56.953258 16577 net.cpp:129] Top shape: 1 512 60 72 (2211840)
I0728 23:09:56.953260 16577 net.cpp:129] Top shape: 1 512 60 72 (2211840)
I0728 23:09:56.953263 16577 net.cpp:137] Memory required for data: 724377600
I0728 23:09:56.953266 16577 layer_factory.hpp:77] Creating layer backbone_body_layer2_1_conv1
I0728 23:09:56.953274 16577 net.cpp:84] Creating Layer backbone_body_layer2_1_conv1
I0728 23:09:56.953277 16577 net.cpp:406] backbone_body_layer2_1_conv1 <- backbone_body_layer2_0_eltwise_backbone_body_layer2_0_relu_0_split_0
I0728 23:09:56.953281 16577 net.cpp:380] backbone_body_layer2_1_conv1 -> backbone_body_layer2_1_conv1
I0728 23:09:56.956012 16577 net.cpp:122] Setting up backbone_body_layer2_1_conv1
I0728 23:09:56.956025 16577 net.cpp:129] Top shape: 1 128 60 72 (552960)
I0728 23:09:56.956029 16577 net.cpp:137] Memory required for data: 726589440
I0728 23:09:56.956034 16577 layer_factory.hpp:77] Creating layer backbone_body_layer2_1_bn1
I0728 23:09:56.956040 16577 net.cpp:84] Creating Layer backbone_body_layer2_1_bn1
I0728 23:09:56.956044 16577 net.cpp:406] backbone_body_layer2_1_bn1 <- backbone_body_layer2_1_conv1
I0728 23:09:56.956050 16577 net.cpp:367] backbone_body_layer2_1_bn1 -> backbone_body_layer2_1_conv1 (in-place)
I0728 23:09:56.956072 16577 net.cpp:122] Setting up backbone_body_layer2_1_bn1
I0728 23:09:56.956077 16577 net.cpp:129] Top shape: 1 128 60 72 (552960)
I0728 23:09:56.956080 16577 net.cpp:137] Memory required for data: 728801280
I0728 23:09:56.956085 16577 layer_factory.hpp:77] Creating layer backbone_body_layer2_1_scale1
I0728 23:09:56.956090 16577 net.cpp:84] Creating Layer backbone_body_layer2_1_scale1
I0728 23:09:56.956094 16577 net.cpp:406] backbone_body_layer2_1_scale1 <- backbone_body_layer2_1_conv1
I0728 23:09:56.956097 16577 net.cpp:367] backbone_body_layer2_1_scale1 -> backbone_body_layer2_1_conv1 (in-place)
I0728 23:09:56.956106 16577 layer_factory.hpp:77] Creating layer backbone_body_layer2_1_scale1
I0728 23:09:56.956130 16577 net.cpp:122] Setting up backbone_body_layer2_1_scale1
I0728 23:09:56.956135 16577 net.cpp:129] Top shape: 1 128 60 72 (552960)
I0728 23:09:56.956137 16577 net.cpp:137] Memory required for data: 731013120
I0728 23:09:56.956142 16577 layer_factory.hpp:77] Creating layer backbone_body_layer2_1_relu1
I0728 23:09:56.956146 16577 net.cpp:84] Creating Layer backbone_body_layer2_1_relu1
I0728 23:09:56.956149 16577 net.cpp:406] backbone_body_layer2_1_relu1 <- backbone_body_layer2_1_conv1
I0728 23:09:56.956154 16577 net.cpp:367] backbone_body_layer2_1_relu1 -> backbone_body_layer2_1_conv1 (in-place)
I0728 23:09:56.956532 16577 net.cpp:122] Setting up backbone_body_layer2_1_relu1
I0728 23:09:56.956543 16577 net.cpp:129] Top shape: 1 128 60 72 (552960)
I0728 23:09:56.956547 16577 net.cpp:137] Memory required for data: 733224960
I0728 23:09:56.956550 16577 layer_factory.hpp:77] Creating layer backbone_body_layer2_1_conv2
I0728 23:09:56.956558 16577 net.cpp:84] Creating Layer backbone_body_layer2_1_conv2
I0728 23:09:56.956562 16577 net.cpp:406] backbone_body_layer2_1_conv2 <- backbone_body_layer2_1_conv1
I0728 23:09:56.956566 16577 net.cpp:380] backbone_body_layer2_1_conv2 -> backbone_body_layer2_1_conv2
I0728 23:09:56.958606 16577 net.cpp:122] Setting up backbone_body_layer2_1_conv2
I0728 23:09:56.958621 16577 net.cpp:129] Top shape: 1 128 60 72 (552960)
I0728 23:09:56.958623 16577 net.cpp:137] Memory required for data: 735436800
I0728 23:09:56.958629 16577 layer_factory.hpp:77] Creating layer backbone_body_layer2_1_bn2
I0728 23:09:56.958634 16577 net.cpp:84] Creating Layer backbone_body_layer2_1_bn2
I0728 23:09:56.958637 16577 net.cpp:406] backbone_body_layer2_1_bn2 <- backbone_body_layer2_1_conv2
I0728 23:09:56.958644 16577 net.cpp:367] backbone_body_layer2_1_bn2 -> backbone_body_layer2_1_conv2 (in-place)
I0728 23:09:56.958667 16577 net.cpp:122] Setting up backbone_body_layer2_1_bn2
I0728 23:09:56.958671 16577 net.cpp:129] Top shape: 1 128 60 72 (552960)
I0728 23:09:56.958674 16577 net.cpp:137] Memory required for data: 737648640
I0728 23:09:56.958679 16577 layer_factory.hpp:77] Creating layer backbone_body_layer2_1_scale2
I0728 23:09:56.958685 16577 net.cpp:84] Creating Layer backbone_body_layer2_1_scale2
I0728 23:09:56.958688 16577 net.cpp:406] backbone_body_layer2_1_scale2 <- backbone_body_layer2_1_conv2
I0728 23:09:56.958693 16577 net.cpp:367] backbone_body_layer2_1_scale2 -> backbone_body_layer2_1_conv2 (in-place)
I0728 23:09:56.958699 16577 layer_factory.hpp:77] Creating layer backbone_body_layer2_1_scale2
I0728 23:09:56.958724 16577 net.cpp:122] Setting up backbone_body_layer2_1_scale2
I0728 23:09:56.958729 16577 net.cpp:129] Top shape: 1 128 60 72 (552960)
I0728 23:09:56.958731 16577 net.cpp:137] Memory required for data: 739860480
I0728 23:09:56.958735 16577 layer_factory.hpp:77] Creating layer backbone_body_layer2_1_relu2
I0728 23:09:56.958739 16577 net.cpp:84] Creating Layer backbone_body_layer2_1_relu2
I0728 23:09:56.958745 16577 net.cpp:406] backbone_body_layer2_1_relu2 <- backbone_body_layer2_1_conv2
I0728 23:09:56.958748 16577 net.cpp:367] backbone_body_layer2_1_relu2 -> backbone_body_layer2_1_conv2 (in-place)
I0728 23:09:56.959247 16577 net.cpp:122] Setting up backbone_body_layer2_1_relu2
I0728 23:09:56.959260 16577 net.cpp:129] Top shape: 1 128 60 72 (552960)
I0728 23:09:56.959264 16577 net.cpp:137] Memory required for data: 742072320
I0728 23:09:56.959266 16577 layer_factory.hpp:77] Creating layer backbone_body_layer2_1_conv3
I0728 23:09:56.959273 16577 net.cpp:84] Creating Layer backbone_body_layer2_1_conv3
I0728 23:09:56.959277 16577 net.cpp:406] backbone_body_layer2_1_conv3 <- backbone_body_layer2_1_conv2
I0728 23:09:56.959283 16577 net.cpp:380] backbone_body_layer2_1_conv3 -> backbone_body_layer2_1_conv3
I0728 23:09:56.960976 16577 net.cpp:122] Setting up backbone_body_layer2_1_conv3
I0728 23:09:56.960989 16577 net.cpp:129] Top shape: 1 512 60 72 (2211840)
I0728 23:09:56.960994 16577 net.cpp:137] Memory required for data: 750919680
I0728 23:09:56.960999 16577 layer_factory.hpp:77] Creating layer backbone_body_layer2_1_bn3
I0728 23:09:56.961004 16577 net.cpp:84] Creating Layer backbone_body_layer2_1_bn3
I0728 23:09:56.961009 16577 net.cpp:406] backbone_body_layer2_1_bn3 <- backbone_body_layer2_1_conv3
I0728 23:09:56.961012 16577 net.cpp:367] backbone_body_layer2_1_bn3 -> backbone_body_layer2_1_conv3 (in-place)
I0728 23:09:56.961035 16577 net.cpp:122] Setting up backbone_body_layer2_1_bn3
I0728 23:09:56.961040 16577 net.cpp:129] Top shape: 1 512 60 72 (2211840)
I0728 23:09:56.961043 16577 net.cpp:137] Memory required for data: 759767040
I0728 23:09:56.961048 16577 layer_factory.hpp:77] Creating layer backbone_body_layer2_1_scale3
I0728 23:09:56.961055 16577 net.cpp:84] Creating Layer backbone_body_layer2_1_scale3
I0728 23:09:56.961058 16577 net.cpp:406] backbone_body_layer2_1_scale3 <- backbone_body_layer2_1_conv3
I0728 23:09:56.961062 16577 net.cpp:367] backbone_body_layer2_1_scale3 -> backbone_body_layer2_1_conv3 (in-place)
I0728 23:09:56.961071 16577 layer_factory.hpp:77] Creating layer backbone_body_layer2_1_scale3
I0728 23:09:56.961097 16577 net.cpp:122] Setting up backbone_body_layer2_1_scale3
I0728 23:09:56.961102 16577 net.cpp:129] Top shape: 1 512 60 72 (2211840)
I0728 23:09:56.961104 16577 net.cpp:137] Memory required for data: 768614400
I0728 23:09:56.961109 16577 layer_factory.hpp:77] Creating layer backbone_body_layer2_1_eltwise
I0728 23:09:56.961115 16577 net.cpp:84] Creating Layer backbone_body_layer2_1_eltwise
I0728 23:09:56.961119 16577 net.cpp:406] backbone_body_layer2_1_eltwise <- backbone_body_layer2_0_eltwise_backbone_body_layer2_0_relu_0_split_1
I0728 23:09:56.961122 16577 net.cpp:406] backbone_body_layer2_1_eltwise <- backbone_body_layer2_1_conv3
I0728 23:09:56.961127 16577 net.cpp:380] backbone_body_layer2_1_eltwise -> backbone_body_layer2_1_eltwise
I0728 23:09:56.961133 16577 net.cpp:122] Setting up backbone_body_layer2_1_eltwise
I0728 23:09:56.961138 16577 net.cpp:129] Top shape: 1 512 60 72 (2211840)
I0728 23:09:56.961140 16577 net.cpp:137] Memory required for data: 777461760
I0728 23:09:56.961143 16577 layer_factory.hpp:77] Creating layer backbone_body_layer2_1_relu
I0728 23:09:56.961148 16577 net.cpp:84] Creating Layer backbone_body_layer2_1_relu
I0728 23:09:56.961151 16577 net.cpp:406] backbone_body_layer2_1_relu <- backbone_body_layer2_1_eltwise
I0728 23:09:56.961154 16577 net.cpp:367] backbone_body_layer2_1_relu -> backbone_body_layer2_1_eltwise (in-place)
I0728 23:09:56.962445 16577 net.cpp:122] Setting up backbone_body_layer2_1_relu
I0728 23:09:56.962458 16577 net.cpp:129] Top shape: 1 512 60 72 (2211840)
I0728 23:09:56.962462 16577 net.cpp:137] Memory required for data: 786309120
I0728 23:09:56.962466 16577 layer_factory.hpp:77] Creating layer backbone_body_layer2_1_eltwise_backbone_body_layer2_1_relu_0_split
I0728 23:09:56.962472 16577 net.cpp:84] Creating Layer backbone_body_layer2_1_eltwise_backbone_body_layer2_1_relu_0_split
I0728 23:09:56.962476 16577 net.cpp:406] backbone_body_layer2_1_eltwise_backbone_body_layer2_1_relu_0_split <- backbone_body_layer2_1_eltwise
I0728 23:09:56.962481 16577 net.cpp:380] backbone_body_layer2_1_eltwise_backbone_body_layer2_1_relu_0_split -> backbone_body_layer2_1_eltwise_backbone_body_layer2_1_relu_0_split_0
I0728 23:09:56.962487 16577 net.cpp:380] backbone_body_layer2_1_eltwise_backbone_body_layer2_1_relu_0_split -> backbone_body_layer2_1_eltwise_backbone_body_layer2_1_relu_0_split_1
I0728 23:09:56.962496 16577 net.cpp:122] Setting up backbone_body_layer2_1_eltwise_backbone_body_layer2_1_relu_0_split
I0728 23:09:56.962500 16577 net.cpp:129] Top shape: 1 512 60 72 (2211840)
I0728 23:09:56.962504 16577 net.cpp:129] Top shape: 1 512 60 72 (2211840)
I0728 23:09:56.962507 16577 net.cpp:137] Memory required for data: 804003840
I0728 23:09:56.962509 16577 layer_factory.hpp:77] Creating layer backbone_body_layer2_2_conv1
I0728 23:09:56.962515 16577 net.cpp:84] Creating Layer backbone_body_layer2_2_conv1
I0728 23:09:56.962519 16577 net.cpp:406] backbone_body_layer2_2_conv1 <- backbone_body_layer2_1_eltwise_backbone_body_layer2_1_relu_0_split_0
I0728 23:09:56.962523 16577 net.cpp:380] backbone_body_layer2_2_conv1 -> backbone_body_layer2_2_conv1
I0728 23:09:56.964219 16577 net.cpp:122] Setting up backbone_body_layer2_2_conv1
I0728 23:09:56.964233 16577 net.cpp:129] Top shape: 1 128 60 72 (552960)
I0728 23:09:56.964237 16577 net.cpp:137] Memory required for data: 806215680
I0728 23:09:56.964242 16577 layer_factory.hpp:77] Creating layer backbone_body_layer2_2_bn1
I0728 23:09:56.964248 16577 net.cpp:84] Creating Layer backbone_body_layer2_2_bn1
I0728 23:09:56.964252 16577 net.cpp:406] backbone_body_layer2_2_bn1 <- backbone_body_layer2_2_conv1
I0728 23:09:56.964257 16577 net.cpp:367] backbone_body_layer2_2_bn1 -> backbone_body_layer2_2_conv1 (in-place)
I0728 23:09:56.964280 16577 net.cpp:122] Setting up backbone_body_layer2_2_bn1
I0728 23:09:56.964284 16577 net.cpp:129] Top shape: 1 128 60 72 (552960)
I0728 23:09:56.964287 16577 net.cpp:137] Memory required for data: 808427520
I0728 23:09:56.964293 16577 layer_factory.hpp:77] Creating layer backbone_body_layer2_2_scale1
I0728 23:09:56.964298 16577 net.cpp:84] Creating Layer backbone_body_layer2_2_scale1
I0728 23:09:56.964300 16577 net.cpp:406] backbone_body_layer2_2_scale1 <- backbone_body_layer2_2_conv1
I0728 23:09:56.964304 16577 net.cpp:367] backbone_body_layer2_2_scale1 -> backbone_body_layer2_2_conv1 (in-place)
I0728 23:09:56.964311 16577 layer_factory.hpp:77] Creating layer backbone_body_layer2_2_scale1
I0728 23:09:56.964335 16577 net.cpp:122] Setting up backbone_body_layer2_2_scale1
I0728 23:09:56.964340 16577 net.cpp:129] Top shape: 1 128 60 72 (552960)
I0728 23:09:56.964344 16577 net.cpp:137] Memory required for data: 810639360
I0728 23:09:56.964347 16577 layer_factory.hpp:77] Creating layer backbone_body_layer2_2_relu1
I0728 23:09:56.964354 16577 net.cpp:84] Creating Layer backbone_body_layer2_2_relu1
I0728 23:09:56.964356 16577 net.cpp:406] backbone_body_layer2_2_relu1 <- backbone_body_layer2_2_conv1
I0728 23:09:56.964360 16577 net.cpp:367] backbone_body_layer2_2_relu1 -> backbone_body_layer2_2_conv1 (in-place)
I0728 23:09:56.964865 16577 net.cpp:122] Setting up backbone_body_layer2_2_relu1
I0728 23:09:56.964877 16577 net.cpp:129] Top shape: 1 128 60 72 (552960)
I0728 23:09:56.964880 16577 net.cpp:137] Memory required for data: 812851200
I0728 23:09:56.964884 16577 layer_factory.hpp:77] Creating layer backbone_body_layer2_2_conv2
I0728 23:09:56.964891 16577 net.cpp:84] Creating Layer backbone_body_layer2_2_conv2
I0728 23:09:56.964895 16577 net.cpp:406] backbone_body_layer2_2_conv2 <- backbone_body_layer2_2_conv1
I0728 23:09:56.964901 16577 net.cpp:380] backbone_body_layer2_2_conv2 -> backbone_body_layer2_2_conv2
I0728 23:09:56.966810 16577 net.cpp:122] Setting up backbone_body_layer2_2_conv2
I0728 23:09:56.966825 16577 net.cpp:129] Top shape: 1 128 60 72 (552960)
I0728 23:09:56.966827 16577 net.cpp:137] Memory required for data: 815063040
I0728 23:09:56.966832 16577 layer_factory.hpp:77] Creating layer backbone_body_layer2_2_bn2
I0728 23:09:56.966840 16577 net.cpp:84] Creating Layer backbone_body_layer2_2_bn2
I0728 23:09:56.966842 16577 net.cpp:406] backbone_body_layer2_2_bn2 <- backbone_body_layer2_2_conv2
I0728 23:09:56.966847 16577 net.cpp:367] backbone_body_layer2_2_bn2 -> backbone_body_layer2_2_conv2 (in-place)
I0728 23:09:56.966867 16577 net.cpp:122] Setting up backbone_body_layer2_2_bn2
I0728 23:09:56.966871 16577 net.cpp:129] Top shape: 1 128 60 72 (552960)
I0728 23:09:56.966874 16577 net.cpp:137] Memory required for data: 817274880
I0728 23:09:56.966879 16577 layer_factory.hpp:77] Creating layer backbone_body_layer2_2_scale2
I0728 23:09:56.966884 16577 net.cpp:84] Creating Layer backbone_body_layer2_2_scale2
I0728 23:09:56.966887 16577 net.cpp:406] backbone_body_layer2_2_scale2 <- backbone_body_layer2_2_conv2
I0728 23:09:56.966892 16577 net.cpp:367] backbone_body_layer2_2_scale2 -> backbone_body_layer2_2_conv2 (in-place)
I0728 23:09:56.966899 16577 layer_factory.hpp:77] Creating layer backbone_body_layer2_2_scale2
I0728 23:09:56.966928 16577 net.cpp:122] Setting up backbone_body_layer2_2_scale2
I0728 23:09:56.966933 16577 net.cpp:129] Top shape: 1 128 60 72 (552960)
I0728 23:09:56.966936 16577 net.cpp:137] Memory required for data: 819486720
I0728 23:09:56.966941 16577 layer_factory.hpp:77] Creating layer backbone_body_layer2_2_relu2
I0728 23:09:56.966945 16577 net.cpp:84] Creating Layer backbone_body_layer2_2_relu2
I0728 23:09:56.966948 16577 net.cpp:406] backbone_body_layer2_2_relu2 <- backbone_body_layer2_2_conv2
I0728 23:09:56.966953 16577 net.cpp:367] backbone_body_layer2_2_relu2 -> backbone_body_layer2_2_conv2 (in-place)
I0728 23:09:56.967448 16577 net.cpp:122] Setting up backbone_body_layer2_2_relu2
I0728 23:09:56.967463 16577 net.cpp:129] Top shape: 1 128 60 72 (552960)
I0728 23:09:56.967465 16577 net.cpp:137] Memory required for data: 821698560
I0728 23:09:56.967468 16577 layer_factory.hpp:77] Creating layer backbone_body_layer2_2_conv3
I0728 23:09:56.967476 16577 net.cpp:84] Creating Layer backbone_body_layer2_2_conv3
I0728 23:09:56.967479 16577 net.cpp:406] backbone_body_layer2_2_conv3 <- backbone_body_layer2_2_conv2
I0728 23:09:56.967485 16577 net.cpp:380] backbone_body_layer2_2_conv3 -> backbone_body_layer2_2_conv3
I0728 23:09:56.970233 16577 net.cpp:122] Setting up backbone_body_layer2_2_conv3
I0728 23:09:56.970248 16577 net.cpp:129] Top shape: 1 512 60 72 (2211840)
I0728 23:09:56.970252 16577 net.cpp:137] Memory required for data: 830545920
I0728 23:09:56.970257 16577 layer_factory.hpp:77] Creating layer backbone_body_layer2_2_bn3
I0728 23:09:56.970263 16577 net.cpp:84] Creating Layer backbone_body_layer2_2_bn3
I0728 23:09:56.970268 16577 net.cpp:406] backbone_body_layer2_2_bn3 <- backbone_body_layer2_2_conv3
I0728 23:09:56.970271 16577 net.cpp:367] backbone_body_layer2_2_bn3 -> backbone_body_layer2_2_conv3 (in-place)
I0728 23:09:56.970294 16577 net.cpp:122] Setting up backbone_body_layer2_2_bn3
I0728 23:09:56.970299 16577 net.cpp:129] Top shape: 1 512 60 72 (2211840)
I0728 23:09:56.970301 16577 net.cpp:137] Memory required for data: 839393280
I0728 23:09:56.970306 16577 layer_factory.hpp:77] Creating layer backbone_body_layer2_2_scale3
I0728 23:09:56.970311 16577 net.cpp:84] Creating Layer backbone_body_layer2_2_scale3
I0728 23:09:56.970314 16577 net.cpp:406] backbone_body_layer2_2_scale3 <- backbone_body_layer2_2_conv3
I0728 23:09:56.970319 16577 net.cpp:367] backbone_body_layer2_2_scale3 -> backbone_body_layer2_2_conv3 (in-place)
I0728 23:09:56.970328 16577 layer_factory.hpp:77] Creating layer backbone_body_layer2_2_scale3
I0728 23:09:56.970356 16577 net.cpp:122] Setting up backbone_body_layer2_2_scale3
I0728 23:09:56.970367 16577 net.cpp:129] Top shape: 1 512 60 72 (2211840)
I0728 23:09:56.970371 16577 net.cpp:137] Memory required for data: 848240640
I0728 23:09:56.970376 16577 layer_factory.hpp:77] Creating layer backbone_body_layer2_2_eltwise
I0728 23:09:56.970381 16577 net.cpp:84] Creating Layer backbone_body_layer2_2_eltwise
I0728 23:09:56.970384 16577 net.cpp:406] backbone_body_layer2_2_eltwise <- backbone_body_layer2_1_eltwise_backbone_body_layer2_1_relu_0_split_1
I0728 23:09:56.970388 16577 net.cpp:406] backbone_body_layer2_2_eltwise <- backbone_body_layer2_2_conv3
I0728 23:09:56.970392 16577 net.cpp:380] backbone_body_layer2_2_eltwise -> backbone_body_layer2_2_eltwise
I0728 23:09:56.970400 16577 net.cpp:122] Setting up backbone_body_layer2_2_eltwise
I0728 23:09:56.970404 16577 net.cpp:129] Top shape: 1 512 60 72 (2211840)
I0728 23:09:56.970407 16577 net.cpp:137] Memory required for data: 857088000
I0728 23:09:56.970410 16577 layer_factory.hpp:77] Creating layer backbone_body_layer2_2_relu
I0728 23:09:56.970414 16577 net.cpp:84] Creating Layer backbone_body_layer2_2_relu
I0728 23:09:56.970417 16577 net.cpp:406] backbone_body_layer2_2_relu <- backbone_body_layer2_2_eltwise
I0728 23:09:56.970422 16577 net.cpp:367] backbone_body_layer2_2_relu -> backbone_body_layer2_2_eltwise (in-place)
I0728 23:09:56.970798 16577 net.cpp:122] Setting up backbone_body_layer2_2_relu
I0728 23:09:56.970810 16577 net.cpp:129] Top shape: 1 512 60 72 (2211840)
I0728 23:09:56.970813 16577 net.cpp:137] Memory required for data: 865935360
I0728 23:09:56.970816 16577 layer_factory.hpp:77] Creating layer backbone_body_layer2_2_eltwise_backbone_body_layer2_2_relu_0_split
I0728 23:09:56.970822 16577 net.cpp:84] Creating Layer backbone_body_layer2_2_eltwise_backbone_body_layer2_2_relu_0_split
I0728 23:09:56.970825 16577 net.cpp:406] backbone_body_layer2_2_eltwise_backbone_body_layer2_2_relu_0_split <- backbone_body_layer2_2_eltwise
I0728 23:09:56.970830 16577 net.cpp:380] backbone_body_layer2_2_eltwise_backbone_body_layer2_2_relu_0_split -> backbone_body_layer2_2_eltwise_backbone_body_layer2_2_relu_0_split_0
I0728 23:09:56.970836 16577 net.cpp:380] backbone_body_layer2_2_eltwise_backbone_body_layer2_2_relu_0_split -> backbone_body_layer2_2_eltwise_backbone_body_layer2_2_relu_0_split_1
I0728 23:09:56.970845 16577 net.cpp:122] Setting up backbone_body_layer2_2_eltwise_backbone_body_layer2_2_relu_0_split
I0728 23:09:56.970850 16577 net.cpp:129] Top shape: 1 512 60 72 (2211840)
I0728 23:09:56.970854 16577 net.cpp:129] Top shape: 1 512 60 72 (2211840)
I0728 23:09:56.970856 16577 net.cpp:137] Memory required for data: 883630080
I0728 23:09:56.970860 16577 layer_factory.hpp:77] Creating layer backbone_body_layer2_3_conv1
I0728 23:09:56.970866 16577 net.cpp:84] Creating Layer backbone_body_layer2_3_conv1
I0728 23:09:56.970870 16577 net.cpp:406] backbone_body_layer2_3_conv1 <- backbone_body_layer2_2_eltwise_backbone_body_layer2_2_relu_0_split_0
I0728 23:09:56.970873 16577 net.cpp:380] backbone_body_layer2_3_conv1 -> backbone_body_layer2_3_conv1
I0728 23:09:56.972695 16577 net.cpp:122] Setting up backbone_body_layer2_3_conv1
I0728 23:09:56.972709 16577 net.cpp:129] Top shape: 1 128 60 72 (552960)
I0728 23:09:56.972712 16577 net.cpp:137] Memory required for data: 885841920
I0728 23:09:56.972718 16577 layer_factory.hpp:77] Creating layer backbone_body_layer2_3_bn1
I0728 23:09:56.972724 16577 net.cpp:84] Creating Layer backbone_body_layer2_3_bn1
I0728 23:09:56.972728 16577 net.cpp:406] backbone_body_layer2_3_bn1 <- backbone_body_layer2_3_conv1
I0728 23:09:56.972733 16577 net.cpp:367] backbone_body_layer2_3_bn1 -> backbone_body_layer2_3_conv1 (in-place)
I0728 23:09:56.972754 16577 net.cpp:122] Setting up backbone_body_layer2_3_bn1
I0728 23:09:56.972759 16577 net.cpp:129] Top shape: 1 128 60 72 (552960)
I0728 23:09:56.972760 16577 net.cpp:137] Memory required for data: 888053760
I0728 23:09:56.972774 16577 layer_factory.hpp:77] Creating layer backbone_body_layer2_3_scale1
I0728 23:09:56.972780 16577 net.cpp:84] Creating Layer backbone_body_layer2_3_scale1
I0728 23:09:56.972784 16577 net.cpp:406] backbone_body_layer2_3_scale1 <- backbone_body_layer2_3_conv1
I0728 23:09:56.972787 16577 net.cpp:367] backbone_body_layer2_3_scale1 -> backbone_body_layer2_3_conv1 (in-place)
I0728 23:09:56.972798 16577 layer_factory.hpp:77] Creating layer backbone_body_layer2_3_scale1
I0728 23:09:56.972821 16577 net.cpp:122] Setting up backbone_body_layer2_3_scale1
I0728 23:09:56.972827 16577 net.cpp:129] Top shape: 1 128 60 72 (552960)
I0728 23:09:56.972829 16577 net.cpp:137] Memory required for data: 890265600
I0728 23:09:56.972834 16577 layer_factory.hpp:77] Creating layer backbone_body_layer2_3_relu1
I0728 23:09:56.972838 16577 net.cpp:84] Creating Layer backbone_body_layer2_3_relu1
I0728 23:09:56.972841 16577 net.cpp:406] backbone_body_layer2_3_relu1 <- backbone_body_layer2_3_conv1
I0728 23:09:56.972848 16577 net.cpp:367] backbone_body_layer2_3_relu1 -> backbone_body_layer2_3_conv1 (in-place)
I0728 23:09:56.973349 16577 net.cpp:122] Setting up backbone_body_layer2_3_relu1
I0728 23:09:56.973363 16577 net.cpp:129] Top shape: 1 128 60 72 (552960)
I0728 23:09:56.973366 16577 net.cpp:137] Memory required for data: 892477440
I0728 23:09:56.973369 16577 layer_factory.hpp:77] Creating layer backbone_body_layer2_3_conv2
I0728 23:09:56.973377 16577 net.cpp:84] Creating Layer backbone_body_layer2_3_conv2
I0728 23:09:56.973381 16577 net.cpp:406] backbone_body_layer2_3_conv2 <- backbone_body_layer2_3_conv1
I0728 23:09:56.973385 16577 net.cpp:380] backbone_body_layer2_3_conv2 -> backbone_body_layer2_3_conv2
I0728 23:09:56.975327 16577 net.cpp:122] Setting up backbone_body_layer2_3_conv2
I0728 23:09:56.975340 16577 net.cpp:129] Top shape: 1 128 60 72 (552960)
I0728 23:09:56.975344 16577 net.cpp:137] Memory required for data: 894689280
I0728 23:09:56.975349 16577 layer_factory.hpp:77] Creating layer backbone_body_layer2_3_bn2
I0728 23:09:56.975356 16577 net.cpp:84] Creating Layer backbone_body_layer2_3_bn2
I0728 23:09:56.975359 16577 net.cpp:406] backbone_body_layer2_3_bn2 <- backbone_body_layer2_3_conv2
I0728 23:09:56.975364 16577 net.cpp:367] backbone_body_layer2_3_bn2 -> backbone_body_layer2_3_conv2 (in-place)
I0728 23:09:56.975387 16577 net.cpp:122] Setting up backbone_body_layer2_3_bn2
I0728 23:09:56.975392 16577 net.cpp:129] Top shape: 1 128 60 72 (552960)
I0728 23:09:56.975395 16577 net.cpp:137] Memory required for data: 896901120
I0728 23:09:56.975400 16577 layer_factory.hpp:77] Creating layer backbone_body_layer2_3_scale2
I0728 23:09:56.975406 16577 net.cpp:84] Creating Layer backbone_body_layer2_3_scale2
I0728 23:09:56.975409 16577 net.cpp:406] backbone_body_layer2_3_scale2 <- backbone_body_layer2_3_conv2
I0728 23:09:56.975414 16577 net.cpp:367] backbone_body_layer2_3_scale2 -> backbone_body_layer2_3_conv2 (in-place)
I0728 23:09:56.975420 16577 layer_factory.hpp:77] Creating layer backbone_body_layer2_3_scale2
I0728 23:09:56.975445 16577 net.cpp:122] Setting up backbone_body_layer2_3_scale2
I0728 23:09:56.975450 16577 net.cpp:129] Top shape: 1 128 60 72 (552960)
I0728 23:09:56.975453 16577 net.cpp:137] Memory required for data: 899112960
I0728 23:09:56.975458 16577 layer_factory.hpp:77] Creating layer backbone_body_layer2_3_relu2
I0728 23:09:56.975463 16577 net.cpp:84] Creating Layer backbone_body_layer2_3_relu2
I0728 23:09:56.975467 16577 net.cpp:406] backbone_body_layer2_3_relu2 <- backbone_body_layer2_3_conv2
I0728 23:09:56.975471 16577 net.cpp:367] backbone_body_layer2_3_relu2 -> backbone_body_layer2_3_conv2 (in-place)
I0728 23:09:56.976768 16577 net.cpp:122] Setting up backbone_body_layer2_3_relu2
I0728 23:09:56.976783 16577 net.cpp:129] Top shape: 1 128 60 72 (552960)
I0728 23:09:56.976785 16577 net.cpp:137] Memory required for data: 901324800
I0728 23:09:56.976788 16577 layer_factory.hpp:77] Creating layer backbone_body_layer2_3_conv3
I0728 23:09:56.976796 16577 net.cpp:84] Creating Layer backbone_body_layer2_3_conv3
I0728 23:09:56.976800 16577 net.cpp:406] backbone_body_layer2_3_conv3 <- backbone_body_layer2_3_conv2
I0728 23:09:56.976805 16577 net.cpp:380] backbone_body_layer2_3_conv3 -> backbone_body_layer2_3_conv3
I0728 23:09:56.978507 16577 net.cpp:122] Setting up backbone_body_layer2_3_conv3
I0728 23:09:56.978519 16577 net.cpp:129] Top shape: 1 512 60 72 (2211840)
I0728 23:09:56.978523 16577 net.cpp:137] Memory required for data: 910172160
I0728 23:09:56.978528 16577 layer_factory.hpp:77] Creating layer backbone_body_layer2_3_bn3
I0728 23:09:56.978533 16577 net.cpp:84] Creating Layer backbone_body_layer2_3_bn3
I0728 23:09:56.978538 16577 net.cpp:406] backbone_body_layer2_3_bn3 <- backbone_body_layer2_3_conv3
I0728 23:09:56.978544 16577 net.cpp:367] backbone_body_layer2_3_bn3 -> backbone_body_layer2_3_conv3 (in-place)
I0728 23:09:56.978565 16577 net.cpp:122] Setting up backbone_body_layer2_3_bn3
I0728 23:09:56.978570 16577 net.cpp:129] Top shape: 1 512 60 72 (2211840)
I0728 23:09:56.978574 16577 net.cpp:137] Memory required for data: 919019520
I0728 23:09:56.978579 16577 layer_factory.hpp:77] Creating layer backbone_body_layer2_3_scale3
I0728 23:09:56.978582 16577 net.cpp:84] Creating Layer backbone_body_layer2_3_scale3
I0728 23:09:56.978586 16577 net.cpp:406] backbone_body_layer2_3_scale3 <- backbone_body_layer2_3_conv3
I0728 23:09:56.978591 16577 net.cpp:367] backbone_body_layer2_3_scale3 -> backbone_body_layer2_3_conv3 (in-place)
I0728 23:09:56.978600 16577 layer_factory.hpp:77] Creating layer backbone_body_layer2_3_scale3
I0728 23:09:56.978626 16577 net.cpp:122] Setting up backbone_body_layer2_3_scale3
I0728 23:09:56.978631 16577 net.cpp:129] Top shape: 1 512 60 72 (2211840)
I0728 23:09:56.978634 16577 net.cpp:137] Memory required for data: 927866880
I0728 23:09:56.978638 16577 layer_factory.hpp:77] Creating layer backbone_body_layer2_3_eltwise
I0728 23:09:56.978643 16577 net.cpp:84] Creating Layer backbone_body_layer2_3_eltwise
I0728 23:09:56.978646 16577 net.cpp:406] backbone_body_layer2_3_eltwise <- backbone_body_layer2_2_eltwise_backbone_body_layer2_2_relu_0_split_1
I0728 23:09:56.978652 16577 net.cpp:406] backbone_body_layer2_3_eltwise <- backbone_body_layer2_3_conv3
I0728 23:09:56.978657 16577 net.cpp:380] backbone_body_layer2_3_eltwise -> backbone_body_layer2_3_eltwise
I0728 23:09:56.978662 16577 net.cpp:122] Setting up backbone_body_layer2_3_eltwise
I0728 23:09:56.978667 16577 net.cpp:129] Top shape: 1 512 60 72 (2211840)
I0728 23:09:56.978669 16577 net.cpp:137] Memory required for data: 936714240
I0728 23:09:56.978672 16577 layer_factory.hpp:77] Creating layer backbone_body_layer2_3_relu
I0728 23:09:56.978677 16577 net.cpp:84] Creating Layer backbone_body_layer2_3_relu
I0728 23:09:56.978680 16577 net.cpp:406] backbone_body_layer2_3_relu <- backbone_body_layer2_3_eltwise
I0728 23:09:56.978684 16577 net.cpp:367] backbone_body_layer2_3_relu -> backbone_body_layer2_3_eltwise (in-place)
I0728 23:09:56.979171 16577 net.cpp:122] Setting up backbone_body_layer2_3_relu
I0728 23:09:56.979183 16577 net.cpp:129] Top shape: 1 512 60 72 (2211840)
I0728 23:09:56.979187 16577 net.cpp:137] Memory required for data: 945561600
I0728 23:09:56.979189 16577 layer_factory.hpp:77] Creating layer backbone_body_layer2_3_eltwise_backbone_body_layer2_3_relu_0_split
I0728 23:09:56.979202 16577 net.cpp:84] Creating Layer backbone_body_layer2_3_eltwise_backbone_body_layer2_3_relu_0_split
I0728 23:09:56.979207 16577 net.cpp:406] backbone_body_layer2_3_eltwise_backbone_body_layer2_3_relu_0_split <- backbone_body_layer2_3_eltwise
I0728 23:09:56.979211 16577 net.cpp:380] backbone_body_layer2_3_eltwise_backbone_body_layer2_3_relu_0_split -> backbone_body_layer2_3_eltwise_backbone_body_layer2_3_relu_0_split_0
I0728 23:09:56.979219 16577 net.cpp:380] backbone_body_layer2_3_eltwise_backbone_body_layer2_3_relu_0_split -> backbone_body_layer2_3_eltwise_backbone_body_layer2_3_relu_0_split_1
I0728 23:09:56.979225 16577 net.cpp:380] backbone_body_layer2_3_eltwise_backbone_body_layer2_3_relu_0_split -> backbone_body_layer2_3_eltwise_backbone_body_layer2_3_relu_0_split_2
I0728 23:09:56.979233 16577 net.cpp:122] Setting up backbone_body_layer2_3_eltwise_backbone_body_layer2_3_relu_0_split
I0728 23:09:56.979238 16577 net.cpp:129] Top shape: 1 512 60 72 (2211840)
I0728 23:09:56.979241 16577 net.cpp:129] Top shape: 1 512 60 72 (2211840)
I0728 23:09:56.979244 16577 net.cpp:129] Top shape: 1 512 60 72 (2211840)
I0728 23:09:56.979247 16577 net.cpp:137] Memory required for data: 972103680
I0728 23:09:56.979250 16577 layer_factory.hpp:77] Creating layer backbone_body_layer3_0_downsample_0
I0728 23:09:56.979256 16577 net.cpp:84] Creating Layer backbone_body_layer3_0_downsample_0
I0728 23:09:56.979259 16577 net.cpp:406] backbone_body_layer3_0_downsample_0 <- backbone_body_layer2_3_eltwise_backbone_body_layer2_3_relu_0_split_0
I0728 23:09:56.979264 16577 net.cpp:380] backbone_body_layer3_0_downsample_0 -> backbone_body_layer3_0_downsample_0
I0728 23:09:56.981690 16577 net.cpp:122] Setting up backbone_body_layer3_0_downsample_0
I0728 23:09:56.981704 16577 net.cpp:129] Top shape: 1 1024 30 36 (1105920)
I0728 23:09:56.981707 16577 net.cpp:137] Memory required for data: 976527360
I0728 23:09:56.981712 16577 layer_factory.hpp:77] Creating layer backbone_body_layer3_0_downsample_1
I0728 23:09:56.981719 16577 net.cpp:84] Creating Layer backbone_body_layer3_0_downsample_1
I0728 23:09:56.981724 16577 net.cpp:406] backbone_body_layer3_0_downsample_1 <- backbone_body_layer3_0_downsample_0
I0728 23:09:56.981729 16577 net.cpp:367] backbone_body_layer3_0_downsample_1 -> backbone_body_layer3_0_downsample_0 (in-place)
I0728 23:09:56.981746 16577 net.cpp:122] Setting up backbone_body_layer3_0_downsample_1
I0728 23:09:56.981750 16577 net.cpp:129] Top shape: 1 1024 30 36 (1105920)
I0728 23:09:56.981753 16577 net.cpp:137] Memory required for data: 980951040
I0728 23:09:56.981758 16577 layer_factory.hpp:77] Creating layer backbone_body_layer3_0_downsample_scale
I0728 23:09:56.981765 16577 net.cpp:84] Creating Layer backbone_body_layer3_0_downsample_scale
I0728 23:09:56.981768 16577 net.cpp:406] backbone_body_layer3_0_downsample_scale <- backbone_body_layer3_0_downsample_0
I0728 23:09:56.981771 16577 net.cpp:367] backbone_body_layer3_0_downsample_scale -> backbone_body_layer3_0_downsample_0 (in-place)
I0728 23:09:56.981781 16577 layer_factory.hpp:77] Creating layer backbone_body_layer3_0_downsample_scale
I0728 23:09:56.981798 16577 net.cpp:122] Setting up backbone_body_layer3_0_downsample_scale
I0728 23:09:56.981803 16577 net.cpp:129] Top shape: 1 1024 30 36 (1105920)
I0728 23:09:56.981806 16577 net.cpp:137] Memory required for data: 985374720
I0728 23:09:56.981810 16577 layer_factory.hpp:77] Creating layer backbone_body_layer3_0_conv1
I0728 23:09:56.981818 16577 net.cpp:84] Creating Layer backbone_body_layer3_0_conv1
I0728 23:09:56.981822 16577 net.cpp:406] backbone_body_layer3_0_conv1 <- backbone_body_layer2_3_eltwise_backbone_body_layer2_3_relu_0_split_1
I0728 23:09:56.981827 16577 net.cpp:380] backbone_body_layer3_0_conv1 -> backbone_body_layer3_0_conv1
I0728 23:09:56.984580 16577 net.cpp:122] Setting up backbone_body_layer3_0_conv1
I0728 23:09:56.984594 16577 net.cpp:129] Top shape: 1 256 30 36 (276480)
I0728 23:09:56.984597 16577 net.cpp:137] Memory required for data: 986480640
I0728 23:09:56.984602 16577 layer_factory.hpp:77] Creating layer backbone_body_layer3_0_bn1
I0728 23:09:56.984609 16577 net.cpp:84] Creating Layer backbone_body_layer3_0_bn1
I0728 23:09:56.984613 16577 net.cpp:406] backbone_body_layer3_0_bn1 <- backbone_body_layer3_0_conv1
I0728 23:09:56.984618 16577 net.cpp:367] backbone_body_layer3_0_bn1 -> backbone_body_layer3_0_conv1 (in-place)
I0728 23:09:56.984633 16577 net.cpp:122] Setting up backbone_body_layer3_0_bn1
I0728 23:09:56.984639 16577 net.cpp:129] Top shape: 1 256 30 36 (276480)
I0728 23:09:56.984642 16577 net.cpp:137] Memory required for data: 987586560
I0728 23:09:56.984647 16577 layer_factory.hpp:77] Creating layer backbone_body_layer3_0_scale1
I0728 23:09:56.984652 16577 net.cpp:84] Creating Layer backbone_body_layer3_0_scale1
I0728 23:09:56.984655 16577 net.cpp:406] backbone_body_layer3_0_scale1 <- backbone_body_layer3_0_conv1
I0728 23:09:56.984659 16577 net.cpp:367] backbone_body_layer3_0_scale1 -> backbone_body_layer3_0_conv1 (in-place)
I0728 23:09:56.984671 16577 layer_factory.hpp:77] Creating layer backbone_body_layer3_0_scale1
I0728 23:09:56.984683 16577 net.cpp:122] Setting up backbone_body_layer3_0_scale1
I0728 23:09:56.984688 16577 net.cpp:129] Top shape: 1 256 30 36 (276480)
I0728 23:09:56.984691 16577 net.cpp:137] Memory required for data: 988692480
I0728 23:09:56.984695 16577 layer_factory.hpp:77] Creating layer backbone_body_layer3_0_relu1
I0728 23:09:56.984701 16577 net.cpp:84] Creating Layer backbone_body_layer3_0_relu1
I0728 23:09:56.984704 16577 net.cpp:406] backbone_body_layer3_0_relu1 <- backbone_body_layer3_0_conv1
I0728 23:09:56.984709 16577 net.cpp:367] backbone_body_layer3_0_relu1 -> backbone_body_layer3_0_conv1 (in-place)
I0728 23:09:56.985301 16577 net.cpp:122] Setting up backbone_body_layer3_0_relu1
I0728 23:09:56.985314 16577 net.cpp:129] Top shape: 1 256 30 36 (276480)
I0728 23:09:56.985318 16577 net.cpp:137] Memory required for data: 989798400
I0728 23:09:56.985321 16577 layer_factory.hpp:77] Creating layer backbone_body_layer3_0_conv2
I0728 23:09:56.985329 16577 net.cpp:84] Creating Layer backbone_body_layer3_0_conv2
I0728 23:09:56.985333 16577 net.cpp:406] backbone_body_layer3_0_conv2 <- backbone_body_layer3_0_conv1
I0728 23:09:56.985339 16577 net.cpp:380] backbone_body_layer3_0_conv2 -> backbone_body_layer3_0_conv2
I0728 23:09:56.987998 16577 net.cpp:122] Setting up backbone_body_layer3_0_conv2
I0728 23:09:56.988011 16577 net.cpp:129] Top shape: 1 256 30 36 (276480)
I0728 23:09:56.988015 16577 net.cpp:137] Memory required for data: 990904320
I0728 23:09:56.988020 16577 layer_factory.hpp:77] Creating layer backbone_body_layer3_0_bn2
I0728 23:09:56.988027 16577 net.cpp:84] Creating Layer backbone_body_layer3_0_bn2
I0728 23:09:56.988030 16577 net.cpp:406] backbone_body_layer3_0_bn2 <- backbone_body_layer3_0_conv2
I0728 23:09:56.988035 16577 net.cpp:367] backbone_body_layer3_0_bn2 -> backbone_body_layer3_0_conv2 (in-place)
I0728 23:09:56.988055 16577 net.cpp:122] Setting up backbone_body_layer3_0_bn2
I0728 23:09:56.988059 16577 net.cpp:129] Top shape: 1 256 30 36 (276480)
I0728 23:09:56.988062 16577 net.cpp:137] Memory required for data: 992010240
I0728 23:09:56.988067 16577 layer_factory.hpp:77] Creating layer backbone_body_layer3_0_scale2
I0728 23:09:56.988073 16577 net.cpp:84] Creating Layer backbone_body_layer3_0_scale2
I0728 23:09:56.988077 16577 net.cpp:406] backbone_body_layer3_0_scale2 <- backbone_body_layer3_0_conv2
I0728 23:09:56.988080 16577 net.cpp:367] backbone_body_layer3_0_scale2 -> backbone_body_layer3_0_conv2 (in-place)
I0728 23:09:56.988090 16577 layer_factory.hpp:77] Creating layer backbone_body_layer3_0_scale2
I0728 23:09:56.988103 16577 net.cpp:122] Setting up backbone_body_layer3_0_scale2
I0728 23:09:56.988108 16577 net.cpp:129] Top shape: 1 256 30 36 (276480)
I0728 23:09:56.988111 16577 net.cpp:137] Memory required for data: 993116160
I0728 23:09:56.988116 16577 layer_factory.hpp:77] Creating layer backbone_body_layer3_0_relu2
I0728 23:09:56.988121 16577 net.cpp:84] Creating Layer backbone_body_layer3_0_relu2
I0728 23:09:56.988123 16577 net.cpp:406] backbone_body_layer3_0_relu2 <- backbone_body_layer3_0_conv2
I0728 23:09:56.988127 16577 net.cpp:367] backbone_body_layer3_0_relu2 -> backbone_body_layer3_0_conv2 (in-place)
I0728 23:09:56.988624 16577 net.cpp:122] Setting up backbone_body_layer3_0_relu2
I0728 23:09:56.988638 16577 net.cpp:129] Top shape: 1 256 30 36 (276480)
I0728 23:09:56.988641 16577 net.cpp:137] Memory required for data: 994222080
I0728 23:09:56.988644 16577 layer_factory.hpp:77] Creating layer backbone_body_layer3_0_conv3
I0728 23:09:56.988652 16577 net.cpp:84] Creating Layer backbone_body_layer3_0_conv3
I0728 23:09:56.988656 16577 net.cpp:406] backbone_body_layer3_0_conv3 <- backbone_body_layer3_0_conv2
I0728 23:09:56.988662 16577 net.cpp:380] backbone_body_layer3_0_conv3 -> backbone_body_layer3_0_conv3
I0728 23:09:56.990666 16577 net.cpp:122] Setting up backbone_body_layer3_0_conv3
I0728 23:09:56.990680 16577 net.cpp:129] Top shape: 1 1024 30 36 (1105920)
I0728 23:09:56.990684 16577 net.cpp:137] Memory required for data: 998645760
I0728 23:09:56.990689 16577 layer_factory.hpp:77] Creating layer backbone_body_layer3_0_bn3
I0728 23:09:56.990695 16577 net.cpp:84] Creating Layer backbone_body_layer3_0_bn3
I0728 23:09:56.990698 16577 net.cpp:406] backbone_body_layer3_0_bn3 <- backbone_body_layer3_0_conv3
I0728 23:09:56.990703 16577 net.cpp:367] backbone_body_layer3_0_bn3 -> backbone_body_layer3_0_conv3 (in-place)
I0728 23:09:56.990723 16577 net.cpp:122] Setting up backbone_body_layer3_0_bn3
I0728 23:09:56.990728 16577 net.cpp:129] Top shape: 1 1024 30 36 (1105920)
I0728 23:09:56.990731 16577 net.cpp:137] Memory required for data: 1003069440
I0728 23:09:56.990736 16577 layer_factory.hpp:77] Creating layer backbone_body_layer3_0_scale3
I0728 23:09:56.990742 16577 net.cpp:84] Creating Layer backbone_body_layer3_0_scale3
I0728 23:09:56.990746 16577 net.cpp:406] backbone_body_layer3_0_scale3 <- backbone_body_layer3_0_conv3
I0728 23:09:56.990749 16577 net.cpp:367] backbone_body_layer3_0_scale3 -> backbone_body_layer3_0_conv3 (in-place)
I0728 23:09:56.990759 16577 layer_factory.hpp:77] Creating layer backbone_body_layer3_0_scale3
I0728 23:09:56.990777 16577 net.cpp:122] Setting up backbone_body_layer3_0_scale3
I0728 23:09:56.990782 16577 net.cpp:129] Top shape: 1 1024 30 36 (1105920)
I0728 23:09:56.990784 16577 net.cpp:137] Memory required for data: 1007493120
I0728 23:09:56.990788 16577 layer_factory.hpp:77] Creating layer backbone_body_layer3_0_eltwise
I0728 23:09:56.990793 16577 net.cpp:84] Creating Layer backbone_body_layer3_0_eltwise
I0728 23:09:56.990797 16577 net.cpp:406] backbone_body_layer3_0_eltwise <- backbone_body_layer3_0_downsample_0
I0728 23:09:56.990800 16577 net.cpp:406] backbone_body_layer3_0_eltwise <- backbone_body_layer3_0_conv3
I0728 23:09:56.990804 16577 net.cpp:380] backbone_body_layer3_0_eltwise -> backbone_body_layer3_0_eltwise
I0728 23:09:56.990811 16577 net.cpp:122] Setting up backbone_body_layer3_0_eltwise
I0728 23:09:56.990816 16577 net.cpp:129] Top shape: 1 1024 30 36 (1105920)
I0728 23:09:56.990818 16577 net.cpp:137] Memory required for data: 1011916800
I0728 23:09:56.990821 16577 layer_factory.hpp:77] Creating layer backbone_body_layer3_0_relu
I0728 23:09:56.990826 16577 net.cpp:84] Creating Layer backbone_body_layer3_0_relu
I0728 23:09:56.990829 16577 net.cpp:406] backbone_body_layer3_0_relu <- backbone_body_layer3_0_eltwise
I0728 23:09:56.990833 16577 net.cpp:367] backbone_body_layer3_0_relu -> backbone_body_layer3_0_eltwise (in-place)
I0728 23:09:56.991338 16577 net.cpp:122] Setting up backbone_body_layer3_0_relu
I0728 23:09:56.991350 16577 net.cpp:129] Top shape: 1 1024 30 36 (1105920)
I0728 23:09:56.991353 16577 net.cpp:137] Memory required for data: 1016340480
I0728 23:09:56.991356 16577 layer_factory.hpp:77] Creating layer backbone_body_layer3_0_eltwise_backbone_body_layer3_0_relu_0_split
I0728 23:09:56.991364 16577 net.cpp:84] Creating Layer backbone_body_layer3_0_eltwise_backbone_body_layer3_0_relu_0_split
I0728 23:09:56.991367 16577 net.cpp:406] backbone_body_layer3_0_eltwise_backbone_body_layer3_0_relu_0_split <- backbone_body_layer3_0_eltwise
I0728 23:09:56.991372 16577 net.cpp:380] backbone_body_layer3_0_eltwise_backbone_body_layer3_0_relu_0_split -> backbone_body_layer3_0_eltwise_backbone_body_layer3_0_relu_0_split_0
I0728 23:09:56.991379 16577 net.cpp:380] backbone_body_layer3_0_eltwise_backbone_body_layer3_0_relu_0_split -> backbone_body_layer3_0_eltwise_backbone_body_layer3_0_relu_0_split_1
I0728 23:09:56.991386 16577 net.cpp:122] Setting up backbone_body_layer3_0_eltwise_backbone_body_layer3_0_relu_0_split
I0728 23:09:56.991390 16577 net.cpp:129] Top shape: 1 1024 30 36 (1105920)
I0728 23:09:56.991394 16577 net.cpp:129] Top shape: 1 1024 30 36 (1105920)
I0728 23:09:56.991397 16577 net.cpp:137] Memory required for data: 1025187840
I0728 23:09:56.991400 16577 layer_factory.hpp:77] Creating layer backbone_body_layer3_1_conv1
I0728 23:09:56.991415 16577 net.cpp:84] Creating Layer backbone_body_layer3_1_conv1
I0728 23:09:56.991420 16577 net.cpp:406] backbone_body_layer3_1_conv1 <- backbone_body_layer3_0_eltwise_backbone_body_layer3_0_relu_0_split_0
I0728 23:09:56.991423 16577 net.cpp:380] backbone_body_layer3_1_conv1 -> backbone_body_layer3_1_conv1
I0728 23:09:56.994343 16577 net.cpp:122] Setting up backbone_body_layer3_1_conv1
I0728 23:09:56.994357 16577 net.cpp:129] Top shape: 1 256 30 36 (276480)
I0728 23:09:56.994360 16577 net.cpp:137] Memory required for data: 1026293760
I0728 23:09:56.994366 16577 layer_factory.hpp:77] Creating layer backbone_body_layer3_1_bn1
I0728 23:09:56.994374 16577 net.cpp:84] Creating Layer backbone_body_layer3_1_bn1
I0728 23:09:56.994376 16577 net.cpp:406] backbone_body_layer3_1_bn1 <- backbone_body_layer3_1_conv1
I0728 23:09:56.994381 16577 net.cpp:367] backbone_body_layer3_1_bn1 -> backbone_body_layer3_1_conv1 (in-place)
I0728 23:09:56.994400 16577 net.cpp:122] Setting up backbone_body_layer3_1_bn1
I0728 23:09:56.994405 16577 net.cpp:129] Top shape: 1 256 30 36 (276480)
I0728 23:09:56.994407 16577 net.cpp:137] Memory required for data: 1027399680
I0728 23:09:56.994413 16577 layer_factory.hpp:77] Creating layer backbone_body_layer3_1_scale1
I0728 23:09:56.994417 16577 net.cpp:84] Creating Layer backbone_body_layer3_1_scale1
I0728 23:09:56.994421 16577 net.cpp:406] backbone_body_layer3_1_scale1 <- backbone_body_layer3_1_conv1
I0728 23:09:56.994426 16577 net.cpp:367] backbone_body_layer3_1_scale1 -> backbone_body_layer3_1_conv1 (in-place)
I0728 23:09:56.994434 16577 layer_factory.hpp:77] Creating layer backbone_body_layer3_1_scale1
I0728 23:09:56.994448 16577 net.cpp:122] Setting up backbone_body_layer3_1_scale1
I0728 23:09:56.994453 16577 net.cpp:129] Top shape: 1 256 30 36 (276480)
I0728 23:09:56.994457 16577 net.cpp:137] Memory required for data: 1028505600
I0728 23:09:56.994460 16577 layer_factory.hpp:77] Creating layer backbone_body_layer3_1_relu1
I0728 23:09:56.994467 16577 net.cpp:84] Creating Layer backbone_body_layer3_1_relu1
I0728 23:09:56.994469 16577 net.cpp:406] backbone_body_layer3_1_relu1 <- backbone_body_layer3_1_conv1
I0728 23:09:56.994472 16577 net.cpp:367] backbone_body_layer3_1_relu1 -> backbone_body_layer3_1_conv1 (in-place)
I0728 23:09:56.994974 16577 net.cpp:122] Setting up backbone_body_layer3_1_relu1
I0728 23:09:56.994987 16577 net.cpp:129] Top shape: 1 256 30 36 (276480)
I0728 23:09:56.994992 16577 net.cpp:137] Memory required for data: 1029611520
I0728 23:09:56.994995 16577 layer_factory.hpp:77] Creating layer backbone_body_layer3_1_conv2
I0728 23:09:56.995002 16577 net.cpp:84] Creating Layer backbone_body_layer3_1_conv2
I0728 23:09:56.995005 16577 net.cpp:406] backbone_body_layer3_1_conv2 <- backbone_body_layer3_1_conv1
I0728 23:09:56.995012 16577 net.cpp:380] backbone_body_layer3_1_conv2 -> backbone_body_layer3_1_conv2
I0728 23:09:56.997762 16577 net.cpp:122] Setting up backbone_body_layer3_1_conv2
I0728 23:09:56.997776 16577 net.cpp:129] Top shape: 1 256 30 36 (276480)
I0728 23:09:56.997779 16577 net.cpp:137] Memory required for data: 1030717440
I0728 23:09:56.997784 16577 layer_factory.hpp:77] Creating layer backbone_body_layer3_1_bn2
I0728 23:09:56.997789 16577 net.cpp:84] Creating Layer backbone_body_layer3_1_bn2
I0728 23:09:56.997793 16577 net.cpp:406] backbone_body_layer3_1_bn2 <- backbone_body_layer3_1_conv2
I0728 23:09:56.997799 16577 net.cpp:367] backbone_body_layer3_1_bn2 -> backbone_body_layer3_1_conv2 (in-place)
I0728 23:09:56.997817 16577 net.cpp:122] Setting up backbone_body_layer3_1_bn2
I0728 23:09:56.997821 16577 net.cpp:129] Top shape: 1 256 30 36 (276480)
I0728 23:09:56.997824 16577 net.cpp:137] Memory required for data: 1031823360
I0728 23:09:56.997829 16577 layer_factory.hpp:77] Creating layer backbone_body_layer3_1_scale2
I0728 23:09:56.997835 16577 net.cpp:84] Creating Layer backbone_body_layer3_1_scale2
I0728 23:09:56.997838 16577 net.cpp:406] backbone_body_layer3_1_scale2 <- backbone_body_layer3_1_conv2
I0728 23:09:56.997843 16577 net.cpp:367] backbone_body_layer3_1_scale2 -> backbone_body_layer3_1_conv2 (in-place)
I0728 23:09:56.997851 16577 layer_factory.hpp:77] Creating layer backbone_body_layer3_1_scale2
I0728 23:09:56.997865 16577 net.cpp:122] Setting up backbone_body_layer3_1_scale2
I0728 23:09:56.997870 16577 net.cpp:129] Top shape: 1 256 30 36 (276480)
I0728 23:09:56.997872 16577 net.cpp:137] Memory required for data: 1032929280
I0728 23:09:56.997876 16577 layer_factory.hpp:77] Creating layer backbone_body_layer3_1_relu2
I0728 23:09:56.997881 16577 net.cpp:84] Creating Layer backbone_body_layer3_1_relu2
I0728 23:09:56.997884 16577 net.cpp:406] backbone_body_layer3_1_relu2 <- backbone_body_layer3_1_conv2
I0728 23:09:56.997887 16577 net.cpp:367] backbone_body_layer3_1_relu2 -> backbone_body_layer3_1_conv2 (in-place)
I0728 23:09:56.998268 16577 net.cpp:122] Setting up backbone_body_layer3_1_relu2
I0728 23:09:56.998281 16577 net.cpp:129] Top shape: 1 256 30 36 (276480)
I0728 23:09:56.998283 16577 net.cpp:137] Memory required for data: 1034035200
I0728 23:09:56.998286 16577 layer_factory.hpp:77] Creating layer backbone_body_layer3_1_conv3
I0728 23:09:56.998293 16577 net.cpp:84] Creating Layer backbone_body_layer3_1_conv3
I0728 23:09:56.998296 16577 net.cpp:406] backbone_body_layer3_1_conv3 <- backbone_body_layer3_1_conv2
I0728 23:09:56.998301 16577 net.cpp:380] backbone_body_layer3_1_conv3 -> backbone_body_layer3_1_conv3
I0728 23:09:57.001338 16577 net.cpp:122] Setting up backbone_body_layer3_1_conv3
I0728 23:09:57.001351 16577 net.cpp:129] Top shape: 1 1024 30 36 (1105920)
I0728 23:09:57.001354 16577 net.cpp:137] Memory required for data: 1038458880
I0728 23:09:57.001360 16577 layer_factory.hpp:77] Creating layer backbone_body_layer3_1_bn3
I0728 23:09:57.001366 16577 net.cpp:84] Creating Layer backbone_body_layer3_1_bn3
I0728 23:09:57.001370 16577 net.cpp:406] backbone_body_layer3_1_bn3 <- backbone_body_layer3_1_conv3
I0728 23:09:57.001375 16577 net.cpp:367] backbone_body_layer3_1_bn3 -> backbone_body_layer3_1_conv3 (in-place)
I0728 23:09:57.001394 16577 net.cpp:122] Setting up backbone_body_layer3_1_bn3
I0728 23:09:57.001397 16577 net.cpp:129] Top shape: 1 1024 30 36 (1105920)
I0728 23:09:57.001400 16577 net.cpp:137] Memory required for data: 1042882560
I0728 23:09:57.001405 16577 layer_factory.hpp:77] Creating layer backbone_body_layer3_1_scale3
I0728 23:09:57.001412 16577 net.cpp:84] Creating Layer backbone_body_layer3_1_scale3
I0728 23:09:57.001416 16577 net.cpp:406] backbone_body_layer3_1_scale3 <- backbone_body_layer3_1_conv3
I0728 23:09:57.001420 16577 net.cpp:367] backbone_body_layer3_1_scale3 -> backbone_body_layer3_1_conv3 (in-place)
I0728 23:09:57.001430 16577 layer_factory.hpp:77] Creating layer backbone_body_layer3_1_scale3
I0728 23:09:57.001446 16577 net.cpp:122] Setting up backbone_body_layer3_1_scale3
I0728 23:09:57.001451 16577 net.cpp:129] Top shape: 1 1024 30 36 (1105920)
I0728 23:09:57.001453 16577 net.cpp:137] Memory required for data: 1047306240
I0728 23:09:57.001457 16577 layer_factory.hpp:77] Creating layer backbone_body_layer3_1_eltwise
I0728 23:09:57.001462 16577 net.cpp:84] Creating Layer backbone_body_layer3_1_eltwise
I0728 23:09:57.001466 16577 net.cpp:406] backbone_body_layer3_1_eltwise <- backbone_body_layer3_0_eltwise_backbone_body_layer3_0_relu_0_split_1
I0728 23:09:57.001471 16577 net.cpp:406] backbone_body_layer3_1_eltwise <- backbone_body_layer3_1_conv3
I0728 23:09:57.001474 16577 net.cpp:380] backbone_body_layer3_1_eltwise -> backbone_body_layer3_1_eltwise
I0728 23:09:57.001480 16577 net.cpp:122] Setting up backbone_body_layer3_1_eltwise
I0728 23:09:57.001484 16577 net.cpp:129] Top shape: 1 1024 30 36 (1105920)
I0728 23:09:57.001487 16577 net.cpp:137] Memory required for data: 1051729920
I0728 23:09:57.001490 16577 layer_factory.hpp:77] Creating layer backbone_body_layer3_1_relu
I0728 23:09:57.001494 16577 net.cpp:84] Creating Layer backbone_body_layer3_1_relu
I0728 23:09:57.001497 16577 net.cpp:406] backbone_body_layer3_1_relu <- backbone_body_layer3_1_eltwise
I0728 23:09:57.001502 16577 net.cpp:367] backbone_body_layer3_1_relu -> backbone_body_layer3_1_eltwise (in-place)
I0728 23:09:57.001874 16577 net.cpp:122] Setting up backbone_body_layer3_1_relu
I0728 23:09:57.001886 16577 net.cpp:129] Top shape: 1 1024 30 36 (1105920)
I0728 23:09:57.001889 16577 net.cpp:137] Memory required for data: 1056153600
I0728 23:09:57.001893 16577 layer_factory.hpp:77] Creating layer backbone_body_layer3_1_eltwise_backbone_body_layer3_1_relu_0_split
I0728 23:09:57.001897 16577 net.cpp:84] Creating Layer backbone_body_layer3_1_eltwise_backbone_body_layer3_1_relu_0_split
I0728 23:09:57.001900 16577 net.cpp:406] backbone_body_layer3_1_eltwise_backbone_body_layer3_1_relu_0_split <- backbone_body_layer3_1_eltwise
I0728 23:09:57.001907 16577 net.cpp:380] backbone_body_layer3_1_eltwise_backbone_body_layer3_1_relu_0_split -> backbone_body_layer3_1_eltwise_backbone_body_layer3_1_relu_0_split_0
I0728 23:09:57.001912 16577 net.cpp:380] backbone_body_layer3_1_eltwise_backbone_body_layer3_1_relu_0_split -> backbone_body_layer3_1_eltwise_backbone_body_layer3_1_relu_0_split_1
I0728 23:09:57.001922 16577 net.cpp:122] Setting up backbone_body_layer3_1_eltwise_backbone_body_layer3_1_relu_0_split
I0728 23:09:57.001926 16577 net.cpp:129] Top shape: 1 1024 30 36 (1105920)
I0728 23:09:57.001930 16577 net.cpp:129] Top shape: 1 1024 30 36 (1105920)
I0728 23:09:57.001933 16577 net.cpp:137] Memory required for data: 1065000960
I0728 23:09:57.001936 16577 layer_factory.hpp:77] Creating layer backbone_body_layer3_2_conv1
I0728 23:09:57.001941 16577 net.cpp:84] Creating Layer backbone_body_layer3_2_conv1
I0728 23:09:57.001945 16577 net.cpp:406] backbone_body_layer3_2_conv1 <- backbone_body_layer3_1_eltwise_backbone_body_layer3_1_relu_0_split_0
I0728 23:09:57.001950 16577 net.cpp:380] backbone_body_layer3_2_conv1 -> backbone_body_layer3_2_conv1
I0728 23:09:57.004197 16577 net.cpp:122] Setting up backbone_body_layer3_2_conv1
I0728 23:09:57.004211 16577 net.cpp:129] Top shape: 1 256 30 36 (276480)
I0728 23:09:57.004215 16577 net.cpp:137] Memory required for data: 1066106880
I0728 23:09:57.004220 16577 layer_factory.hpp:77] Creating layer backbone_body_layer3_2_bn1
I0728 23:09:57.004225 16577 net.cpp:84] Creating Layer backbone_body_layer3_2_bn1
I0728 23:09:57.004228 16577 net.cpp:406] backbone_body_layer3_2_bn1 <- backbone_body_layer3_2_conv1
I0728 23:09:57.004235 16577 net.cpp:367] backbone_body_layer3_2_bn1 -> backbone_body_layer3_2_conv1 (in-place)
I0728 23:09:57.004253 16577 net.cpp:122] Setting up backbone_body_layer3_2_bn1
I0728 23:09:57.004258 16577 net.cpp:129] Top shape: 1 256 30 36 (276480)
I0728 23:09:57.004261 16577 net.cpp:137] Memory required for data: 1067212800
I0728 23:09:57.004266 16577 layer_factory.hpp:77] Creating layer backbone_body_layer3_2_scale1
I0728 23:09:57.004272 16577 net.cpp:84] Creating Layer backbone_body_layer3_2_scale1
I0728 23:09:57.004276 16577 net.cpp:406] backbone_body_layer3_2_scale1 <- backbone_body_layer3_2_conv1
I0728 23:09:57.004279 16577 net.cpp:367] backbone_body_layer3_2_scale1 -> backbone_body_layer3_2_conv1 (in-place)
I0728 23:09:57.004288 16577 layer_factory.hpp:77] Creating layer backbone_body_layer3_2_scale1
I0728 23:09:57.004304 16577 net.cpp:122] Setting up backbone_body_layer3_2_scale1
I0728 23:09:57.004308 16577 net.cpp:129] Top shape: 1 256 30 36 (276480)
I0728 23:09:57.004312 16577 net.cpp:137] Memory required for data: 1068318720
I0728 23:09:57.004317 16577 layer_factory.hpp:77] Creating layer backbone_body_layer3_2_relu1
I0728 23:09:57.004320 16577 net.cpp:84] Creating Layer backbone_body_layer3_2_relu1
I0728 23:09:57.004323 16577 net.cpp:406] backbone_body_layer3_2_relu1 <- backbone_body_layer3_2_conv1
I0728 23:09:57.004328 16577 net.cpp:367] backbone_body_layer3_2_relu1 -> backbone_body_layer3_2_conv1 (in-place)
I0728 23:09:57.004835 16577 net.cpp:122] Setting up backbone_body_layer3_2_relu1
I0728 23:09:57.004848 16577 net.cpp:129] Top shape: 1 256 30 36 (276480)
I0728 23:09:57.004851 16577 net.cpp:137] Memory required for data: 1069424640
I0728 23:09:57.004854 16577 layer_factory.hpp:77] Creating layer backbone_body_layer3_2_conv2
I0728 23:09:57.004861 16577 net.cpp:84] Creating Layer backbone_body_layer3_2_conv2
I0728 23:09:57.004865 16577 net.cpp:406] backbone_body_layer3_2_conv2 <- backbone_body_layer3_2_conv1
I0728 23:09:57.004871 16577 net.cpp:380] backbone_body_layer3_2_conv2 -> backbone_body_layer3_2_conv2
I0728 23:09:57.007529 16577 net.cpp:122] Setting up backbone_body_layer3_2_conv2
I0728 23:09:57.007542 16577 net.cpp:129] Top shape: 1 256 30 36 (276480)
I0728 23:09:57.007546 16577 net.cpp:137] Memory required for data: 1070530560
I0728 23:09:57.007551 16577 layer_factory.hpp:77] Creating layer backbone_body_layer3_2_bn2
I0728 23:09:57.007558 16577 net.cpp:84] Creating Layer backbone_body_layer3_2_bn2
I0728 23:09:57.007562 16577 net.cpp:406] backbone_body_layer3_2_bn2 <- backbone_body_layer3_2_conv2
I0728 23:09:57.007567 16577 net.cpp:367] backbone_body_layer3_2_bn2 -> backbone_body_layer3_2_conv2 (in-place)
I0728 23:09:57.007583 16577 net.cpp:122] Setting up backbone_body_layer3_2_bn2
I0728 23:09:57.007588 16577 net.cpp:129] Top shape: 1 256 30 36 (276480)
I0728 23:09:57.007591 16577 net.cpp:137] Memory required for data: 1071636480
I0728 23:09:57.007596 16577 layer_factory.hpp:77] Creating layer backbone_body_layer3_2_scale2
I0728 23:09:57.007602 16577 net.cpp:84] Creating Layer backbone_body_layer3_2_scale2
I0728 23:09:57.007606 16577 net.cpp:406] backbone_body_layer3_2_scale2 <- backbone_body_layer3_2_conv2
I0728 23:09:57.007609 16577 net.cpp:367] backbone_body_layer3_2_scale2 -> backbone_body_layer3_2_conv2 (in-place)
I0728 23:09:57.007618 16577 layer_factory.hpp:77] Creating layer backbone_body_layer3_2_scale2
I0728 23:09:57.007633 16577 net.cpp:122] Setting up backbone_body_layer3_2_scale2
I0728 23:09:57.007637 16577 net.cpp:129] Top shape: 1 256 30 36 (276480)
I0728 23:09:57.007640 16577 net.cpp:137] Memory required for data: 1072742400
I0728 23:09:57.007644 16577 layer_factory.hpp:77] Creating layer backbone_body_layer3_2_relu2
I0728 23:09:57.007649 16577 net.cpp:84] Creating Layer backbone_body_layer3_2_relu2
I0728 23:09:57.007652 16577 net.cpp:406] backbone_body_layer3_2_relu2 <- backbone_body_layer3_2_conv2
I0728 23:09:57.007659 16577 net.cpp:367] backbone_body_layer3_2_relu2 -> backbone_body_layer3_2_conv2 (in-place)
I0728 23:09:57.008150 16577 net.cpp:122] Setting up backbone_body_layer3_2_relu2
I0728 23:09:57.008163 16577 net.cpp:129] Top shape: 1 256 30 36 (276480)
I0728 23:09:57.008167 16577 net.cpp:137] Memory required for data: 1073848320
I0728 23:09:57.008169 16577 layer_factory.hpp:77] Creating layer backbone_body_layer3_2_conv3
I0728 23:09:57.008177 16577 net.cpp:84] Creating Layer backbone_body_layer3_2_conv3
I0728 23:09:57.008180 16577 net.cpp:406] backbone_body_layer3_2_conv3 <- backbone_body_layer3_2_conv2
I0728 23:09:57.008185 16577 net.cpp:380] backbone_body_layer3_2_conv3 -> backbone_body_layer3_2_conv3
I0728 23:09:57.011124 16577 net.cpp:122] Setting up backbone_body_layer3_2_conv3
I0728 23:09:57.011138 16577 net.cpp:129] Top shape: 1 1024 30 36 (1105920)
I0728 23:09:57.011142 16577 net.cpp:137] Memory required for data: 1078272000
I0728 23:09:57.011147 16577 layer_factory.hpp:77] Creating layer backbone_body_layer3_2_bn3
I0728 23:09:57.011154 16577 net.cpp:84] Creating Layer backbone_body_layer3_2_bn3
I0728 23:09:57.011158 16577 net.cpp:406] backbone_body_layer3_2_bn3 <- backbone_body_layer3_2_conv3
I0728 23:09:57.011162 16577 net.cpp:367] backbone_body_layer3_2_bn3 -> backbone_body_layer3_2_conv3 (in-place)
I0728 23:09:57.011181 16577 net.cpp:122] Setting up backbone_body_layer3_2_bn3
I0728 23:09:57.011186 16577 net.cpp:129] Top shape: 1 1024 30 36 (1105920)
I0728 23:09:57.011189 16577 net.cpp:137] Memory required for data: 1082695680
I0728 23:09:57.011200 16577 layer_factory.hpp:77] Creating layer backbone_body_layer3_2_scale3
I0728 23:09:57.011205 16577 net.cpp:84] Creating Layer backbone_body_layer3_2_scale3
I0728 23:09:57.011209 16577 net.cpp:406] backbone_body_layer3_2_scale3 <- backbone_body_layer3_2_conv3
I0728 23:09:57.011214 16577 net.cpp:367] backbone_body_layer3_2_scale3 -> backbone_body_layer3_2_conv3 (in-place)
I0728 23:09:57.011225 16577 layer_factory.hpp:77] Creating layer backbone_body_layer3_2_scale3
I0728 23:09:57.011240 16577 net.cpp:122] Setting up backbone_body_layer3_2_scale3
I0728 23:09:57.011245 16577 net.cpp:129] Top shape: 1 1024 30 36 (1105920)
I0728 23:09:57.011248 16577 net.cpp:137] Memory required for data: 1087119360
I0728 23:09:57.011252 16577 layer_factory.hpp:77] Creating layer backbone_body_layer3_2_eltwise
I0728 23:09:57.011258 16577 net.cpp:84] Creating Layer backbone_body_layer3_2_eltwise
I0728 23:09:57.011261 16577 net.cpp:406] backbone_body_layer3_2_eltwise <- backbone_body_layer3_1_eltwise_backbone_body_layer3_1_relu_0_split_1
I0728 23:09:57.011265 16577 net.cpp:406] backbone_body_layer3_2_eltwise <- backbone_body_layer3_2_conv3
I0728 23:09:57.011269 16577 net.cpp:380] backbone_body_layer3_2_eltwise -> backbone_body_layer3_2_eltwise
I0728 23:09:57.011276 16577 net.cpp:122] Setting up backbone_body_layer3_2_eltwise
I0728 23:09:57.011279 16577 net.cpp:129] Top shape: 1 1024 30 36 (1105920)
I0728 23:09:57.011282 16577 net.cpp:137] Memory required for data: 1091543040
I0728 23:09:57.011286 16577 layer_factory.hpp:77] Creating layer backbone_body_layer3_2_relu
I0728 23:09:57.011291 16577 net.cpp:84] Creating Layer backbone_body_layer3_2_relu
I0728 23:09:57.011294 16577 net.cpp:406] backbone_body_layer3_2_relu <- backbone_body_layer3_2_eltwise
I0728 23:09:57.011297 16577 net.cpp:367] backbone_body_layer3_2_relu -> backbone_body_layer3_2_eltwise (in-place)
I0728 23:09:57.011799 16577 net.cpp:122] Setting up backbone_body_layer3_2_relu
I0728 23:09:57.011812 16577 net.cpp:129] Top shape: 1 1024 30 36 (1105920)
I0728 23:09:57.011816 16577 net.cpp:137] Memory required for data: 1095966720
I0728 23:09:57.011819 16577 layer_factory.hpp:77] Creating layer backbone_body_layer3_2_eltwise_backbone_body_layer3_2_relu_0_split
I0728 23:09:57.011824 16577 net.cpp:84] Creating Layer backbone_body_layer3_2_eltwise_backbone_body_layer3_2_relu_0_split
I0728 23:09:57.011828 16577 net.cpp:406] backbone_body_layer3_2_eltwise_backbone_body_layer3_2_relu_0_split <- backbone_body_layer3_2_eltwise
I0728 23:09:57.011834 16577 net.cpp:380] backbone_body_layer3_2_eltwise_backbone_body_layer3_2_relu_0_split -> backbone_body_layer3_2_eltwise_backbone_body_layer3_2_relu_0_split_0
I0728 23:09:57.011840 16577 net.cpp:380] backbone_body_layer3_2_eltwise_backbone_body_layer3_2_relu_0_split -> backbone_body_layer3_2_eltwise_backbone_body_layer3_2_relu_0_split_1
I0728 23:09:57.011847 16577 net.cpp:122] Setting up backbone_body_layer3_2_eltwise_backbone_body_layer3_2_relu_0_split
I0728 23:09:57.011852 16577 net.cpp:129] Top shape: 1 1024 30 36 (1105920)
I0728 23:09:57.011855 16577 net.cpp:129] Top shape: 1 1024 30 36 (1105920)
I0728 23:09:57.011858 16577 net.cpp:137] Memory required for data: 1104814080
I0728 23:09:57.011862 16577 layer_factory.hpp:77] Creating layer backbone_body_layer3_3_conv1
I0728 23:09:57.011868 16577 net.cpp:84] Creating Layer backbone_body_layer3_3_conv1
I0728 23:09:57.011871 16577 net.cpp:406] backbone_body_layer3_3_conv1 <- backbone_body_layer3_2_eltwise_backbone_body_layer3_2_relu_0_split_0
I0728 23:09:57.011878 16577 net.cpp:380] backbone_body_layer3_3_conv1 -> backbone_body_layer3_3_conv1
I0728 23:09:57.013867 16577 net.cpp:122] Setting up backbone_body_layer3_3_conv1
I0728 23:09:57.013881 16577 net.cpp:129] Top shape: 1 256 30 36 (276480)
I0728 23:09:57.013885 16577 net.cpp:137] Memory required for data: 1105920000
I0728 23:09:57.013890 16577 layer_factory.hpp:77] Creating layer backbone_body_layer3_3_bn1
I0728 23:09:57.013896 16577 net.cpp:84] Creating Layer backbone_body_layer3_3_bn1
I0728 23:09:57.013900 16577 net.cpp:406] backbone_body_layer3_3_bn1 <- backbone_body_layer3_3_conv1
I0728 23:09:57.013904 16577 net.cpp:367] backbone_body_layer3_3_bn1 -> backbone_body_layer3_3_conv1 (in-place)
I0728 23:09:57.013921 16577 net.cpp:122] Setting up backbone_body_layer3_3_bn1
I0728 23:09:57.013926 16577 net.cpp:129] Top shape: 1 256 30 36 (276480)
I0728 23:09:57.013928 16577 net.cpp:137] Memory required for data: 1107025920
I0728 23:09:57.013933 16577 layer_factory.hpp:77] Creating layer backbone_body_layer3_3_scale1
I0728 23:09:57.013939 16577 net.cpp:84] Creating Layer backbone_body_layer3_3_scale1
I0728 23:09:57.013942 16577 net.cpp:406] backbone_body_layer3_3_scale1 <- backbone_body_layer3_3_conv1
I0728 23:09:57.013947 16577 net.cpp:367] backbone_body_layer3_3_scale1 -> backbone_body_layer3_3_conv1 (in-place)
I0728 23:09:57.013955 16577 layer_factory.hpp:77] Creating layer backbone_body_layer3_3_scale1
I0728 23:09:57.013969 16577 net.cpp:122] Setting up backbone_body_layer3_3_scale1
I0728 23:09:57.013974 16577 net.cpp:129] Top shape: 1 256 30 36 (276480)
I0728 23:09:57.013976 16577 net.cpp:137] Memory required for data: 1108131840
I0728 23:09:57.013981 16577 layer_factory.hpp:77] Creating layer backbone_body_layer3_3_relu1
I0728 23:09:57.013985 16577 net.cpp:84] Creating Layer backbone_body_layer3_3_relu1
I0728 23:09:57.013988 16577 net.cpp:406] backbone_body_layer3_3_relu1 <- backbone_body_layer3_3_conv1
I0728 23:09:57.013993 16577 net.cpp:367] backbone_body_layer3_3_relu1 -> backbone_body_layer3_3_conv1 (in-place)
I0728 23:09:57.014497 16577 net.cpp:122] Setting up backbone_body_layer3_3_relu1
I0728 23:09:57.014510 16577 net.cpp:129] Top shape: 1 256 30 36 (276480)
I0728 23:09:57.014513 16577 net.cpp:137] Memory required for data: 1109237760
I0728 23:09:57.014516 16577 layer_factory.hpp:77] Creating layer backbone_body_layer3_3_conv2
I0728 23:09:57.014525 16577 net.cpp:84] Creating Layer backbone_body_layer3_3_conv2
I0728 23:09:57.014529 16577 net.cpp:406] backbone_body_layer3_3_conv2 <- backbone_body_layer3_3_conv1
I0728 23:09:57.014536 16577 net.cpp:380] backbone_body_layer3_3_conv2 -> backbone_body_layer3_3_conv2
I0728 23:09:57.018218 16577 net.cpp:122] Setting up backbone_body_layer3_3_conv2
I0728 23:09:57.018232 16577 net.cpp:129] Top shape: 1 256 30 36 (276480)
I0728 23:09:57.018235 16577 net.cpp:137] Memory required for data: 1110343680
I0728 23:09:57.018241 16577 layer_factory.hpp:77] Creating layer backbone_body_layer3_3_bn2
I0728 23:09:57.018247 16577 net.cpp:84] Creating Layer backbone_body_layer3_3_bn2
I0728 23:09:57.018251 16577 net.cpp:406] backbone_body_layer3_3_bn2 <- backbone_body_layer3_3_conv2
I0728 23:09:57.018257 16577 net.cpp:367] backbone_body_layer3_3_bn2 -> backbone_body_layer3_3_conv2 (in-place)
I0728 23:09:57.018273 16577 net.cpp:122] Setting up backbone_body_layer3_3_bn2
I0728 23:09:57.018277 16577 net.cpp:129] Top shape: 1 256 30 36 (276480)
I0728 23:09:57.018280 16577 net.cpp:137] Memory required for data: 1111449600
I0728 23:09:57.018285 16577 layer_factory.hpp:77] Creating layer backbone_body_layer3_3_scale2
I0728 23:09:57.018291 16577 net.cpp:84] Creating Layer backbone_body_layer3_3_scale2
I0728 23:09:57.018296 16577 net.cpp:406] backbone_body_layer3_3_scale2 <- backbone_body_layer3_3_conv2
I0728 23:09:57.018298 16577 net.cpp:367] backbone_body_layer3_3_scale2 -> backbone_body_layer3_3_conv2 (in-place)
I0728 23:09:57.018308 16577 layer_factory.hpp:77] Creating layer backbone_body_layer3_3_scale2
I0728 23:09:57.018321 16577 net.cpp:122] Setting up backbone_body_layer3_3_scale2
I0728 23:09:57.018326 16577 net.cpp:129] Top shape: 1 256 30 36 (276480)
I0728 23:09:57.018329 16577 net.cpp:137] Memory required for data: 1112555520
I0728 23:09:57.018333 16577 layer_factory.hpp:77] Creating layer backbone_body_layer3_3_relu2
I0728 23:09:57.018338 16577 net.cpp:84] Creating Layer backbone_body_layer3_3_relu2
I0728 23:09:57.018342 16577 net.cpp:406] backbone_body_layer3_3_relu2 <- backbone_body_layer3_3_conv2
I0728 23:09:57.018345 16577 net.cpp:367] backbone_body_layer3_3_relu2 -> backbone_body_layer3_3_conv2 (in-place)
I0728 23:09:57.018723 16577 net.cpp:122] Setting up backbone_body_layer3_3_relu2
I0728 23:09:57.018734 16577 net.cpp:129] Top shape: 1 256 30 36 (276480)
I0728 23:09:57.018738 16577 net.cpp:137] Memory required for data: 1113661440
I0728 23:09:57.018740 16577 layer_factory.hpp:77] Creating layer backbone_body_layer3_3_conv3
I0728 23:09:57.018748 16577 net.cpp:84] Creating Layer backbone_body_layer3_3_conv3
I0728 23:09:57.018752 16577 net.cpp:406] backbone_body_layer3_3_conv3 <- backbone_body_layer3_3_conv2
I0728 23:09:57.018759 16577 net.cpp:380] backbone_body_layer3_3_conv3 -> backbone_body_layer3_3_conv3
I0728 23:09:57.020898 16577 net.cpp:122] Setting up backbone_body_layer3_3_conv3
I0728 23:09:57.020912 16577 net.cpp:129] Top shape: 1 1024 30 36 (1105920)
I0728 23:09:57.020915 16577 net.cpp:137] Memory required for data: 1118085120
I0728 23:09:57.020920 16577 layer_factory.hpp:77] Creating layer backbone_body_layer3_3_bn3
I0728 23:09:57.020927 16577 net.cpp:84] Creating Layer backbone_body_layer3_3_bn3
I0728 23:09:57.020931 16577 net.cpp:406] backbone_body_layer3_3_bn3 <- backbone_body_layer3_3_conv3
I0728 23:09:57.020936 16577 net.cpp:367] backbone_body_layer3_3_bn3 -> backbone_body_layer3_3_conv3 (in-place)
I0728 23:09:57.020954 16577 net.cpp:122] Setting up backbone_body_layer3_3_bn3
I0728 23:09:57.020960 16577 net.cpp:129] Top shape: 1 1024 30 36 (1105920)
I0728 23:09:57.020963 16577 net.cpp:137] Memory required for data: 1122508800
I0728 23:09:57.020968 16577 layer_factory.hpp:77] Creating layer backbone_body_layer3_3_scale3
I0728 23:09:57.020973 16577 net.cpp:84] Creating Layer backbone_body_layer3_3_scale3
I0728 23:09:57.020977 16577 net.cpp:406] backbone_body_layer3_3_scale3 <- backbone_body_layer3_3_conv3
I0728 23:09:57.020980 16577 net.cpp:367] backbone_body_layer3_3_scale3 -> backbone_body_layer3_3_conv3 (in-place)
I0728 23:09:57.020990 16577 layer_factory.hpp:77] Creating layer backbone_body_layer3_3_scale3
I0728 23:09:57.021006 16577 net.cpp:122] Setting up backbone_body_layer3_3_scale3
I0728 23:09:57.021011 16577 net.cpp:129] Top shape: 1 1024 30 36 (1105920)
I0728 23:09:57.021014 16577 net.cpp:137] Memory required for data: 1126932480
I0728 23:09:57.021018 16577 layer_factory.hpp:77] Creating layer backbone_body_layer3_3_eltwise
I0728 23:09:57.021024 16577 net.cpp:84] Creating Layer backbone_body_layer3_3_eltwise
I0728 23:09:57.021028 16577 net.cpp:406] backbone_body_layer3_3_eltwise <- backbone_body_layer3_2_eltwise_backbone_body_layer3_2_relu_0_split_1
I0728 23:09:57.021031 16577 net.cpp:406] backbone_body_layer3_3_eltwise <- backbone_body_layer3_3_conv3
I0728 23:09:57.021036 16577 net.cpp:380] backbone_body_layer3_3_eltwise -> backbone_body_layer3_3_eltwise
I0728 23:09:57.021041 16577 net.cpp:122] Setting up backbone_body_layer3_3_eltwise
I0728 23:09:57.021045 16577 net.cpp:129] Top shape: 1 1024 30 36 (1105920)
I0728 23:09:57.021049 16577 net.cpp:137] Memory required for data: 1131356160
I0728 23:09:57.021051 16577 layer_factory.hpp:77] Creating layer backbone_body_layer3_3_relu
I0728 23:09:57.021057 16577 net.cpp:84] Creating Layer backbone_body_layer3_3_relu
I0728 23:09:57.021060 16577 net.cpp:406] backbone_body_layer3_3_relu <- backbone_body_layer3_3_eltwise
I0728 23:09:57.021064 16577 net.cpp:367] backbone_body_layer3_3_relu -> backbone_body_layer3_3_eltwise (in-place)
I0728 23:09:57.021564 16577 net.cpp:122] Setting up backbone_body_layer3_3_relu
I0728 23:09:57.021575 16577 net.cpp:129] Top shape: 1 1024 30 36 (1105920)
I0728 23:09:57.021579 16577 net.cpp:137] Memory required for data: 1135779840
I0728 23:09:57.021582 16577 layer_factory.hpp:77] Creating layer backbone_body_layer3_3_eltwise_backbone_body_layer3_3_relu_0_split
I0728 23:09:57.021589 16577 net.cpp:84] Creating Layer backbone_body_layer3_3_eltwise_backbone_body_layer3_3_relu_0_split
I0728 23:09:57.021593 16577 net.cpp:406] backbone_body_layer3_3_eltwise_backbone_body_layer3_3_relu_0_split <- backbone_body_layer3_3_eltwise
I0728 23:09:57.021597 16577 net.cpp:380] backbone_body_layer3_3_eltwise_backbone_body_layer3_3_relu_0_split -> backbone_body_layer3_3_eltwise_backbone_body_layer3_3_relu_0_split_0
I0728 23:09:57.021605 16577 net.cpp:380] backbone_body_layer3_3_eltwise_backbone_body_layer3_3_relu_0_split -> backbone_body_layer3_3_eltwise_backbone_body_layer3_3_relu_0_split_1
I0728 23:09:57.021612 16577 net.cpp:122] Setting up backbone_body_layer3_3_eltwise_backbone_body_layer3_3_relu_0_split
I0728 23:09:57.021616 16577 net.cpp:129] Top shape: 1 1024 30 36 (1105920)
I0728 23:09:57.021620 16577 net.cpp:129] Top shape: 1 1024 30 36 (1105920)
I0728 23:09:57.021623 16577 net.cpp:137] Memory required for data: 1144627200
I0728 23:09:57.021626 16577 layer_factory.hpp:77] Creating layer backbone_body_layer3_4_conv1
I0728 23:09:57.021632 16577 net.cpp:84] Creating Layer backbone_body_layer3_4_conv1
I0728 23:09:57.021636 16577 net.cpp:406] backbone_body_layer3_4_conv1 <- backbone_body_layer3_3_eltwise_backbone_body_layer3_3_relu_0_split_0
I0728 23:09:57.021641 16577 net.cpp:380] backbone_body_layer3_4_conv1 -> backbone_body_layer3_4_conv1
I0728 23:09:57.023938 16577 net.cpp:122] Setting up backbone_body_layer3_4_conv1
I0728 23:09:57.023952 16577 net.cpp:129] Top shape: 1 256 30 36 (276480)
I0728 23:09:57.023955 16577 net.cpp:137] Memory required for data: 1145733120
I0728 23:09:57.023960 16577 layer_factory.hpp:77] Creating layer backbone_body_layer3_4_bn1
I0728 23:09:57.023965 16577 net.cpp:84] Creating Layer backbone_body_layer3_4_bn1
I0728 23:09:57.023969 16577 net.cpp:406] backbone_body_layer3_4_bn1 <- backbone_body_layer3_4_conv1
I0728 23:09:57.023975 16577 net.cpp:367] backbone_body_layer3_4_bn1 -> backbone_body_layer3_4_conv1 (in-place)
I0728 23:09:57.023993 16577 net.cpp:122] Setting up backbone_body_layer3_4_bn1
I0728 23:09:57.023998 16577 net.cpp:129] Top shape: 1 256 30 36 (276480)
I0728 23:09:57.024001 16577 net.cpp:137] Memory required for data: 1146839040
I0728 23:09:57.024006 16577 layer_factory.hpp:77] Creating layer backbone_body_layer3_4_scale1
I0728 23:09:57.024013 16577 net.cpp:84] Creating Layer backbone_body_layer3_4_scale1
I0728 23:09:57.024015 16577 net.cpp:406] backbone_body_layer3_4_scale1 <- backbone_body_layer3_4_conv1
I0728 23:09:57.024019 16577 net.cpp:367] backbone_body_layer3_4_scale1 -> backbone_body_layer3_4_conv1 (in-place)
I0728 23:09:57.024029 16577 layer_factory.hpp:77] Creating layer backbone_body_layer3_4_scale1
I0728 23:09:57.024042 16577 net.cpp:122] Setting up backbone_body_layer3_4_scale1
I0728 23:09:57.024047 16577 net.cpp:129] Top shape: 1 256 30 36 (276480)
I0728 23:09:57.024049 16577 net.cpp:137] Memory required for data: 1147944960
I0728 23:09:57.024055 16577 layer_factory.hpp:77] Creating layer backbone_body_layer3_4_relu1
I0728 23:09:57.024058 16577 net.cpp:84] Creating Layer backbone_body_layer3_4_relu1
I0728 23:09:57.024061 16577 net.cpp:406] backbone_body_layer3_4_relu1 <- backbone_body_layer3_4_conv1
I0728 23:09:57.024065 16577 net.cpp:367] backbone_body_layer3_4_relu1 -> backbone_body_layer3_4_conv1 (in-place)
I0728 23:09:57.024560 16577 net.cpp:122] Setting up backbone_body_layer3_4_relu1
I0728 23:09:57.024574 16577 net.cpp:129] Top shape: 1 256 30 36 (276480)
…
I0728 23:09:58.334648 16577 net.cpp:129] Top shape: 1 1024 60 72 (4423680)
I0728 23:09:58.334651 16577 net.cpp:137] Memory required for data: 1551114240
I0728 23:09:58.334656 16577 layer_factory.hpp:77] Creating layer rpn_head_cls_tower_p2_6
I0728 23:09:58.334663 16577 net.cpp:84] Creating Layer rpn_head_cls_tower_p2_6
I0728 23:09:58.334667 16577 net.cpp:406] rpn_head_cls_tower_p2_6 <- rpn_head_cls_tower_p2_4
I0728 23:09:58.334672 16577 net.cpp:380] rpn_head_cls_tower_p2_6 -> rpn_head_cls_tower_p2_6
I0728 23:09:58.353570 16577 net.cpp:122] Setting up rpn_head_cls_tower_p2_6
I0728 23:09:58.353598 16577 net.cpp:129] Top shape: 1 1024 60 72 (4423680)
I0728 23:09:58.353601 16577 net.cpp:137] Memory required for data: 1568808960
I0728 23:09:58.353611 16577 layer_factory.hpp:77] Creating layer rpn_head_cls_tower_p2_7
I0728 23:09:58.353619 16577 net.cpp:84] Creating Layer rpn_head_cls_tower_p2_7
I0728 23:09:58.353626 16577 net.cpp:406] rpn_head_cls_tower_p2_7 <- rpn_head_cls_tower_p2_6
I0728 23:09:58.353631 16577 net.cpp:367] rpn_head_cls_tower_p2_7 -> rpn_head_cls_tower_p2_6 (in-place)
I0728 23:09:58.354141 16577 net.cpp:122] Setting up rpn_head_cls_tower_p2_7
I0728 23:09:58.354156 16577 net.cpp:129] Top shape: 1 1024 60 72 (4423680)
I0728 23:09:58.354158 16577 net.cpp:137] Memory required for data: 1586503680
I0728 23:09:58.354161 16577 layer_factory.hpp:77] Creating layer rpn_head_cls_logits_p2
I0728 23:09:58.354169 16577 net.cpp:84] Creating Layer rpn_head_cls_logits_p2
I0728 23:09:58.354173 16577 net.cpp:406] rpn_head_cls_logits_p2 <- rpn_head_cls_tower_p2_6
I0728 23:09:58.354180 16577 net.cpp:380] rpn_head_cls_logits_p2 -> rpn_head_cls_logits_p2
I0728 23:09:58.357348 16577 net.cpp:122] Setting up rpn_head_cls_logits_p2
I0728 23:09:58.357362 16577 net.cpp:129] Top shape: 1 9 60 72 (38880)
I0728 23:09:58.357365 16577 net.cpp:137] Memory required for data: 1586659200
I0728 23:09:58.357372 16577 layer_factory.hpp:77] Creating layer rpn_head_bbox_tower_p2_0
I0728 23:09:58.357380 16577 net.cpp:84] Creating Layer rpn_head_bbox_tower_p2_0
I0728 23:09:58.357385 16577 net.cpp:406] rpn_head_bbox_tower_p2_0 <- backbone_fpn_layer2_backbone_fpn_layer2_0_split_1
I0728 23:09:58.357390 16577 net.cpp:380] rpn_head_bbox_tower_p2_0 -> rpn_head_bbox_tower_p2_0
I0728 23:09:58.376771 16577 net.cpp:122] Setting up rpn_head_bbox_tower_p2_0
I0728 23:09:58.376801 16577 net.cpp:129] Top shape: 1 1024 60 72 (4423680)
I0728 23:09:58.376803 16577 net.cpp:137] Memory required for data: 1604353920
I0728 23:09:58.376814 16577 layer_factory.hpp:77] Creating layer rpn_head_bbox_tower_p2_1
I0728 23:09:58.376823 16577 net.cpp:84] Creating Layer rpn_head_bbox_tower_p2_1
I0728 23:09:58.376830 16577 net.cpp:406] rpn_head_bbox_tower_p2_1 <- rpn_head_bbox_tower_p2_0
I0728 23:09:58.376837 16577 net.cpp:367] rpn_head_bbox_tower_p2_1 -> rpn_head_bbox_tower_p2_0 (in-place)
I0728 23:09:58.377229 16577 net.cpp:122] Setting up rpn_head_bbox_tower_p2_1
I0728 23:09:58.377241 16577 net.cpp:129] Top shape: 1 1024 60 72 (4423680)
I0728 23:09:58.377244 16577 net.cpp:137] Memory required for data: 1622048640
I0728 23:09:58.377249 16577 layer_factory.hpp:77] Creating layer rpn_head_bbox_tower_p2_2
I0728 23:09:58.377256 16577 net.cpp:84] Creating Layer rpn_head_bbox_tower_p2_2
I0728 23:09:58.377260 16577 net.cpp:406] rpn_head_bbox_tower_p2_2 <- rpn_head_bbox_tower_p2_0
I0728 23:09:58.377266 16577 net.cpp:380] rpn_head_bbox_tower_p2_2 -> rpn_head_bbox_tower_p2_2
I0728 23:09:58.396651 16577 net.cpp:122] Setting up rpn_head_bbox_tower_p2_2
I0728 23:09:58.396677 16577 net.cpp:129] Top shape: 1 1024 60 72 (4423680)
I0728 23:09:58.396682 16577 net.cpp:137] Memory required for data: 1639743360
I0728 23:09:58.396692 16577 layer_factory.hpp:77] Creating layer rpn_head_bbox_tower_p2_3
I0728 23:09:58.396698 16577 net.cpp:84] Creating Layer rpn_head_bbox_tower_p2_3
I0728 23:09:58.396705 16577 net.cpp:406] rpn_head_bbox_tower_p2_3 <- rpn_head_bbox_tower_p2_2
I0728 23:09:58.396713 16577 net.cpp:367] rpn_head_bbox_tower_p2_3 -> rpn_head_bbox_tower_p2_2 (in-place)
I0728 23:09:58.398540 16577 net.cpp:122] Setting up rpn_head_bbox_tower_p2_3
I0728 23:09:58.398556 16577 net.cpp:129] Top shape: 1 1024 60 72 (4423680)
I0728 23:09:58.398561 16577 net.cpp:137] Memory required for data: 1657438080
I0728 23:09:58.398563 16577 layer_factory.hpp:77] Creating layer rpn_head_bbox_tower_p2_4
I0728 23:09:58.398576 16577 net.cpp:84] Creating Layer rpn_head_bbox_tower_p2_4
I0728 23:09:58.398579 16577 net.cpp:406] rpn_head_bbox_tower_p2_4 <- rpn_head_bbox_tower_p2_2
I0728 23:09:58.398586 16577 net.cpp:380] rpn_head_bbox_tower_p2_4 -> rpn_head_bbox_tower_p2_4
I0728 23:09:58.417589 16577 net.cpp:122] Setting up rpn_head_bbox_tower_p2_4
I0728 23:09:58.417620 16577 net.cpp:129] Top shape: 1 1024 60 72 (4423680)
I0728 23:09:58.417624 16577 net.cpp:137] Memory required for data: 1675132800
I0728 23:09:58.417634 16577 layer_factory.hpp:77] Creating layer rpn_head_bbox_tower_p2_5
I0728 23:09:58.417644 16577 net.cpp:84] Creating Layer rpn_head_bbox_tower_p2_5
I0728 23:09:58.417649 16577 net.cpp:406] rpn_head_bbox_tower_p2_5 <- rpn_head_bbox_tower_p2_4
I0728 23:09:58.417655 16577 net.cpp:367] rpn_head_bbox_tower_p2_5 -> rpn_head_bbox_tower_p2_4 (in-place)
I0728 23:09:58.418167 16577 net.cpp:122] Setting up rpn_head_bbox_tower_p2_5
I0728 23:09:58.418182 16577 net.cpp:129] Top shape: 1 1024 60 72 (4423680)
I0728 23:09:58.418185 16577 net.cpp:137] Memory required for data: 1692827520
I0728 23:09:58.418190 16577 layer_factory.hpp:77] Creating layer rpn_head_bbox_tower_p2_6
I0728 23:09:58.418197 16577 net.cpp:84] Creating Layer rpn_head_bbox_tower_p2_6
I0728 23:09:58.418201 16577 net.cpp:406] rpn_head_bbox_tower_p2_6 <- rpn_head_bbox_tower_p2_4
I0728 23:09:58.418206 16577 net.cpp:380] rpn_head_bbox_tower_p2_6 -> rpn_head_bbox_tower_p2_6
I0728 23:09:58.437086 16577 net.cpp:122] Setting up rpn_head_bbox_tower_p2_6
I0728 23:09:58.437115 16577 net.cpp:129] Top shape: 1 1024 60 72 (4423680)
I0728 23:09:58.437119 16577 net.cpp:137] Memory required for data: 1710522240
I0728 23:09:58.437129 16577 layer_factory.hpp:77] Creating layer rpn_head_bbox_tower_p2_7
I0728 23:09:58.437139 16577 net.cpp:84] Creating Layer rpn_head_bbox_tower_p2_7
I0728 23:09:58.437145 16577 net.cpp:406] rpn_head_bbox_tower_p2_7 <- rpn_head_bbox_tower_p2_6
I0728 23:09:58.437151 16577 net.cpp:367] rpn_head_bbox_tower_p2_7 -> rpn_head_bbox_tower_p2_6 (in-place)
I0728 23:09:58.437670 16577 net.cpp:122] Setting up rpn_head_bbox_tower_p2_7
I0728 23:09:58.437685 16577 net.cpp:129] Top shape: 1 1024 60 72 (4423680)
I0728 23:09:58.437688 16577 net.cpp:137] Memory required for data: 1728216960
I0728 23:09:58.437692 16577 layer_factory.hpp:77] Creating layer rpn_head_bbox_pred_p2
I0728 23:09:58.437698 16577 net.cpp:84] Creating Layer rpn_head_bbox_pred_p2
I0728 23:09:58.437702 16577 net.cpp:406] rpn_head_bbox_pred_p2 <- rpn_head_bbox_tower_p2_6
I0728 23:09:58.437711 16577 net.cpp:380] rpn_head_bbox_pred_p2 -> rpn_head_bbox_pred_p2
I0728 23:09:58.441334 16577 net.cpp:122] Setting up rpn_head_bbox_pred_p2
I0728 23:09:58.441349 16577 net.cpp:129] Top shape: 1 36 60 72 (155520)
I0728 23:09:58.441354 16577 net.cpp:137] Memory required for data: 1728839040
I0728 23:09:58.441360 16577 layer_factory.hpp:77] Creating layer rpn_head_cls_tower_p3_0
I0728 23:09:58.441368 16577 net.cpp:84] Creating Layer rpn_head_cls_tower_p3_0
I0728 23:09:58.441373 16577 net.cpp:406] rpn_head_cls_tower_p3_0 <- backbone_fpn_layer3_backbone_fpn_layer3_0_split_0
I0728 23:09:58.441380 16577 net.cpp:380] rpn_head_cls_tower_p3_0 -> rpn_head_cls_tower_p3_0
I0728 23:09:58.460530 16577 net.cpp:122] Setting up rpn_head_cls_tower_p3_0
I0728 23:09:58.460559 16577 net.cpp:129] Top shape: 1 1024 30 36 (1105920)
I0728 23:09:58.460562 16577 net.cpp:137] Memory required for data: 1733262720
I0728 23:09:58.460573 16577 layer_factory.hpp:77] Creating layer rpn_head_cls_tower_p3_1
I0728 23:09:58.460583 16577 net.cpp:84] Creating Layer rpn_head_cls_tower_p3_1
I0728 23:09:58.460589 16577 net.cpp:406] rpn_head_cls_tower_p3_1 <- rpn_head_cls_tower_p3_0
I0728 23:09:58.460595 16577 net.cpp:367] rpn_head_cls_tower_p3_1 -> rpn_head_cls_tower_p3_0 (in-place)
I0728 23:09:58.461123 16577 net.cpp:122] Setting up rpn_head_cls_tower_p3_1
I0728 23:09:58.461136 16577 net.cpp:129] Top shape: 1 1024 30 36 (1105920)
I0728 23:09:58.461139 16577 net.cpp:137] Memory required for data: 1737686400
I0728 23:09:58.461143 16577 layer_factory.hpp:77] Creating layer rpn_head_cls_tower_p3_2
I0728 23:09:58.461154 16577 net.cpp:84] Creating Layer rpn_head_cls_tower_p3_2
I0728 23:09:58.461158 16577 net.cpp:406] rpn_head_cls_tower_p3_2 <- rpn_head_cls_tower_p3_0
I0728 23:09:58.461164 16577 net.cpp:380] rpn_head_cls_tower_p3_2 -> rpn_head_cls_tower_p3_2
I0728 23:09:58.480371 16577 net.cpp:122] Setting up rpn_head_cls_tower_p3_2
I0728 23:09:58.480399 16577 net.cpp:129] Top shape: 1 1024 30 36 (1105920)
I0728 23:09:58.480402 16577 net.cpp:137] Memory required for data: 1742110080
I0728 23:09:58.480412 16577 layer_factory.hpp:77] Creating layer rpn_head_cls_tower_p3_3
I0728 23:09:58.480420 16577 net.cpp:84] Creating Layer rpn_head_cls_tower_p3_3
I0728 23:09:58.480427 16577 net.cpp:406] rpn_head_cls_tower_p3_3 <- rpn_head_cls_tower_p3_2
I0728 23:09:58.480432 16577 net.cpp:367] rpn_head_cls_tower_p3_3 -> rpn_head_cls_tower_p3_2 (in-place)
I0728 23:09:58.480950 16577 net.cpp:122] Setting up rpn_head_cls_tower_p3_3
I0728 23:09:58.480963 16577 net.cpp:129] Top shape: 1 1024 30 36 (1105920)
I0728 23:09:58.480967 16577 net.cpp:137] Memory required for data: 1746533760
I0728 23:09:58.480969 16577 layer_factory.hpp:77] Creating layer rpn_head_cls_tower_p3_4
I0728 23:09:58.480978 16577 net.cpp:84] Creating Layer rpn_head_cls_tower_p3_4
I0728 23:09:58.480981 16577 net.cpp:406] rpn_head_cls_tower_p3_4 <- rpn_head_cls_tower_p3_2
I0728 23:09:58.480988 16577 net.cpp:380] rpn_head_cls_tower_p3_4 -> rpn_head_cls_tower_p3_4
I0728 23:09:58.501250 16577 net.cpp:122] Setting up rpn_head_cls_tower_p3_4
I0728 23:09:58.501278 16577 net.cpp:129] Top shape: 1 1024 30 36 (1105920)
I0728 23:09:58.501282 16577 net.cpp:137] Memory required for data: 1750957440
I0728 23:09:58.501292 16577 layer_factory.hpp:77] Creating layer rpn_head_cls_tower_p3_5
I0728 23:09:58.501300 16577 net.cpp:84] Creating Layer rpn_head_cls_tower_p3_5
I0728 23:09:58.501309 16577 net.cpp:406] rpn_head_cls_tower_p3_5 <- rpn_head_cls_tower_p3_4
I0728 23:09:58.501314 16577 net.cpp:367] rpn_head_cls_tower_p3_5 -> rpn_head_cls_tower_p3_4 (in-place)
I0728 23:09:58.501840 16577 net.cpp:122] Setting up rpn_head_cls_tower_p3_5
I0728 23:09:58.501853 16577 net.cpp:129] Top shape: 1 1024 30 36 (1105920)
I0728 23:09:58.501857 16577 net.cpp:137] Memory required for data: 1755381120
I0728 23:09:58.501859 16577 layer_factory.hpp:77] Creating layer rpn_head_cls_tower_p3_6
I0728 23:09:58.501868 16577 net.cpp:84] Creating Layer rpn_head_cls_tower_p3_6
I0728 23:09:58.501873 16577 net.cpp:406] rpn_head_cls_tower_p3_6 <- rpn_head_cls_tower_p3_4
I0728 23:09:58.501878 16577 net.cpp:380] rpn_head_cls_tower_p3_6 -> rpn_head_cls_tower_p3_6
I0728 23:09:58.520918 16577 net.cpp:122] Setting up rpn_head_cls_tower_p3_6
I0728 23:09:58.520948 16577 net.cpp:129] Top shape: 1 1024 30 36 (1105920)
I0728 23:09:58.520952 16577 net.cpp:137] Memory required for data: 1759804800
I0728 23:09:58.520961 16577 layer_factory.hpp:77] Creating layer rpn_head_cls_tower_p3_7
I0728 23:09:58.520970 16577 net.cpp:84] Creating Layer rpn_head_cls_tower_p3_7
I0728 23:09:58.520977 16577 net.cpp:406] rpn_head_cls_tower_p3_7 <- rpn_head_cls_tower_p3_6
I0728 23:09:58.520984 16577 net.cpp:367] rpn_head_cls_tower_p3_7 -> rpn_head_cls_tower_p3_6 (in-place)
I0728 23:09:58.521504 16577 net.cpp:122] Setting up rpn_head_cls_tower_p3_7
I0728 23:09:58.521517 16577 net.cpp:129] Top shape: 1 1024 30 36 (1105920)
I0728 23:09:58.521520 16577 net.cpp:137] Memory required for data: 1764228480
I0728 23:09:58.521525 16577 layer_factory.hpp:77] Creating layer rpn_head_cls_logits_p3
I0728 23:09:58.521533 16577 net.cpp:84] Creating Layer rpn_head_cls_logits_p3
I0728 23:09:58.521536 16577 net.cpp:406] rpn_head_cls_logits_p3 <- rpn_head_cls_tower_p3_6
I0728 23:09:58.521543 16577 net.cpp:380] rpn_head_cls_logits_p3 -> rpn_head_cls_logits_p3
I0728 23:09:58.524883 16577 net.cpp:122] Setting up rpn_head_cls_logits_p3
I0728 23:09:58.524897 16577 net.cpp:129] Top shape: 1 9 30 36 (9720)
I0728 23:09:58.524900 16577 net.cpp:137] Memory required for data: 1764267360
I0728 23:09:58.524907 16577 layer_factory.hpp:77] Creating layer rpn_head_bbox_tower_p3_0
I0728 23:09:58.524914 16577 net.cpp:84] Creating Layer rpn_head_bbox_tower_p3_0
I0728 23:09:58.524919 16577 net.cpp:406] rpn_head_bbox_tower_p3_0 <- backbone_fpn_layer3_backbone_fpn_layer3_0_split_1
I0728 23:09:58.524925 16577 net.cpp:380] rpn_head_bbox_tower_p3_0 -> rpn_head_bbox_tower_p3_0
I0728 23:09:58.543969 16577 net.cpp:122] Setting up rpn_head_bbox_tower_p3_0
I0728 23:09:58.543999 16577 net.cpp:129] Top shape: 1 1024 30 36 (1105920)
I0728 23:09:58.544003 16577 net.cpp:137] Memory required for data: 1768691040
I0728 23:09:58.544013 16577 layer_factory.hpp:77] Creating layer rpn_head_bbox_tower_p3_1
I0728 23:09:58.544023 16577 net.cpp:84] Creating Layer rpn_head_bbox_tower_p3_1
I0728 23:09:58.544029 16577 net.cpp:406] rpn_head_bbox_tower_p3_1 <- rpn_head_bbox_tower_p3_0
I0728 23:09:58.544034 16577 net.cpp:367] rpn_head_bbox_tower_p3_1 -> rpn_head_bbox_tower_p3_0 (in-place)
I0728 23:09:58.544545 16577 net.cpp:122] Setting up rpn_head_bbox_tower_p3_1
I0728 23:09:58.544559 16577 net.cpp:129] Top shape: 1 1024 30 36 (1105920)
I0728 23:09:58.544561 16577 net.cpp:137] Memory required for data: 1773114720
I0728 23:09:58.544564 16577 layer_factory.hpp:77] Creating layer rpn_head_bbox_tower_p3_2
I0728 23:09:58.544574 16577 net.cpp:84] Creating Layer rpn_head_bbox_tower_p3_2
I0728 23:09:58.544577 16577 net.cpp:406] rpn_head_bbox_tower_p3_2 <- rpn_head_bbox_tower_p3_0
I0728 23:09:58.544584 16577 net.cpp:380] rpn_head_bbox_tower_p3_2 -> rpn_head_bbox_tower_p3_2
I0728 23:09:58.563446 16577 net.cpp:122] Setting up rpn_head_bbox_tower_p3_2
I0728 23:09:58.563474 16577 net.cpp:129] Top shape: 1 1024 30 36 (1105920)
I0728 23:09:58.563477 16577 net.cpp:137] Memory required for data: 1777538400
I0728 23:09:58.563488 16577 layer_factory.hpp:77] Creating layer rpn_head_bbox_tower_p3_3
I0728 23:09:58.563495 16577 net.cpp:84] Creating Layer rpn_head_bbox_tower_p3_3
I0728 23:09:58.563504 16577 net.cpp:406] rpn_head_bbox_tower_p3_3 <- rpn_head_bbox_tower_p3_2
I0728 23:09:58.563510 16577 net.cpp:367] rpn_head_bbox_tower_p3_3 -> rpn_head_bbox_tower_p3_2 (in-place)
I0728 23:09:58.564039 16577 net.cpp:122] Setting up rpn_head_bbox_tower_p3_3
I0728 23:09:58.564052 16577 net.cpp:129] Top shape: 1 1024 30 36 (1105920)
I0728 23:09:58.564055 16577 net.cpp:137] Memory required for data: 1781962080
I0728 23:09:58.564059 16577 layer_factory.hpp:77] Creating layer rpn_head_bbox_tower_p3_4
I0728 23:09:58.564067 16577 net.cpp:84] Creating Layer rpn_head_bbox_tower_p3_4
I0728 23:09:58.564071 16577 net.cpp:406] rpn_head_bbox_tower_p3_4 <- rpn_head_bbox_tower_p3_2
I0728 23:09:58.564077 16577 net.cpp:380] rpn_head_bbox_tower_p3_4 -> rpn_head_bbox_tower_p3_4
I0728 23:09:58.584511 16577 net.cpp:122] Setting up rpn_head_bbox_tower_p3_4
I0728 23:09:58.584538 16577 net.cpp:129] Top shape: 1 1024 30 36 (1105920)
I0728 23:09:58.584542 16577 net.cpp:137] Memory required for data: 1786385760
I0728 23:09:58.584551 16577 layer_factory.hpp:77] Creating layer rpn_head_bbox_tower_p3_5
I0728 23:09:58.584561 16577 net.cpp:84] Creating Layer rpn_head_bbox_tower_p3_5
I0728 23:09:58.584568 16577 net.cpp:406] rpn_head_bbox_tower_p3_5 <- rpn_head_bbox_tower_p3_4
I0728 23:09:58.584573 16577 net.cpp:367] rpn_head_bbox_tower_p3_5 -> rpn_head_bbox_tower_p3_4 (in-place)
I0728 23:09:58.585099 16577 net.cpp:122] Setting up rpn_head_bbox_tower_p3_5
I0728 23:09:58.585111 16577 net.cpp:129] Top shape: 1 1024 30 36 (1105920)
I0728 23:09:58.585114 16577 net.cpp:137] Memory required for data: 1790809440
I0728 23:09:58.585119 16577 layer_factory.hpp:77] Creating layer rpn_head_bbox_tower_p3_6
I0728 23:09:58.585126 16577 net.cpp:84] Creating Layer rpn_head_bbox_tower_p3_6
I0728 23:09:58.585130 16577 net.cpp:406] rpn_head_bbox_tower_p3_6 <- rpn_head_bbox_tower_p3_4
I0728 23:09:58.585135 16577 net.cpp:380] rpn_head_bbox_tower_p3_6 -> rpn_head_bbox_tower_p3_6
I0728 23:09:58.604251 16577 net.cpp:122] Setting up rpn_head_bbox_tower_p3_6
I0728 23:09:58.604279 16577 net.cpp:129] Top shape: 1 1024 30 36 (1105920)
I0728 23:09:58.604282 16577 net.cpp:137] Memory required for data: 1795233120
I0728 23:09:58.604292 16577 layer_factory.hpp:77] Creating layer rpn_head_bbox_tower_p3_7
I0728 23:09:58.604300 16577 net.cpp:84] Creating Layer rpn_head_bbox_tower_p3_7
I0728 23:09:58.604306 16577 net.cpp:406] rpn_head_bbox_tower_p3_7 <- rpn_head_bbox_tower_p3_6
I0728 23:09:58.604315 16577 net.cpp:367] rpn_head_bbox_tower_p3_7 -> rpn_head_bbox_tower_p3_6 (in-place)
I0728 23:09:58.604701 16577 net.cpp:122] Setting up rpn_head_bbox_tower_p3_7
I0728 23:09:58.604712 16577 net.cpp:129] Top shape: 1 1024 30 36 (1105920)
I0728 23:09:58.604715 16577 net.cpp:137] Memory required for data: 1799656800
I0728 23:09:58.604719 16577 layer_factory.hpp:77] Creating layer rpn_head_bbox_pred_p3
I0728 23:09:58.604727 16577 net.cpp:84] Creating Layer rpn_head_bbox_pred_p3
I0728 23:09:58.604732 16577 net.cpp:406] rpn_head_bbox_pred_p3 <- rpn_head_bbox_tower_p3_6
I0728 23:09:58.604737 16577 net.cpp:380] rpn_head_bbox_pred_p3 -> rpn_head_bbox_pred_p3
I0728 23:09:58.607136 16577 net.cpp:122] Setting up rpn_head_bbox_pred_p3
I0728 23:09:58.607149 16577 net.cpp:129] Top shape: 1 36 30 36 (38880)
I0728 23:09:58.607152 16577 net.cpp:137] Memory required for data: 1799812320
I0728 23:09:58.607158 16577 layer_factory.hpp:77] Creating layer rpn_head_cls_tower_p4_0
I0728 23:09:58.607165 16577 net.cpp:84] Creating Layer rpn_head_cls_tower_p4_0
I0728 23:09:58.607170 16577 net.cpp:406] rpn_head_cls_tower_p4_0 <- backbone_fpn_layer4_backbone_fpn_layer4_0_split_0
I0728 23:09:58.607177 16577 net.cpp:380] rpn_head_cls_tower_p4_0 -> rpn_head_cls_tower_p4_0
I0728 23:09:58.627521 16577 net.cpp:122] Setting up rpn_head_cls_tower_p4_0
I0728 23:09:58.627549 16577 net.cpp:129] Top shape: 1 1024 15 18 (276480)
I0728 23:09:58.627553 16577 net.cpp:137] Memory required for data: 1800918240
I0728 23:09:58.627563 16577 layer_factory.hpp:77] Creating layer rpn_head_cls_tower_p4_1
I0728 23:09:58.627573 16577 net.cpp:84] Creating Layer rpn_head_cls_tower_p4_1
I0728 23:09:58.627579 16577 net.cpp:406] rpn_head_cls_tower_p4_1 <- rpn_head_cls_tower_p4_0
I0728 23:09:58.627585 16577 net.cpp:367] rpn_head_cls_tower_p4_1 -> rpn_head_cls_tower_p4_0 (in-place)
I0728 23:09:58.628103 16577 net.cpp:122] Setting up rpn_head_cls_tower_p4_1
I0728 23:09:58.628116 16577 net.cpp:129] Top shape: 1 1024 15 18 (276480)
I0728 23:09:58.628119 16577 net.cpp:137] Memory required for data: 1802024160
I0728 23:09:58.628123 16577 layer_factory.hpp:77] Creating layer rpn_head_cls_tower_p4_2
I0728 23:09:58.628130 16577 net.cpp:84] Creating Layer rpn_head_cls_tower_p4_2
I0728 23:09:58.628134 16577 net.cpp:406] rpn_head_cls_tower_p4_2 <- rpn_head_cls_tower_p4_0
I0728 23:09:58.628140 16577 net.cpp:380] rpn_head_cls_tower_p4_2 -> rpn_head_cls_tower_p4_2
I0728 23:09:58.647131 16577 net.cpp:122] Setting up rpn_head_cls_tower_p4_2
I0728 23:09:58.647158 16577 net.cpp:129] Top shape: 1 1024 15 18 (276480)
I0728 23:09:58.647161 16577 net.cpp:137] Memory required for data: 1803130080
I0728 23:09:58.647171 16577 layer_factory.hpp:77] Creating layer rpn_head_cls_tower_p4_3
I0728 23:09:58.647181 16577 net.cpp:84] Creating Layer rpn_head_cls_tower_p4_3
I0728 23:09:58.647188 16577 net.cpp:406] rpn_head_cls_tower_p4_3 <- rpn_head_cls_tower_p4_2
I0728 23:09:58.647202 16577 net.cpp:367] rpn_head_cls_tower_p4_3 -> rpn_head_cls_tower_p4_2 (in-place)
I0728 23:09:58.647720 16577 net.cpp:122] Setting up rpn_head_cls_tower_p4_3
I0728 23:09:58.647733 16577 net.cpp:129] Top shape: 1 1024 15 18 (276480)
I0728 23:09:58.647737 16577 net.cpp:137] Memory required for data: 1804236000
I0728 23:09:58.647740 16577 layer_factory.hpp:77] Creating layer rpn_head_cls_tower_p4_4
I0728 23:09:58.647748 16577 net.cpp:84] Creating Layer rpn_head_cls_tower_p4_4
I0728 23:09:58.647753 16577 net.cpp:406] rpn_head_cls_tower_p4_4 <- rpn_head_cls_tower_p4_2
I0728 23:09:58.647758 16577 net.cpp:380] rpn_head_cls_tower_p4_4 -> rpn_head_cls_tower_p4_4
I0728 23:09:58.668278 16577 net.cpp:122] Setting up rpn_head_cls_tower_p4_4
I0728 23:09:58.668305 16577 net.cpp:129] Top shape: 1 1024 15 18 (276480)
I0728 23:09:58.668309 16577 net.cpp:137] Memory required for data: 1805341920
I0728 23:09:58.668319 16577 layer_factory.hpp:77] Creating layer rpn_head_cls_tower_p4_5
I0728 23:09:58.668326 16577 net.cpp:84] Creating Layer rpn_head_cls_tower_p4_5
I0728 23:09:58.668332 16577 net.cpp:406] rpn_head_cls_tower_p4_5 <- rpn_head_cls_tower_p4_4
I0728 23:09:58.668340 16577 net.cpp:367] rpn_head_cls_tower_p4_5 -> rpn_head_cls_tower_p4_4 (in-place)
I0728 23:09:58.668725 16577 net.cpp:122] Setting up rpn_head_cls_tower_p4_5
I0728 23:09:58.668738 16577 net.cpp:129] Top shape: 1 1024 15 18 (276480)
I0728 23:09:58.668741 16577 net.cpp:137] Memory required for data: 1806447840
I0728 23:09:58.668745 16577 layer_factory.hpp:77] Creating layer rpn_head_cls_tower_p4_6
I0728 23:09:58.668752 16577 net.cpp:84] Creating Layer rpn_head_cls_tower_p4_6
I0728 23:09:58.668756 16577 net.cpp:406] rpn_head_cls_tower_p4_6 <- rpn_head_cls_tower_p4_4
I0728 23:09:58.668762 16577 net.cpp:380] rpn_head_cls_tower_p4_6 -> rpn_head_cls_tower_p4_6
I0728 23:09:58.688062 16577 net.cpp:122] Setting up rpn_head_cls_tower_p4_6
I0728 23:09:58.688089 16577 net.cpp:129] Top shape: 1 1024 15 18 (276480)
I0728 23:09:58.688093 16577 net.cpp:137] Memory required for data: 1807553760
I0728 23:09:58.688102 16577 layer_factory.hpp:77] Creating layer rpn_head_cls_tower_p4_7
I0728 23:09:58.688112 16577 net.cpp:84] Creating Layer rpn_head_cls_tower_p4_7
I0728 23:09:58.688117 16577 net.cpp:406] rpn_head_cls_tower_p4_7 <- rpn_head_cls_tower_p4_6
I0728 23:09:58.688123 16577 net.cpp:367] rpn_head_cls_tower_p4_7 -> rpn_head_cls_tower_p4_6 (in-place)
I0728 23:09:58.688654 16577 net.cpp:122] Setting up rpn_head_cls_tower_p4_7
I0728 23:09:58.688668 16577 net.cpp:129] Top shape: 1 1024 15 18 (276480)
I0728 23:09:58.688671 16577 net.cpp:137] Memory required for data: 1808659680
I0728 23:09:58.688674 16577 layer_factory.hpp:77] Creating layer rpn_head_cls_logits_p4
I0728 23:09:58.688683 16577 net.cpp:84] Creating Layer rpn_head_cls_logits_p4
I0728 23:09:58.688686 16577 net.cpp:406] rpn_head_cls_logits_p4 <- rpn_head_cls_tower_p4_6
I0728 23:09:58.688691 16577 net.cpp:380] rpn_head_cls_logits_p4 -> rpn_head_cls_logits_p4
I0728 23:09:58.690601 16577 net.cpp:122] Setting up rpn_head_cls_logits_p4
I0728 23:09:58.690615 16577 net.cpp:129] Top shape: 1 9 15 18 (2430)
I0728 23:09:58.690618 16577 net.cpp:137] Memory required for data: 1808669400
I0728 23:09:58.690624 16577 layer_factory.hpp:77] Creating layer rpn_head_bbox_tower_p4_0
I0728 23:09:58.690631 16577 net.cpp:84] Creating Layer rpn_head_bbox_tower_p4_0
I0728 23:09:58.690636 16577 net.cpp:406] rpn_head_bbox_tower_p4_0 <- backbone_fpn_layer4_backbone_fpn_layer4_0_split_1
I0728 23:09:58.690641 16577 net.cpp:380] rpn_head_bbox_tower_p4_0 -> rpn_head_bbox_tower_p4_0
I0728 23:09:58.711019 16577 net.cpp:122] Setting up rpn_head_bbox_tower_p4_0
I0728 23:09:58.711046 16577 net.cpp:129] Top shape: 1 1024 15 18 (276480)
I0728 23:09:58.711050 16577 net.cpp:137] Memory required for data: 1809775320
I0728 23:09:58.711061 16577 layer_factory.hpp:77] Creating layer rpn_head_bbox_tower_p4_1
I0728 23:09:58.711068 16577 net.cpp:84] Creating Layer rpn_head_bbox_tower_p4_1
I0728 23:09:58.711076 16577 net.cpp:406] rpn_head_bbox_tower_p4_1 <- rpn_head_bbox_tower_p4_0
I0728 23:09:58.711083 16577 net.cpp:367] rpn_head_bbox_tower_p4_1 -> rpn_head_bbox_tower_p4_0 (in-place)
I0728 23:09:58.711612 16577 net.cpp:122] Setting up rpn_head_bbox_tower_p4_1
I0728 23:09:58.711627 16577 net.cpp:129] Top shape: 1 1024 15 18 (276480)
I0728 23:09:58.711629 16577 net.cpp:137] Memory required for data: 1810881240
I0728 23:09:58.711632 16577 layer_factory.hpp:77] Creating layer rpn_head_bbox_tower_p4_2
I0728 23:09:58.711642 16577 net.cpp:84] Creating Layer rpn_head_bbox_tower_p4_2
I0728 23:09:58.711645 16577 net.cpp:406] rpn_head_bbox_tower_p4_2 <- rpn_head_bbox_tower_p4_0
I0728 23:09:58.711650 16577 net.cpp:380] rpn_head_bbox_tower_p4_2 -> rpn_head_bbox_tower_p4_2
I0728 23:09:58.730783 16577 net.cpp:122] Setting up rpn_head_bbox_tower_p4_2
I0728 23:09:58.730813 16577 net.cpp:129] Top shape: 1 1024 15 18 (276480)
I0728 23:09:58.730818 16577 net.cpp:137] Memory required for data: 1811987160
I0728 23:09:58.730827 16577 layer_factory.hpp:77] Creating layer rpn_head_bbox_tower_p4_3
I0728 23:09:58.730835 16577 net.cpp:84] Creating Layer rpn_head_bbox_tower_p4_3
I0728 23:09:58.730841 16577 net.cpp:406] rpn_head_bbox_tower_p4_3 <- rpn_head_bbox_tower_p4_2
I0728 23:09:58.730850 16577 net.cpp:367] rpn_head_bbox_tower_p4_3 -> rpn_head_bbox_tower_p4_2 (in-place)
I0728 23:09:58.731251 16577 net.cpp:122] Setting up rpn_head_bbox_tower_p4_3
I0728 23:09:58.731261 16577 net.cpp:129] Top shape: 1 1024 15 18 (276480)
I0728 23:09:58.731264 16577 net.cpp:137] Memory required for data: 1813093080
I0728 23:09:58.731268 16577 layer_factory.hpp:77] Creating layer rpn_head_bbox_tower_p4_4
I0728 23:09:58.731277 16577 net.cpp:84] Creating Layer rpn_head_bbox_tower_p4_4
I0728 23:09:58.731281 16577 net.cpp:406] rpn_head_bbox_tower_p4_4 <- rpn_head_bbox_tower_p4_2
I0728 23:09:58.731287 16577 net.cpp:380] rpn_head_bbox_tower_p4_4 -> rpn_head_bbox_tower_p4_4
I0728 23:09:58.750322 16577 net.cpp:122] Setting up rpn_head_bbox_tower_p4_4
I0728 23:09:58.750350 16577 net.cpp:129] Top shape: 1 1024 15 18 (276480)
I0728 23:09:58.750353 16577 net.cpp:137] Memory required for data: 1814199000
I0728 23:09:58.750363 16577 layer_factory.hpp:77] Creating layer rpn_head_bbox_tower_p4_5
I0728 23:09:58.750372 16577 net.cpp:84] Creating Layer rpn_head_bbox_tower_p4_5
I0728 23:09:58.750380 16577 net.cpp:406] rpn_head_bbox_tower_p4_5 <- rpn_head_bbox_tower_p4_4
I0728 23:09:58.750385 16577 net.cpp:367] rpn_head_bbox_tower_p4_5 -> rpn_head_bbox_tower_p4_4 (in-place)
I0728 23:09:58.752370 16577 net.cpp:122] Setting up rpn_head_bbox_tower_p4_5
I0728 23:09:58.752388 16577 net.cpp:129] Top shape: 1 1024 15 18 (276480)
I0728 23:09:58.752391 16577 net.cpp:137] Memory required for data: 1815304920
I0728 23:09:58.752395 16577 layer_factory.hpp:77] Creating layer rpn_head_bbox_tower_p4_6
I0728 23:09:58.752406 16577 net.cpp:84] Creating Layer rpn_head_bbox_tower_p4_6
I0728 23:09:58.752411 16577 net.cpp:406] rpn_head_bbox_tower_p4_6 <- rpn_head_bbox_tower_p4_4
I0728 23:09:58.752418 16577 net.cpp:380] rpn_head_bbox_tower_p4_6 -> rpn_head_bbox_tower_p4_6
I0728 23:09:58.771441 16577 net.cpp:122] Setting up rpn_head_bbox_tower_p4_6
I0728 23:09:58.771469 16577 net.cpp:129] Top shape: 1 1024 15 18 (276480)
I0728 23:09:58.771472 16577 net.cpp:137] Memory required for data: 1816410840
I0728 23:09:58.771482 16577 layer_factory.hpp:77] Creating layer rpn_head_bbox_tower_p4_7
I0728 23:09:58.771492 16577 net.cpp:84] Creating Layer rpn_head_bbox_tower_p4_7
I0728 23:09:58.771498 16577 net.cpp:406] rpn_head_bbox_tower_p4_7 <- rpn_head_bbox_tower_p4_6
I0728 23:09:58.771504 16577 net.cpp:367] rpn_head_bbox_tower_p4_7 -> rpn_head_bbox_tower_p4_6 (in-place)
I0728 23:09:58.772013 16577 net.cpp:122] Setting up rpn_head_bbox_tower_p4_7
I0728 23:09:58.772027 16577 net.cpp:129] Top shape: 1 1024 15 18 (276480)
I0728 23:09:58.772029 16577 net.cpp:137] Memory required for data: 1817516760
I0728 23:09:58.772032 16577 layer_factory.hpp:77] Creating layer rpn_head_bbox_pred_p4
I0728 23:09:58.772040 16577 net.cpp:84] Creating Layer rpn_head_bbox_pred_p4
I0728 23:09:58.772044 16577 net.cpp:406] rpn_head_bbox_pred_p4 <- rpn_head_bbox_tower_p4_6
I0728 23:09:58.772051 16577 net.cpp:380] rpn_head_bbox_pred_p4 -> rpn_head_bbox_pred_p4
I0728 23:09:58.774291 16577 net.cpp:122] Setting up rpn_head_bbox_pred_p4
I0728 23:09:58.774304 16577 net.cpp:129] Top shape: 1 36 15 18 (9720)
I0728 23:09:58.774308 16577 net.cpp:137] Memory required for data: 1817555640
I0728 23:09:58.774314 16577 layer_factory.hpp:77] Creating layer rpn_head_cls_tower_p6_0
I0728 23:09:58.774322 16577 net.cpp:84] Creating Layer rpn_head_cls_tower_p6_0
I0728 23:09:58.774327 16577 net.cpp:406] rpn_head_cls_tower_p6_0 <- backbone_fpn_topblocks_p6_backbone_fpn_topblocks_p6relu_0_split_1
I0728 23:09:58.774333 16577 net.cpp:380] rpn_head_cls_tower_p6_0 -> rpn_head_cls_tower_p6_0
I0728 23:09:58.794996 16577 net.cpp:122] Setting up rpn_head_cls_tower_p6_0
I0728 23:09:58.795027 16577 net.cpp:129] Top shape: 1 1024 8 9 (73728)
I0728 23:09:58.795032 16577 net.cpp:137] Memory required for data: 1817850552
I0728 23:09:58.795042 16577 layer_factory.hpp:77] Creating layer rpn_head_cls_tower_p6_1
I0728 23:09:58.795051 16577 net.cpp:84] Creating Layer rpn_head_cls_tower_p6_1
I0728 23:09:58.795058 16577 net.cpp:406] rpn_head_cls_tower_p6_1 <- rpn_head_cls_tower_p6_0
I0728 23:09:58.795065 16577 net.cpp:367] rpn_head_cls_tower_p6_1 -> rpn_head_cls_tower_p6_0 (in-place)
I0728 23:09:58.795465 16577 net.cpp:122] Setting up rpn_head_cls_tower_p6_1
I0728 23:09:58.795477 16577 net.cpp:129] Top shape: 1 1024 8 9 (73728)
I0728 23:09:58.795481 16577 net.cpp:137] Memory required for data: 1818145464
I0728 23:09:58.795485 16577 layer_factory.hpp:77] Creating layer rpn_head_cls_tower_p6_2
I0728 23:09:58.795493 16577 net.cpp:84] Creating Layer rpn_head_cls_tower_p6_2
I0728 23:09:58.795496 16577 net.cpp:406] rpn_head_cls_tower_p6_2 <- rpn_head_cls_tower_p6_0
I0728 23:09:58.795502 16577 net.cpp:380] rpn_head_cls_tower_p6_2 -> rpn_head_cls_tower_p6_2
I0728 23:09:58.814584 16577 net.cpp:122] Setting up rpn_head_cls_tower_p6_2
I0728 23:09:58.814617 16577 net.cpp:129] Top shape: 1 1024 8 9 (73728)
I0728 23:09:58.814621 16577 net.cpp:137] Memory required for data: 1818440376
I0728 23:09:58.814632 16577 layer_factory.hpp:77] Creating layer rpn_head_cls_tower_p6_3
I0728 23:09:58.814642 16577 net.cpp:84] Creating Layer rpn_head_cls_tower_p6_3
I0728 23:09:58.814648 16577 net.cpp:406] rpn_head_cls_tower_p6_3 <- rpn_head_cls_tower_p6_2
I0728 23:09:58.814656 16577 net.cpp:367] rpn_head_cls_tower_p6_3 -> rpn_head_cls_tower_p6_2 (in-place)
I0728 23:09:58.815178 16577 net.cpp:122] Setting up rpn_head_cls_tower_p6_3
I0728 23:09:58.815192 16577 net.cpp:129] Top shape: 1 1024 8 9 (73728)
I0728 23:09:58.815203 16577 net.cpp:137] Memory required for data: 1818735288
I0728 23:09:58.815207 16577 layer_factory.hpp:77] Creating layer rpn_head_cls_tower_p6_4
I0728 23:09:58.815214 16577 net.cpp:84] Creating Layer rpn_head_cls_tower_p6_4
I0728 23:09:58.815218 16577 net.cpp:406] rpn_head_cls_tower_p6_4 <- rpn_head_cls_tower_p6_2
I0728 23:09:58.815225 16577 net.cpp:380] rpn_head_cls_tower_p6_4 -> rpn_head_cls_tower_p6_4
I0728 23:09:58.834343 16577 net.cpp:122] Setting up rpn_head_cls_tower_p6_4
I0728 23:09:58.834374 16577 net.cpp:129] Top shape: 1 1024 8 9 (73728)
I0728 23:09:58.834378 16577 net.cpp:137] Memory required for data: 1819030200
I0728 23:09:58.834388 16577 layer_factory.hpp:77] Creating layer rpn_head_cls_tower_p6_5
I0728 23:09:58.834398 16577 net.cpp:84] Creating Layer rpn_head_cls_tower_p6_5
I0728 23:09:58.834403 16577 net.cpp:406] rpn_head_cls_tower_p6_5 <- rpn_head_cls_tower_p6_4
I0728 23:09:58.834409 16577 net.cpp:367] rpn_head_cls_tower_p6_5 -> rpn_head_cls_tower_p6_4 (in-place)
I0728 23:09:58.834930 16577 net.cpp:122] Setting up rpn_head_cls_tower_p6_5
I0728 23:09:58.834942 16577 net.cpp:129] Top shape: 1 1024 8 9 (73728)
I0728 23:09:58.834945 16577 net.cpp:137] Memory required for data: 1819325112
I0728 23:09:58.834949 16577 layer_factory.hpp:77] Creating layer rpn_head_cls_tower_p6_6
I0728 23:09:58.834957 16577 net.cpp:84] Creating Layer rpn_head_cls_tower_p6_6
I0728 23:09:58.834961 16577 net.cpp:406] rpn_head_cls_tower_p6_6 <- rpn_head_cls_tower_p6_4
I0728 23:09:58.834967 16577 net.cpp:380] rpn_head_cls_tower_p6_6 -> rpn_head_cls_tower_p6_6
I0728 23:09:58.855280 16577 net.cpp:122] Setting up rpn_head_cls_tower_p6_6
I0728 23:09:58.855307 16577 net.cpp:129] Top shape: 1 1024 8 9 (73728)
I0728 23:09:58.855311 16577 net.cpp:137] Memory required for data: 1819620024
I0728 23:09:58.855321 16577 layer_factory.hpp:77] Creating layer rpn_head_cls_tower_p6_7
I0728 23:09:58.855329 16577 net.cpp:84] Creating Layer rpn_head_cls_tower_p6_7
I0728 23:09:58.855335 16577 net.cpp:406] rpn_head_cls_tower_p6_7 <- rpn_head_cls_tower_p6_6
I0728 23:09:58.855345 16577 net.cpp:367] rpn_head_cls_tower_p6_7 -> rpn_head_cls_tower_p6_6 (in-place)
I0728 23:09:58.855861 16577 net.cpp:122] Setting up rpn_head_cls_tower_p6_7
I0728 23:09:58.855875 16577 net.cpp:129] Top shape: 1 1024 8 9 (73728)
I0728 23:09:58.855878 16577 net.cpp:137] Memory required for data: 1819914936
I0728 23:09:58.855881 16577 layer_factory.hpp:77] Creating layer rpn_head_cls_logits_p6
I0728 23:09:58.855890 16577 net.cpp:84] Creating Layer rpn_head_cls_logits_p6
I0728 23:09:58.855895 16577 net.cpp:406] rpn_head_cls_logits_p6 <- rpn_head_cls_tower_p6_6
I0728 23:09:58.855899 16577 net.cpp:380] rpn_head_cls_logits_p6 -> rpn_head_cls_logits_p6
I0728 23:09:58.857800 16577 net.cpp:122] Setting up rpn_head_cls_logits_p6
I0728 23:09:58.857812 16577 net.cpp:129] Top shape: 1 9 8 9 (648)
I0728 23:09:58.857815 16577 net.cpp:137] Memory required for data: 1819917528
I0728 23:09:58.857821 16577 layer_factory.hpp:77] Creating layer rpn_head_bbox_tower_p6_0
I0728 23:09:58.857831 16577 net.cpp:84] Creating Layer rpn_head_bbox_tower_p6_0
I0728 23:09:58.857834 16577 net.cpp:406] rpn_head_bbox_tower_p6_0 <- backbone_fpn_topblocks_p6_backbone_fpn_topblocks_p6relu_0_split_2
I0728 23:09:58.857842 16577 net.cpp:380] rpn_head_bbox_tower_p6_0 -> rpn_head_bbox_tower_p6_0
I0728 23:09:58.877007 16577 net.cpp:122] Setting up rpn_head_bbox_tower_p6_0
I0728 23:09:58.877038 16577 net.cpp:129] Top shape: 1 1024 8 9 (73728)
I0728 23:09:58.877041 16577 net.cpp:137] Memory required for data: 1820212440
I0728 23:09:58.877051 16577 layer_factory.hpp:77] Creating layer rpn_head_bbox_tower_p6_1
I0728 23:09:58.877059 16577 net.cpp:84] Creating Layer rpn_head_bbox_tower_p6_1
I0728 23:09:58.877066 16577 net.cpp:406] rpn_head_bbox_tower_p6_1 <- rpn_head_bbox_tower_p6_0
I0728 23:09:58.877075 16577 net.cpp:367] rpn_head_bbox_tower_p6_1 -> rpn_head_bbox_tower_p6_0 (in-place)
I0728 23:09:58.879076 16577 net.cpp:122] Setting up rpn_head_bbox_tower_p6_1
I0728 23:09:58.879093 16577 net.cpp:129] Top shape: 1 1024 8 9 (73728)
I0728 23:09:58.879096 16577 net.cpp:137] Memory required for data: 1820507352
I0728 23:09:58.879101 16577 layer_factory.hpp:77] Creating layer rpn_head_bbox_tower_p6_2
I0728 23:09:58.879110 16577 net.cpp:84] Creating Layer rpn_head_bbox_tower_p6_2
I0728 23:09:58.879115 16577 net.cpp:406] rpn_head_bbox_tower_p6_2 <- rpn_head_bbox_tower_p6_0
I0728 23:09:58.879122 16577 net.cpp:380] rpn_head_bbox_tower_p6_2 -> rpn_head_bbox_tower_p6_2
I0728 23:09:58.898339 16577 net.cpp:122] Setting up rpn_head_bbox_tower_p6_2
I0728 23:09:58.898366 16577 net.cpp:129] Top shape: 1 1024 8 9 (73728)
I0728 23:09:58.898370 16577 net.cpp:137] Memory required for data: 1820802264
I0728 23:09:58.898380 16577 layer_factory.hpp:77] Creating layer rpn_head_bbox_tower_p6_3
I0728 23:09:58.898391 16577 net.cpp:84] Creating Layer rpn_head_bbox_tower_p6_3
I0728 23:09:58.898398 16577 net.cpp:406] rpn_head_bbox_tower_p6_3 <- rpn_head_bbox_tower_p6_2
I0728 23:09:58.898404 16577 net.cpp:367] rpn_head_bbox_tower_p6_3 -> rpn_head_bbox_tower_p6_2 (in-place)
I0728 23:09:58.898924 16577 net.cpp:122] Setting up rpn_head_bbox_tower_p6_3
I0728 23:09:58.898937 16577 net.cpp:129] Top shape: 1 1024 8 9 (73728)
I0728 23:09:58.898941 16577 net.cpp:137] Memory required for data: 1821097176
I0728 23:09:58.898943 16577 layer_factory.hpp:77] Creating layer rpn_head_bbox_tower_p6_4
I0728 23:09:58.898954 16577 net.cpp:84] Creating Layer rpn_head_bbox_tower_p6_4
I0728 23:09:58.898958 16577 net.cpp:406] rpn_head_bbox_tower_p6_4 <- rpn_head_bbox_tower_p6_2
I0728 23:09:58.898963 16577 net.cpp:380] rpn_head_bbox_tower_p6_4 -> rpn_head_bbox_tower_p6_4
I0728 23:09:58.917867 16577 net.cpp:122] Setting up rpn_head_bbox_tower_p6_4
I0728 23:09:58.917896 16577 net.cpp:129] Top shape: 1 1024 8 9 (73728)
I0728 23:09:58.917901 16577 net.cpp:137] Memory required for data: 1821392088
I0728 23:09:58.917910 16577 layer_factory.hpp:77] Creating layer rpn_head_bbox_tower_p6_5
I0728 23:09:58.917919 16577 net.cpp:84] Creating Layer rpn_head_bbox_tower_p6_5
I0728 23:09:58.917927 16577 net.cpp:406] rpn_head_bbox_tower_p6_5 <- rpn_head_bbox_tower_p6_4
I0728 23:09:58.917933 16577 net.cpp:367] rpn_head_bbox_tower_p6_5 -> rpn_head_bbox_tower_p6_4 (in-place)
I0728 23:09:58.918454 16577 net.cpp:122] Setting up rpn_head_bbox_tower_p6_5
I0728 23:09:58.918467 16577 net.cpp:129] Top shape: 1 1024 8 9 (73728)
I0728 23:09:58.918471 16577 net.cpp:137] Memory required for data: 1821687000
I0728 23:09:58.918474 16577 layer_factory.hpp:77] Creating layer rpn_head_bbox_tower_p6_6
I0728 23:09:58.918484 16577 net.cpp:84] Creating Layer rpn_head_bbox_tower_p6_6
I0728 23:09:58.918488 16577 net.cpp:406] rpn_head_bbox_tower_p6_6 <- rpn_head_bbox_tower_p6_4
I0728 23:09:58.918493 16577 net.cpp:380] rpn_head_bbox_tower_p6_6 -> rpn_head_bbox_tower_p6_6
I0728 23:09:58.938932 16577 net.cpp:122] Setting up rpn_head_bbox_tower_p6_6
I0728 23:09:58.938964 16577 net.cpp:129] Top shape: 1 1024 8 9 (73728)
I0728 23:09:58.938968 16577 net.cpp:137] Memory required for data: 1821981912
I0728 23:09:58.938978 16577 layer_factory.hpp:77] Creating layer rpn_head_bbox_tower_p6_7
I0728 23:09:58.938987 16577 net.cpp:84] Creating Layer rpn_head_bbox_tower_p6_7
I0728 23:09:58.938994 16577 net.cpp:406] rpn_head_bbox_tower_p6_7 <- rpn_head_bbox_tower_p6_6
I0728 23:09:58.939002 16577 net.cpp:367] rpn_head_bbox_tower_p6_7 -> rpn_head_bbox_tower_p6_6 (in-place)
I0728 23:09:58.939544 16577 net.cpp:122] Setting up rpn_head_bbox_tower_p6_7
I0728 23:09:58.939558 16577 net.cpp:129] Top shape: 1 1024 8 9 (73728)
I0728 23:09:58.939560 16577 net.cpp:137] Memory required for data: 1822276824
I0728 23:09:58.939563 16577 layer_factory.hpp:77] Creating layer rpn_head_bbox_pred_p6
I0728 23:09:58.939572 16577 net.cpp:84] Creating Layer rpn_head_bbox_pred_p6
I0728 23:09:58.939576 16577 net.cpp:406] rpn_head_bbox_pred_p6 <- rpn_head_bbox_tower_p6_6
I0728 23:09:58.939582 16577 net.cpp:380] rpn_head_bbox_pred_p6 -> rpn_head_bbox_pred_p6
I0728 23:09:58.942013 16577 net.cpp:122] Setting up rpn_head_bbox_pred_p6
I0728 23:09:58.942026 16577 net.cpp:129] Top shape: 1 36 8 9 (2592)
I0728 23:09:58.942029 16577 net.cpp:137] Memory required for data: 1822287192
I0728 23:09:58.942035 16577 layer_factory.hpp:77] Creating layer rpn_head_cls_tower_p7_0
I0728 23:09:58.942044 16577 net.cpp:84] Creating Layer rpn_head_cls_tower_p7_0
I0728 23:09:58.942049 16577 net.cpp:406] rpn_head_cls_tower_p7_0 <- backbone_fpn_topblocks_p7_backbone_fpn_topblocks_p7_0_split_0
I0728 23:09:58.942054 16577 net.cpp:380] rpn_head_cls_tower_p7_0 -> rpn_head_cls_tower_p7_0
I0728 23:09:58.961098 16577 net.cpp:122] Setting up rpn_head_cls_tower_p7_0
I0728 23:09:58.961128 16577 net.cpp:129] Top shape: 1 1024 4 5 (20480)
I0728 23:09:58.961133 16577 net.cpp:137] Memory required for data: 1822369112
I0728 23:09:58.961143 16577 layer_factory.hpp:77] Creating layer rpn_head_cls_tower_p7_1
I0728 23:09:58.961150 16577 net.cpp:84] Creating Layer rpn_head_cls_tower_p7_1
I0728 23:09:58.961158 16577 net.cpp:406] rpn_head_cls_tower_p7_1 <- rpn_head_cls_tower_p7_0
I0728 23:09:58.961163 16577 net.cpp:367] rpn_head_cls_tower_p7_1 -> rpn_head_cls_tower_p7_0 (in-place)
I0728 23:09:58.961674 16577 net.cpp:122] Setting up rpn_head_cls_tower_p7_1
I0728 23:09:58.961686 16577 net.cpp:129] Top shape: 1 1024 4 5 (20480)
I0728 23:09:58.961689 16577 net.cpp:137] Memory required for data: 1822451032
I0728 23:09:58.961694 16577 layer_factory.hpp:77] Creating layer rpn_head_cls_tower_p7_2
I0728 23:09:58.961704 16577 net.cpp:84] Creating Layer rpn_head_cls_tower_p7_2
I0728 23:09:58.961707 16577 net.cpp:406] rpn_head_cls_tower_p7_2 <- rpn_head_cls_tower_p7_0
I0728 23:09:58.961714 16577 net.cpp:380] rpn_head_cls_tower_p7_2 -> rpn_head_cls_tower_p7_2
I0728 23:09:58.982120 16577 net.cpp:122] Setting up rpn_head_cls_tower_p7_2
I0728 23:09:58.982147 16577 net.cpp:129] Top shape: 1 1024 4 5 (20480)
I0728 23:09:58.982151 16577 net.cpp:137] Memory required for data: 1822532952
I0728 23:09:58.982162 16577 layer_factory.hpp:77] Creating layer rpn_head_cls_tower_p7_3
I0728 23:09:58.982169 16577 net.cpp:84] Creating Layer rpn_head_cls_tower_p7_3
I0728 23:09:58.982177 16577 net.cpp:406] rpn_head_cls_tower_p7_3 <- rpn_head_cls_tower_p7_2
I0728 23:09:58.982184 16577 net.cpp:367] rpn_head_cls_tower_p7_3 -> rpn_head_cls_tower_p7_2 (in-place)
I0728 23:09:58.982702 16577 net.cpp:122] Setting up rpn_head_cls_tower_p7_3
I0728 23:09:58.982714 16577 net.cpp:129] Top shape: 1 1024 4 5 (20480)
I0728 23:09:58.982717 16577 net.cpp:137] Memory required for data: 1822614872
I0728 23:09:58.982720 16577 layer_factory.hpp:77] Creating layer rpn_head_cls_tower_p7_4
I0728 23:09:58.982729 16577 net.cpp:84] Creating Layer rpn_head_cls_tower_p7_4
I0728 23:09:58.982733 16577 net.cpp:406] rpn_head_cls_tower_p7_4 <- rpn_head_cls_tower_p7_2
I0728 23:09:58.982739 16577 net.cpp:380] rpn_head_cls_tower_p7_4 -> rpn_head_cls_tower_p7_4
I0728 23:09:59.001858 16577 net.cpp:122] Setting up rpn_head_cls_tower_p7_4
I0728 23:09:59.001886 16577 net.cpp:129] Top shape: 1 1024 4 5 (20480)
I0728 23:09:59.001890 16577 net.cpp:137] Memory required for data: 1822696792
I0728 23:09:59.001899 16577 layer_factory.hpp:77] Creating layer rpn_head_cls_tower_p7_5
I0728 23:09:59.001907 16577 net.cpp:84] Creating Layer rpn_head_cls_tower_p7_5
I0728 23:09:59.001914 16577 net.cpp:406] rpn_head_cls_tower_p7_5 <- rpn_head_cls_tower_p7_4
I0728 23:09:59.001920 16577 net.cpp:367] rpn_head_cls_tower_p7_5 -> rpn_head_cls_tower_p7_4 (in-place)
I0728 23:09:59.002449 16577 net.cpp:122] Setting up rpn_head_cls_tower_p7_5
I0728 23:09:59.002461 16577 net.cpp:129] Top shape: 1 1024 4 5 (20480)
I0728 23:09:59.002465 16577 net.cpp:137] Memory required for data: 1822778712
I0728 23:09:59.002468 16577 layer_factory.hpp:77] Creating layer rpn_head_cls_tower_p7_6
I0728 23:09:59.002476 16577 net.cpp:84] Creating Layer rpn_head_cls_tower_p7_6
I0728 23:09:59.002481 16577 net.cpp:406] rpn_head_cls_tower_p7_6 <- rpn_head_cls_tower_p7_4
I0728 23:09:59.002486 16577 net.cpp:380] rpn_head_cls_tower_p7_6 -> rpn_head_cls_tower_p7_6
I0728 23:09:59.023052 16577 net.cpp:122] Setting up rpn_head_cls_tower_p7_6
I0728 23:09:59.023079 16577 net.cpp:129] Top shape: 1 1024 4 5 (20480)
I0728 23:09:59.023082 16577 net.cpp:137] Memory required for data: 1822860632
I0728 23:09:59.023093 16577 layer_factory.hpp:77] Creating layer rpn_head_cls_tower_p7_7
I0728 23:09:59.023100 16577 net.cpp:84] Creating Layer rpn_head_cls_tower_p7_7
I0728 23:09:59.023108 16577 net.cpp:406] rpn_head_cls_tower_p7_7 <- rpn_head_cls_tower_p7_6
I0728 23:09:59.023113 16577 net.cpp:367] rpn_head_cls_tower_p7_7 -> rpn_head_cls_tower_p7_6 (in-place)
I0728 23:09:59.023511 16577 net.cpp:122] Setting up rpn_head_cls_tower_p7_7
I0728 23:09:59.023523 16577 net.cpp:129] Top shape: 1 1024 4 5 (20480)
I0728 23:09:59.023526 16577 net.cpp:137] Memory required for data: 1822942552
I0728 23:09:59.023530 16577 layer_factory.hpp:77] Creating layer rpn_head_cls_logits_p7
I0728 23:09:59.023538 16577 net.cpp:84] Creating Layer rpn_head_cls_logits_p7
I0728 23:09:59.023542 16577 net.cpp:406] rpn_head_cls_logits_p7 <- rpn_head_cls_tower_p7_6
I0728 23:09:59.023550 16577 net.cpp:380] rpn_head_cls_logits_p7 -> rpn_head_cls_logits_p7
I0728 23:09:59.025640 16577 net.cpp:122] Setting up rpn_head_cls_logits_p7
I0728 23:09:59.025652 16577 net.cpp:129] Top shape: 1 9 4 5 (180)
I0728 23:09:59.025655 16577 net.cpp:137] Memory required for data: 1822943272
I0728 23:09:59.025662 16577 layer_factory.hpp:77] Creating layer rpn_head_bbox_tower_p7_0
I0728 23:09:59.025671 16577 net.cpp:84] Creating Layer rpn_head_bbox_tower_p7_0
I0728 23:09:59.025676 16577 net.cpp:406] rpn_head_bbox_tower_p7_0 <- backbone_fpn_topblocks_p7_backbone_fpn_topblocks_p7_0_split_1
I0728 23:09:59.025683 16577 net.cpp:380] rpn_head_bbox_tower_p7_0 -> rpn_head_bbox_tower_p7_0
I0728 23:09:59.044736 16577 net.cpp:122] Setting up rpn_head_bbox_tower_p7_0
I0728 23:09:59.044770 16577 net.cpp:129] Top shape: 1 1024 4 5 (20480)
I0728 23:09:59.044773 16577 net.cpp:137] Memory required for data: 1823025192
I0728 23:09:59.044783 16577 layer_factory.hpp:77] Creating layer rpn_head_bbox_tower_p7_1
I0728 23:09:59.044792 16577 net.cpp:84] Creating Layer rpn_head_bbox_tower_p7_1
I0728 23:09:59.044798 16577 net.cpp:406] rpn_head_bbox_tower_p7_1 <- rpn_head_bbox_tower_p7_0
I0728 23:09:59.044808 16577 net.cpp:367] rpn_head_bbox_tower_p7_1 -> rpn_head_bbox_tower_p7_0 (in-place)
I0728 23:09:59.045364 16577 net.cpp:122] Setting up rpn_head_bbox_tower_p7_1
I0728 23:09:59.045377 16577 net.cpp:129] Top shape: 1 1024 4 5 (20480)
I0728 23:09:59.045380 16577 net.cpp:137] Memory required for data: 1823107112
I0728 23:09:59.045383 16577 layer_factory.hpp:77] Creating layer rpn_head_bbox_tower_p7_2
I0728 23:09:59.045392 16577 net.cpp:84] Creating Layer rpn_head_bbox_tower_p7_2
I0728 23:09:59.045397 16577 net.cpp:406] rpn_head_bbox_tower_p7_2 <- rpn_head_bbox_tower_p7_0
I0728 23:09:59.045403 16577 net.cpp:380] rpn_head_bbox_tower_p7_2 -> rpn_head_bbox_tower_p7_2
I0728 23:09:59.065881 16577 net.cpp:122] Setting up rpn_head_bbox_tower_p7_2
I0728 23:09:59.065912 16577 net.cpp:129] Top shape: 1 1024 4 5 (20480)
I0728 23:09:59.065917 16577 net.cpp:137] Memory required for data: 1823189032
I0728 23:09:59.065927 16577 layer_factory.hpp:77] Creating layer rpn_head_bbox_tower_p7_3
I0728 23:09:59.065933 16577 net.cpp:84] Creating Layer rpn_head_bbox_tower_p7_3
I0728 23:09:59.065940 16577 net.cpp:406] rpn_head_bbox_tower_p7_3 <- rpn_head_bbox_tower_p7_2
I0728 23:09:59.065948 16577 net.cpp:367] rpn_head_bbox_tower_p7_3 -> rpn_head_bbox_tower_p7_2 (in-place)
I0728 23:09:59.066468 16577 net.cpp:122] Setting up rpn_head_bbox_tower_p7_3
I0728 23:09:59.066483 16577 net.cpp:129] Top shape: 1 1024 4 5 (20480)
I0728 23:09:59.066485 16577 net.cpp:137] Memory required for data: 1823270952
I0728 23:09:59.066488 16577 layer_factory.hpp:77] Creating layer rpn_head_bbox_tower_p7_4
I0728 23:09:59.066496 16577 net.cpp:84] Creating Layer rpn_head_bbox_tower_p7_4
I0728 23:09:59.066501 16577 net.cpp:406] rpn_head_bbox_tower_p7_4 <- rpn_head_bbox_tower_p7_2
I0728 23:09:59.066506 16577 net.cpp:380] rpn_head_bbox_tower_p7_4 -> rpn_head_bbox_tower_p7_4
I0728 23:09:59.085671 16577 net.cpp:122] Setting up rpn_head_bbox_tower_p7_4
I0728 23:09:59.085701 16577 net.cpp:129] Top shape: 1 1024 4 5 (20480)
I0728 23:09:59.085705 16577 net.cpp:137] Memory required for data: 1823352872
I0728 23:09:59.085716 16577 layer_factory.hpp:77] Creating layer rpn_head_bbox_tower_p7_5
I0728 23:09:59.085724 16577 net.cpp:84] Creating Layer rpn_head_bbox_tower_p7_5
I0728 23:09:59.085731 16577 net.cpp:406] rpn_head_bbox_tower_p7_5 <- rpn_head_bbox_tower_p7_4
I0728 23:09:59.085738 16577 net.cpp:367] rpn_head_bbox_tower_p7_5 -> rpn_head_bbox_tower_p7_4 (in-place)
I0728 23:09:59.086133 16577 net.cpp:122] Setting up rpn_head_bbox_tower_p7_5
I0728 23:09:59.086144 16577 net.cpp:129] Top shape: 1 1024 4 5 (20480)
I0728 23:09:59.086148 16577 net.cpp:137] Memory required for data: 1823434792
I0728 23:09:59.086150 16577 layer_factory.hpp:77] Creating layer rpn_head_bbox_tower_p7_6
I0728 23:09:59.086158 16577 net.cpp:84] Creating Layer rpn_head_bbox_tower_p7_6
I0728 23:09:59.086163 16577 net.cpp:406] rpn_head_bbox_tower_p7_6 <- rpn_head_bbox_tower_p7_4
I0728 23:09:59.086169 16577 net.cpp:380] rpn_head_bbox_tower_p7_6 -> rpn_head_bbox_tower_p7_6
I0728 23:09:59.105249 16577 net.cpp:122] Setting up rpn_head_bbox_tower_p7_6
I0728 23:09:59.105280 16577 net.cpp:129] Top shape: 1 1024 4 5 (20480)
I0728 23:09:59.105284 16577 net.cpp:137] Memory required for data: 1823516712
I0728 23:09:59.105293 16577 layer_factory.hpp:77] Creating layer rpn_head_bbox_tower_p7_7
I0728 23:09:59.105301 16577 net.cpp:84] Creating Layer rpn_head_bbox_tower_p7_7
I0728 23:09:59.105307 16577 net.cpp:406] rpn_head_bbox_tower_p7_7 <- rpn_head_bbox_tower_p7_6
I0728 23:09:59.105314 16577 net.cpp:367] rpn_head_bbox_tower_p7_7 -> rpn_head_bbox_tower_p7_6 (in-place)
I0728 23:09:59.107528 16577 net.cpp:122] Setting up rpn_head_bbox_tower_p7_7
I0728 23:09:59.107545 16577 net.cpp:129] Top shape: 1 1024 4 5 (20480)
I0728 23:09:59.107549 16577 net.cpp:137] Memory required for data: 1823598632
I0728 23:09:59.107553 16577 layer_factory.hpp:77] Creating layer rpn_head_bbox_pred_p7
I0728 23:09:59.107563 16577 net.cpp:84] Creating Layer rpn_head_bbox_pred_p7
I0728 23:09:59.107568 16577 net.cpp:406] rpn_head_bbox_pred_p7 <- rpn_head_bbox_tower_p7_6
I0728 23:09:59.107575 16577 net.cpp:380] rpn_head_bbox_pred_p7 -> rpn_head_bbox_pred_p7
I0728 23:09:59.109905 16577 net.cpp:122] Setting up rpn_head_bbox_pred_p7
I0728 23:09:59.109918 16577 net.cpp:129] Top shape: 1 36 4 5 (720)
I0728 23:09:59.109921 16577 net.cpp:137] Memory required for data: 1823601512
I0728 23:09:59.109930 16577 net.cpp:200] rpn_head_bbox_pred_p7 does not need backward computation.
I0728 23:09:59.109933 16577 net.cpp:200] rpn_head_bbox_tower_p7_7 does not need backward computation.
I0728 23:09:59.109936 16577 net.cpp:200] rpn_head_bbox_tower_p7_6 does not need backward computation.
I0728 23:09:59.109941 16577 net.cpp:200] rpn_head_bbox_tower_p7_5 does not need backward computation.
…
