…
                            feature[0].shape: torch.Size([1, 1024, 60, 72])    # P2 from backbone.fpn
                            feature[1].shape: torch.Size([1, 1024, 30, 36])    # P3 from backbone.fpn
                            feature[2].shape: torch.Size([1, 1024, 15, 18])    # P4 from backbone.fpn
                            feature[3].shape: torch.Size([1, 1024, 8, 9])      # P6 from backbone.fpn
                            feature[4].shape: torch.Size([1, 1024, 4, 5])      # P7 from backbone.fpn

            self.head: RetinaNetHead(
              (cls_tower): Sequential(
                (0): Conv2d(1024, 1024, kernel_size=(3, 3), stride=(1, 1), padding=(1, 1))
                (1): ReLU()
                (2): Conv2d(1024, 1024, kernel_size=(3, 3), stride=(1, 1), padding=(1, 1))
                (3): ReLU()
                (4): Conv2d(1024, 1024, kernel_size=(3, 3), stride=(1, 1), padding=(1, 1))
                (5): ReLU()
                (6): Conv2d(1024, 1024, kernel_size=(3, 3), stride=(1, 1), padding=(1, 1))
                (7): ReLU()
              )
              (bbox_tower): Sequential(
                (0): Conv2d(1024, 1024, kernel_size=(3, 3), stride=(1, 1), padding=(1, 1))
                (1): ReLU()
                (2): Conv2d(1024, 1024, kernel_size=(3, 3), stride=(1, 1), padding=(1, 1))
                (3): ReLU()
                (4): Conv2d(1024, 1024, kernel_size=(3, 3), stride=(1, 1), padding=(1, 1))
                (5): ReLU()
                (6): Conv2d(1024, 1024, kernel_size=(3, 3), stride=(1, 1), padding=(1, 1))
                (7): ReLU()
              )
              (cls_logits): Conv2d(1024, 9, kernel_size=(3, 3), stride=(1, 1), padding=(1, 1))
              (bbox_pred): Conv2d(1024, 36, kernel_size=(3, 3), stride=(1, 1), padding=(1, 1))
            )

            #-----------------------
            # 1. rpn head
            #-----------------------
            # self.head is instance of RetinaNetHead class
            # defined in maskrcnn_benchmark/modeling/rpn/retinanet/retinanet.py

            box_cls, box_regression = self.head(features)


            RetinaNetHead.forward(self, x): ========================================== BEGIN
…
