…
proposals, proposal_losses = self.rpn(images, features, targets) BEFORE


=========================================== RetinaNetModule.forward(self, images, features, targets=None): BEGIN
	Params:
		type(images.image_size): <class 'list'>
		type(images.tensors): <class 'torch.Tensor'>
		len(features)): 5
			feature[0].shape: torch.Size([1, 1024, 60, 72])
			feature[1].shape: torch.Size([1, 1024, 30, 36])
			feature[2].shape: torch.Size([1, 1024, 15, 18])
			feature[3].shape: torch.Size([1, 1024, 8, 9])
			feature[4].shape: torch.Size([1, 1024, 4, 5])
self.head: RetinaNetHead(
  (cls_tower): Sequential(
    (0): Conv2d(1024, 1024, kernel_size=(3, 3), stride=(1, 1), padding=(1, 1))
    (1): ReLU()
    (2): Conv2d(1024, 1024, kernel_size=(3, 3), stride=(1, 1), padding=(1, 1))
    (3): ReLU()
    (4): Conv2d(1024, 1024, kernel_size=(3, 3), stride=(1, 1), padding=(1, 1))
    (5): ReLU()
    (6): Conv2d(1024, 1024, kernel_size=(3, 3), stride=(1, 1), padding=(1, 1))
    (7): ReLU()
  )
  (bbox_tower): Sequential(
    (0): Conv2d(1024, 1024, kernel_size=(3, 3), stride=(1, 1), padding=(1, 1))
    (1): ReLU()
    (2): Conv2d(1024, 1024, kernel_size=(3, 3), stride=(1, 1), padding=(1, 1))
    (3): ReLU()
    (4): Conv2d(1024, 1024, kernel_size=(3, 3), stride=(1, 1), padding=(1, 1))
    (5): ReLU()
    (6): Conv2d(1024, 1024, kernel_size=(3, 3), stride=(1, 1), padding=(1, 1))
    (7): ReLU()
  )
  (cls_logits): Conv2d(1024, 9, kernel_size=(3, 3), stride=(1, 1), padding=(1, 1))
  (bbox_pred): Conv2d(1024, 36, kernel_size=(3, 3), stride=(1, 1), padding=(1, 1))
)
box_cls, box_regression = self.head(features)


=========================================== RetinaNetHead.forward(self, x): BEGIN
	Param:
		len(x)): 5 x is features returned from FPN
			x[0].shape: torch.Size([1, 1024, 60, 72])
			x[1].shape: torch.Size([1, 1024, 30, 36])
			x[2].shape: torch.Size([1, 1024, 15, 18])
			x[3].shape: torch.Size([1, 1024, 8, 9])
…
