…
DEBUG:root:	model.backbone.forward(images.tensors) DONE
DEBUG:root:proposals, proposal_losses = self.rpn(images, features, targets) BEFORE
DEBUG:root:

=========================================== RetinaNetModule.forward(self, images, features, targets=None): BEGIN
DEBUG:root:

=========================================== RetinaNetHead.forward(self, x): BEGIN
DEBUG:root:	Param:
DEBUG:root:		len(x): 5
DEBUG:root:		len(x[0]): 1
DEBUG:root:logits = []
DEBUG:root:bbox_reg = []
DEBUG:root:for feature in x:
DEBUG:root:feature.shape: torch.Size([1, 1024, 60, 72])
DEBUG:root:self.cls_tower: Sequential(
  (0): Conv2d(1024, 1024, kernel_size=(3, 3), stride=(1, 1), padding=(1, 1))
  (1): ReLU()
  (2): Conv2d(1024, 1024, kernel_size=(3, 3), stride=(1, 1), padding=(1, 1))
  (3): ReLU()
  (4): Conv2d(1024, 1024, kernel_size=(3, 3), stride=(1, 1), padding=(1, 1))
  (5): ReLU()
  (6): Conv2d(1024, 1024, kernel_size=(3, 3), stride=(1, 1), padding=(1, 1))
  (7): ReLU()
)
DEBUG:root:self.logits: Conv2d(1024, 9, kernel_size=(3, 3), stride=(1, 1), padding=(1, 1))
DEBUG:root:logits.append(self.cls_logits(self.cls_tower(feature)))

DEBUG:root:self.bbox_tower: Sequential(
  (0): Conv2d(1024, 1024, kernel_size=(3, 3), stride=(1, 1), padding=(1, 1))
  (1): ReLU()
  (2): Conv2d(1024, 1024, kernel_size=(3, 3), stride=(1, 1), padding=(1, 1))
  (3): ReLU()
  (4): Conv2d(1024, 1024, kernel_size=(3, 3), stride=(1, 1), padding=(1, 1))
  (5): ReLU()
  (6): Conv2d(1024, 1024, kernel_size=(3, 3), stride=(1, 1), padding=(1, 1))
  (7): ReLU()
)
DEBUG:root:self.bbox_pred: Conv2d(1024, 36, kernel_size=(3, 3), stride=(1, 1), padding=(1, 1))
DEBUG:root:bbox_reg.append(self.bbox_pred(self.bbox_tower(feature)))

DEBUG:root:feature.shape: torch.Size([1, 1024, 30, 36])
DEBUG:root:self.cls_tower: Sequential(
  (0): Conv2d(1024, 1024, kernel_size=(3, 3), stride=(1, 1), padding=(1, 1))
  (1): ReLU()
  (2): Conv2d(1024, 1024, kernel_size=(3, 3), stride=(1, 1), padding=(1, 1))
  (3): ReLU()
  (4): Conv2d(1024, 1024, kernel_size=(3, 3), stride=(1, 1), padding=(1, 1))
  (5): ReLU()
  (6): Conv2d(1024, 1024, kernel_size=(3, 3), stride=(1, 1), padding=(1, 1))
  (7): ReLU()
)
DEBUG:root:self.logits: Conv2d(1024, 9, kernel_size=(3, 3), stride=(1, 1), padding=(1, 1))
DEBUG:root:logits.append(self.cls_logits(self.cls_tower(feature)))

DEBUG:root:self.bbox_tower: Sequential(
  (0): Conv2d(1024, 1024, kernel_size=(3, 3), stride=(1, 1), padding=(1, 1))
  (1): ReLU()
  (2): Conv2d(1024, 1024, kernel_size=(3, 3), stride=(1, 1), padding=(1, 1))
  (3): ReLU()
  (4): Conv2d(1024, 1024, kernel_size=(3, 3), stride=(1, 1), padding=(1, 1))
  (5): ReLU()
  (6): Conv2d(1024, 1024, kernel_size=(3, 3), stride=(1, 1), padding=(1, 1))
  (7): ReLU()
)
DEBUG:root:self.bbox_pred: Conv2d(1024, 36, kernel_size=(3, 3), stride=(1, 1), padding=(1, 1))
DEBUG:root:bbox_reg.append(self.bbox_pred(self.bbox_tower(feature)))

DEBUG:root:feature.shape: torch.Size([1, 1024, 15, 18])
DEBUG:root:self.cls_tower: Sequential(
  (0): Conv2d(1024, 1024, kernel_size=(3, 3), stride=(1, 1), padding=(1, 1))
  (1): ReLU()
  (2): Conv2d(1024, 1024, kernel_size=(3, 3), stride=(1, 1), padding=(1, 1))
  (3): ReLU()
  (4): Conv2d(1024, 1024, kernel_size=(3, 3), stride=(1, 1), padding=(1, 1))
  (5): ReLU()
  (6): Conv2d(1024, 1024, kernel_size=(3, 3), stride=(1, 1), padding=(1, 1))
  (7): ReLU()
)
DEBUG:root:self.logits: Conv2d(1024, 9, kernel_size=(3, 3), stride=(1, 1), padding=(1, 1))
DEBUG:root:logits.append(self.cls_logits(self.cls_tower(feature)))

DEBUG:root:self.bbox_tower: Sequential(
  (0): Conv2d(1024, 1024, kernel_size=(3, 3), stride=(1, 1), padding=(1, 1))
  (1): ReLU()
  (2): Conv2d(1024, 1024, kernel_size=(3, 3), stride=(1, 1), padding=(1, 1))
  (3): ReLU()
  (4): Conv2d(1024, 1024, kernel_size=(3, 3), stride=(1, 1), padding=(1, 1))
  (5): ReLU()
  (6): Conv2d(1024, 1024, kernel_size=(3, 3), stride=(1, 1), padding=(1, 1))
  (7): ReLU()
)
DEBUG:root:self.bbox_pred: Conv2d(1024, 36, kernel_size=(3, 3), stride=(1, 1), padding=(1, 1))
DEBUG:root:bbox_reg.append(self.bbox_pred(self.bbox_tower(feature)))

DEBUG:root:feature.shape: torch.Size([1, 1024, 8, 9])
DEBUG:root:self.cls_tower: Sequential(
  (0): Conv2d(1024, 1024, kernel_size=(3, 3), stride=(1, 1), padding=(1, 1))
  (1): ReLU()
  (2): Conv2d(1024, 1024, kernel_size=(3, 3), stride=(1, 1), padding=(1, 1))
  (3): ReLU()
  (4): Conv2d(1024, 1024, kernel_size=(3, 3), stride=(1, 1), padding=(1, 1))
  (5): ReLU()
  (6): Conv2d(1024, 1024, kernel_size=(3, 3), stride=(1, 1), padding=(1, 1))
  (7): ReLU()
)
DEBUG:root:self.logits: Conv2d(1024, 9, kernel_size=(3, 3), stride=(1, 1), padding=(1, 1))
DEBUG:root:logits.append(self.cls_logits(self.cls_tower(feature)))

DEBUG:root:self.bbox_tower: Sequential(
  (0): Conv2d(1024, 1024, kernel_size=(3, 3), stride=(1, 1), padding=(1, 1))
  (1): ReLU()
  (2): Conv2d(1024, 1024, kernel_size=(3, 3), stride=(1, 1), padding=(1, 1))
  (3): ReLU()
  (4): Conv2d(1024, 1024, kernel_size=(3, 3), stride=(1, 1), padding=(1, 1))
  (5): ReLU()
  (6): Conv2d(1024, 1024, kernel_size=(3, 3), stride=(1, 1), padding=(1, 1))
  (7): ReLU()
)
DEBUG:root:self.bbox_pred: Conv2d(1024, 36, kernel_size=(3, 3), stride=(1, 1), padding=(1, 1))
DEBUG:root:bbox_reg.append(self.bbox_pred(self.bbox_tower(feature)))

DEBUG:root:feature.shape: torch.Size([1, 1024, 4, 5])
DEBUG:root:self.cls_tower: Sequential(
  (0): Conv2d(1024, 1024, kernel_size=(3, 3), stride=(1, 1), padding=(1, 1))
  (1): ReLU()
  (2): Conv2d(1024, 1024, kernel_size=(3, 3), stride=(1, 1), padding=(1, 1))
  (3): ReLU()
  (4): Conv2d(1024, 1024, kernel_size=(3, 3), stride=(1, 1), padding=(1, 1))
  (5): ReLU()
  (6): Conv2d(1024, 1024, kernel_size=(3, 3), stride=(1, 1), padding=(1, 1))
  (7): ReLU()
)
DEBUG:root:self.logits: Conv2d(1024, 9, kernel_size=(3, 3), stride=(1, 1), padding=(1, 1))
DEBUG:root:logits.append(self.cls_logits(self.cls_tower(feature)))

DEBUG:root:self.bbox_tower: Sequential(
  (0): Conv2d(1024, 1024, kernel_size=(3, 3), stride=(1, 1), padding=(1, 1))
  (1): ReLU()
  (2): Conv2d(1024, 1024, kernel_size=(3, 3), stride=(1, 1), padding=(1, 1))
  (3): ReLU()
  (4): Conv2d(1024, 1024, kernel_size=(3, 3), stride=(1, 1), padding=(1, 1))
  (5): ReLU()
  (6): Conv2d(1024, 1024, kernel_size=(3, 3), stride=(1, 1), padding=(1, 1))
  (7): ReLU()
)
DEBUG:root:self.bbox_pred: Conv2d(1024, 36, kernel_size=(3, 3), stride=(1, 1), padding=(1, 1))
DEBUG:root:bbox_reg.append(self.bbox_pred(self.bbox_tower(feature)))

DEBUG:root:return logits, bbox_reg
DEBUG:root:

=========================================== RetinaNetHead.forward(self, x): END
DEBUG:root:if self.training == False
…
