…
    stride = first_stride

    for _ in range(block_count):  {
      {
      # --------------
      # blocks.append iteration 1/3
      # --------------
      blocks.append(
          transformation_module(
              in_channels=64,
              bottleneck_channels=64,
              out_channels=256,
              num_groups=1,
              stride_in_1x1=True,
              stride=1,
              dilation=1,
              dcn_config={'stage_with_dcn': False, 'with_modulated_dcn': False, 'deformable_groups': 1}
         )
      )

      blocks[-1]:BottleneckWithFixedBatchNorm(
  (downsample): Sequential(
    (0): Conv2d(64, 256, kernel_size=(1, 1), stride=(1, 1), bias=False)
    (1): FrozenBatchNorm2d()
  )
  (conv1): Conv2d(64, 64, kernel_size=(1, 1), stride=(1, 1), bias=False)
  (bn1): FrozenBatchNorm2d()
  (conv2): Conv2d(64, 64, kernel_size=(3, 3), stride=(1, 1), padding=(1, 1), bias=False)
  (bn2): FrozenBatchNorm2d()
  (conv3): Conv2d(64, 256, kernel_size=(1, 1), stride=(1, 1), bias=False)
  (bn3): FrozenBatchNorm2d()
)
      stride = 1
      in_channels = out_channels

      }
      {
      # --------------
      # blocks.append iteration 2/3
      # --------------
      blocks.append(
          transformation_module(
              in_channels=256,
              bottleneck_channels=64,
              out_channels=256,
              num_groups=1,
              stride_in_1x1=True,
              stride=1,
              dilation=1,
              dcn_config={'stage_with_dcn': False, 'with_modulated_dcn': False, 'deformable_groups': 1}
         )
      )

      blocks[-1]:BottleneckWithFixedBatchNorm(
  (conv1): Conv2d(256, 64, kernel_size=(1, 1), stride=(1, 1), bias=False)
  (bn1): FrozenBatchNorm2d()
  (conv2): Conv2d(64, 64, kernel_size=(3, 3), stride=(1, 1), padding=(1, 1), bias=False)
  (bn2): FrozenBatchNorm2d()
  (conv3): Conv2d(64, 256, kernel_size=(1, 1), stride=(1, 1), bias=False)
  (bn3): FrozenBatchNorm2d()
)
      stride = 1
      in_channels = out_channels

      }
      {
      # --------------
      # blocks.append iteration 3/3
      # --------------
      blocks.append(
          transformation_module(
              in_channels=256,
              bottleneck_channels=64,
              out_channels=256,
              num_groups=1,
              stride_in_1x1=True,
              stride=1,
              dilation=1,
              dcn_config={'stage_with_dcn': False, 'with_modulated_dcn': False, 'deformable_groups': 1}
         )
      )

      blocks[-1]:BottleneckWithFixedBatchNorm(
  (conv1): Conv2d(256, 64, kernel_size=(1, 1), stride=(1, 1), bias=False)
  (bn1): FrozenBatchNorm2d()
  (conv2): Conv2d(64, 64, kernel_size=(3, 3), stride=(1, 1), padding=(1, 1), bias=False)
  (bn2): FrozenBatchNorm2d()
  (conv3): Conv2d(64, 256, kernel_size=(1, 1), stride=(1, 1), bias=False)
  (bn3): FrozenBatchNorm2d()
)
      stride = 1
      in_channels = out_channels

      }
    }// END for _ in range(block_count):

    return nn.Sequential(*blocks)


  } // END _make_stage()
        }
      module = _make_stage(
        transformation_module = <class 'maskrcnn_benchmark.modeling.backbone.resnet.BottleneckWithFixedBatchNorm'>,
…

    for _ in range(block_count):  {
      {
      # --------------
      # blocks.append iteration 1/4
      # --------------
      blocks.append(
          transformation_module(
              in_channels=256,
              bottleneck_channels=128,
              out_channels=512,
              num_groups=1,
              stride_in_1x1=True,
              stride=2,
              dilation=1,
              dcn_config={'stage_with_dcn': False, 'with_modulated_dcn': False, 'deformable_groups': 1}
         )
      )

      blocks[-1]:BottleneckWithFixedBatchNorm(
  (downsample): Sequential(
    (0): Conv2d(256, 512, kernel_size=(1, 1), stride=(2, 2), bias=False)
    (1): FrozenBatchNorm2d()
  )
  (conv1): Conv2d(256, 128, kernel_size=(1, 1), stride=(2, 2), bias=False)
  (bn1): FrozenBatchNorm2d()
  (conv2): Conv2d(128, 128, kernel_size=(3, 3), stride=(1, 1), padding=(1, 1), bias=False)
  (bn2): FrozenBatchNorm2d()
  (conv3): Conv2d(128, 512, kernel_size=(1, 1), stride=(1, 1), bias=False)
  (bn3): FrozenBatchNorm2d()
)
      stride = 1
      in_channels = out_channels

      }
      {
      # --------------
      # blocks.append iteration 2/4
      # --------------
      blocks.append(
          transformation_module(
              in_channels=512,
              bottleneck_channels=128,
              out_channels=512,
              num_groups=1,
              stride_in_1x1=True,
              stride=1,
              dilation=1,
              dcn_config={'stage_with_dcn': False, 'with_modulated_dcn': False, 'deformable_groups': 1}
         )
      )

      blocks[-1]:BottleneckWithFixedBatchNorm(
  (conv1): Conv2d(512, 128, kernel_size=(1, 1), stride=(1, 1), bias=False)
  (bn1): FrozenBatchNorm2d()
  (conv2): Conv2d(128, 128, kernel_size=(3, 3), stride=(1, 1), padding=(1, 1), bias=False)
  (bn2): FrozenBatchNorm2d()
  (conv3): Conv2d(128, 512, kernel_size=(1, 1), stride=(1, 1), bias=False)
  (bn3): FrozenBatchNorm2d()
)
      stride = 1
      in_channels = out_channels

      }
      {
      # --------------
      # blocks.append iteration 3/4
      # --------------
      blocks.append(
          transformation_module(
              in_channels=512,
              bottleneck_channels=128,
              out_channels=512,
              num_groups=1,
              stride_in_1x1=True,
              stride=1,
              dilation=1,
              dcn_config={'stage_with_dcn': False, 'with_modulated_dcn': False, 'deformable_groups': 1}
         )
      )

      blocks[-1]:BottleneckWithFixedBatchNorm(
  (conv1): Conv2d(512, 128, kernel_size=(1, 1), stride=(1, 1), bias=False)
  (bn1): FrozenBatchNorm2d()
  (conv2): Conv2d(128, 128, kernel_size=(3, 3), stride=(1, 1), padding=(1, 1), bias=False)
  (bn2): FrozenBatchNorm2d()
  (conv3): Conv2d(128, 512, kernel_size=(1, 1), stride=(1, 1), bias=False)
  (bn3): FrozenBatchNorm2d()
)
      stride = 1
      in_channels = out_channels

      }
      {
      # --------------
      # blocks.append iteration 4/4
      # --------------
      blocks.append(
          transformation_module(
              in_channels=512,
              bottleneck_channels=128,
              out_channels=512,
              num_groups=1,
              stride_in_1x1=True,
              stride=1,
              dilation=1,
              dcn_config={'stage_with_dcn': False, 'with_modulated_dcn': False, 'deformable_groups': 1}
         )
      )

      blocks[-1]:BottleneckWithFixedBatchNorm(
  (conv1): Conv2d(512, 128, kernel_size=(1, 1), stride=(1, 1), bias=False)
  (bn1): FrozenBatchNorm2d()
  (conv2): Conv2d(128, 128, kernel_size=(3, 3), stride=(1, 1), padding=(1, 1), bias=False)
  (bn2): FrozenBatchNorm2d()
  (conv3): Conv2d(128, 512, kernel_size=(1, 1), stride=(1, 1), bias=False)
  (bn3): FrozenBatchNorm2d()
)
      stride = 1
      in_channels = out_channels

      }
    }// END for _ in range(block_count):

    return nn.Sequential(*blocks)


  } // END _make_stage()
        }
      module = _make_stage(
        transformation_module = <class 'maskrcnn_benchmark.modeling.backbone.resnet.BottleneckWithFixedBatchNorm'>,
…
    for _ in range(block_count):  {
      {
      # --------------
      # blocks.append iteration 1/6
      # --------------
      blocks.append(
          transformation_module(
              in_channels=512,
              bottleneck_channels=256,
              out_channels=1024,
              num_groups=1,
              stride_in_1x1=True,
              stride=2,
              dilation=1,
              dcn_config={'stage_with_dcn': False, 'with_modulated_dcn': False, 'deformable_groups': 1}
         )
      )

      blocks[-1]:BottleneckWithFixedBatchNorm(
  (downsample): Sequential(
    (0): Conv2d(512, 1024, kernel_size=(1, 1), stride=(2, 2), bias=False)
    (1): FrozenBatchNorm2d()
  )
  (conv1): Conv2d(512, 256, kernel_size=(1, 1), stride=(2, 2), bias=False)
  (bn1): FrozenBatchNorm2d()
  (conv2): Conv2d(256, 256, kernel_size=(3, 3), stride=(1, 1), padding=(1, 1), bias=False)
  (bn2): FrozenBatchNorm2d()
  (conv3): Conv2d(256, 1024, kernel_size=(1, 1), stride=(1, 1), bias=False)
  (bn3): FrozenBatchNorm2d()
)
      stride = 1
      in_channels = out_channels

      }
      {
      # --------------
      # blocks.append iteration 2/6
      # --------------
      blocks.append(
          transformation_module(
              in_channels=1024,
              bottleneck_channels=256,
              out_channels=1024,
              num_groups=1,
              stride_in_1x1=True,
              stride=1,
              dilation=1,
              dcn_config={'stage_with_dcn': False, 'with_modulated_dcn': False, 'deformable_groups': 1}
         )
      )

      blocks[-1]:BottleneckWithFixedBatchNorm(
  (conv1): Conv2d(1024, 256, kernel_size=(1, 1), stride=(1, 1), bias=False)
  (bn1): FrozenBatchNorm2d()
  (conv2): Conv2d(256, 256, kernel_size=(3, 3), stride=(1, 1), padding=(1, 1), bias=False)
  (bn2): FrozenBatchNorm2d()
  (conv3): Conv2d(256, 1024, kernel_size=(1, 1), stride=(1, 1), bias=False)
  (bn3): FrozenBatchNorm2d()
)
      stride = 1
      in_channels = out_channels

      }
      {
      # --------------
      # blocks.append iteration 3/6
      # --------------
      blocks.append(
          transformation_module(
              in_channels=1024,
              bottleneck_channels=256,
              out_channels=1024,
              num_groups=1,
              stride_in_1x1=True,
              stride=1,
              dilation=1,
              dcn_config={'stage_with_dcn': False, 'with_modulated_dcn': False, 'deformable_groups': 1}
         )
      )

      blocks[-1]:BottleneckWithFixedBatchNorm(
  (conv1): Conv2d(1024, 256, kernel_size=(1, 1), stride=(1, 1), bias=False)
  (bn1): FrozenBatchNorm2d()
  (conv2): Conv2d(256, 256, kernel_size=(3, 3), stride=(1, 1), padding=(1, 1), bias=False)
  (bn2): FrozenBatchNorm2d()
  (conv3): Conv2d(256, 1024, kernel_size=(1, 1), stride=(1, 1), bias=False)
  (bn3): FrozenBatchNorm2d()
)
      stride = 1
      in_channels = out_channels

      }
      {
      # --------------
      # blocks.append iteration 4/6
      # --------------
      blocks.append(
          transformation_module(
              in_channels=1024,
              bottleneck_channels=256,
              out_channels=1024,
              num_groups=1,
              stride_in_1x1=True,
              stride=1,
              dilation=1,
              dcn_config={'stage_with_dcn': False, 'with_modulated_dcn': False, 'deformable_groups': 1}
         )
      )

      blocks[-1]:BottleneckWithFixedBatchNorm(
  (conv1): Conv2d(1024, 256, kernel_size=(1, 1), stride=(1, 1), bias=False)
  (bn1): FrozenBatchNorm2d()
  (conv2): Conv2d(256, 256, kernel_size=(3, 3), stride=(1, 1), padding=(1, 1), bias=False)
  (bn2): FrozenBatchNorm2d()
  (conv3): Conv2d(256, 1024, kernel_size=(1, 1), stride=(1, 1), bias=False)
  (bn3): FrozenBatchNorm2d()
)
      stride = 1
      in_channels = out_channels

      }
      {
      # --------------
      # blocks.append iteration 5/6
      # --------------
      blocks.append(
          transformation_module(
              in_channels=1024,
              bottleneck_channels=256,
              out_channels=1024,
              num_groups=1,
              stride_in_1x1=True,
              stride=1,
              dilation=1,
              dcn_config={'stage_with_dcn': False, 'with_modulated_dcn': False, 'deformable_groups': 1}
         )
      )

      blocks[-1]:BottleneckWithFixedBatchNorm(
  (conv1): Conv2d(1024, 256, kernel_size=(1, 1), stride=(1, 1), bias=False)
  (bn1): FrozenBatchNorm2d()
  (conv2): Conv2d(256, 256, kernel_size=(3, 3), stride=(1, 1), padding=(1, 1), bias=False)
  (bn2): FrozenBatchNorm2d()
  (conv3): Conv2d(256, 1024, kernel_size=(1, 1), stride=(1, 1), bias=False)
  (bn3): FrozenBatchNorm2d()
)
      stride = 1
      in_channels = out_channels

      }
      {
      # --------------
      # blocks.append iteration 6/6
      # --------------
      blocks.append(
          transformation_module(
              in_channels=1024,
              bottleneck_channels=256,
              out_channels=1024,
              num_groups=1,
              stride_in_1x1=True,
              stride=1,
              dilation=1,
              dcn_config={'stage_with_dcn': False, 'with_modulated_dcn': False, 'deformable_groups': 1}
         )
      )

      blocks[-1]:BottleneckWithFixedBatchNorm(
  (conv1): Conv2d(1024, 256, kernel_size=(1, 1), stride=(1, 1), bias=False)
  (bn1): FrozenBatchNorm2d()
  (conv2): Conv2d(256, 256, kernel_size=(3, 3), stride=(1, 1), padding=(1, 1), bias=False)
  (bn2): FrozenBatchNorm2d()
  (conv3): Conv2d(256, 1024, kernel_size=(1, 1), stride=(1, 1), bias=False)
  (bn3): FrozenBatchNorm2d()
)
      stride = 1
      in_channels = out_channels

      }
    }// END for _ in range(block_count):

    return nn.Sequential(*blocks)


  } // END _make_stage()
        }
      module = _make_stage(
        transformation_module = <class 'maskrcnn_benchmark.modeling.backbone.resnet.BottleneckWithFixedBatchNorm'>,
…
    for _ in range(block_count):  {
      {
      # --------------
      # blocks.append iteration 1/3
      # --------------
      blocks.append(
          transformation_module(
              in_channels=1024,
              bottleneck_channels=512,
              out_channels=2048,
              num_groups=1,
              stride_in_1x1=True,
              stride=2,
              dilation=1,
              dcn_config={'stage_with_dcn': False, 'with_modulated_dcn': False, 'deformable_groups': 1}
         )
      )

      blocks[-1]:BottleneckWithFixedBatchNorm(
  (downsample): Sequential(
    (0): Conv2d(1024, 2048, kernel_size=(1, 1), stride=(2, 2), bias=False)
    (1): FrozenBatchNorm2d()
  )
  (conv1): Conv2d(1024, 512, kernel_size=(1, 1), stride=(2, 2), bias=False)
  (bn1): FrozenBatchNorm2d()
  (conv2): Conv2d(512, 512, kernel_size=(3, 3), stride=(1, 1), padding=(1, 1), bias=False)
  (bn2): FrozenBatchNorm2d()
  (conv3): Conv2d(512, 2048, kernel_size=(1, 1), stride=(1, 1), bias=False)
  (bn3): FrozenBatchNorm2d()
)
      stride = 1
      in_channels = out_channels

      }
      {
      # --------------
      # blocks.append iteration 2/3
      # --------------
      blocks.append(
          transformation_module(
              in_channels=2048,
              bottleneck_channels=512,
              out_channels=2048,
              num_groups=1,
              stride_in_1x1=True,
              stride=1,
              dilation=1,
              dcn_config={'stage_with_dcn': False, 'with_modulated_dcn': False, 'deformable_groups': 1}
         )
      )

      blocks[-1]:BottleneckWithFixedBatchNorm(
  (conv1): Conv2d(2048, 512, kernel_size=(1, 1), stride=(1, 1), bias=False)
  (bn1): FrozenBatchNorm2d()
  (conv2): Conv2d(512, 512, kernel_size=(3, 3), stride=(1, 1), padding=(1, 1), bias=False)
  (bn2): FrozenBatchNorm2d()
  (conv3): Conv2d(512, 2048, kernel_size=(1, 1), stride=(1, 1), bias=False)
  (bn3): FrozenBatchNorm2d()
)
      stride = 1
      in_channels = out_channels

      }
      {
      # --------------
      # blocks.append iteration 3/3
      # --------------
      blocks.append(
          transformation_module(
              in_channels=2048,
              bottleneck_channels=512,
              out_channels=2048,
              num_groups=1,
              stride_in_1x1=True,
              stride=1,
              dilation=1,
              dcn_config={'stage_with_dcn': False, 'with_modulated_dcn': False, 'deformable_groups': 1}
         )
      )

      blocks[-1]:BottleneckWithFixedBatchNorm(
  (conv1): Conv2d(2048, 512, kernel_size=(1, 1), stride=(1, 1), bias=False)
  (bn1): FrozenBatchNorm2d()
  (conv2): Conv2d(512, 512, kernel_size=(3, 3), stride=(1, 1), padding=(1, 1), bias=False)
  (bn2): FrozenBatchNorm2d()
  (conv3): Conv2d(512, 2048, kernel_size=(1, 1), stride=(1, 1), bias=False)
  (bn3): FrozenBatchNorm2d()
)
      stride = 1
      in_channels = out_channels

      }
    }// END for _ in range(block_count):

    return nn.Sequential(*blocks)


  } // END _make_stage()
        }
      module = _make_stage(
        transformation_module = <class 'maskrcnn_benchmark.modeling.backbone.resnet.BottleneckWithFixedBatchNorm'>,
…
    // self.fpn_inner2: Conv2d(512, 1024, kernel_size=(1, 1), stride=(1, 1))
    // self.fpn_inner3: Conv2d(1024, 1024, kernel_size=(1, 1), stride=(1, 1))
    // self.fpn_inner4: Conv2d(2048, 1024, kernel_size=(1, 1), stride=(1, 1))

  // self.layer_blocks: ['fpn_layer2', 'fpn_layer3', 'fpn_layer4']
    // self.fpn_layer2: Conv2d(1024, 1024, kernel_size=(3, 3), stride=(1, 1), padding=(1, 1))
    // self.fpn_layer3: Conv2d(1024, 1024, kernel_size=(3, 3), stride=(1, 1), padding=(1, 1))
    // self.fpn_layer4: Conv2d(1024, 1024, kernel_size=(3, 3), stride=(1, 1), padding=(1, 1))

  // self.top_blocks: LastLevelP6P7(
  (p6): Conv2d(2048, 1024, kernel_size=(3, 3), stride=(2, 2), padding=(1, 1))
  (p7): Conv2d(1024, 1024, kernel_size=(3, 3), stride=(2, 2), padding=(1, 1))
)

} // END FPN.__init__



    fpn = fpn_module.FPN(

        in_channels_list = [0, 512, 1024, 2048],

        out_channels = 1024,

        conv_block=conv_with_kaiming_uniform( cfg.MODEL.FPN.USE_GN =False, cfg.MODEL.FPN.USE_RELU =False ),

        top_blocks=fpn_module.LastLevelP6P7(in_channels_p6p7=2048, out_channels=1024,) // RETURNED

      // fpn: FPN(
  (fpn_inner2): Conv2d(512, 1024, kernel_size=(1, 1), stride=(1, 1))
  (fpn_layer2): Conv2d(1024, 1024, kernel_size=(3, 3), stride=(1, 1), padding=(1, 1))
  (fpn_inner3): Conv2d(1024, 1024, kernel_size=(1, 1), stride=(1, 1))
  (fpn_layer3): Conv2d(1024, 1024, kernel_size=(3, 3), stride=(1, 1), padding=(1, 1))
  (fpn_inner4): Conv2d(2048, 1024, kernel_size=(1, 1), stride=(1, 1))
  (fpn_layer4): Conv2d(1024, 1024, kernel_size=(3, 3), stride=(1, 1), padding=(1, 1))
  (top_blocks): LastLevelP6P7(
    (p6): Conv2d(2048, 1024, kernel_size=(3, 3), stride=(2, 2), padding=(1, 1))
    (p7): Conv2d(1024, 1024, kernel_size=(3, 3), stride=(2, 2), padding=(1, 1))
  )
)


    model = nn.Sequential(OrderedDict([("body", body), ("fpn", fpn)]))

    model.out_channels = out_channels
      // model.out_channels: 1024

    return model

  } // END build_resnet_fpn_p3p7_backbone(cfg)


  } // END build_backbone(cfg)

  }
  self.backbone = build_backbone(cfg) // RETURNED


  } // END of 1.1 

  # ===========================================
…
        // defined in /home/kimkk/work/lomin/maskrcnn_benchmark/modeling/rpn/retinanet/retinanet.py

        // Params:
          // cfg:
          //in_channles: 1024

        num_classes = cfg.MODEL.RETINANET.NUM_CLASSES - 1
        // num_classes: 1
        // cfg.MODEL.RETINANET.ASPECT_RATIOS: (0.5, 1.0, 2.0)
        // cfg.MODEL.RETINANET.SCALES_PER_OCTAVE: 3
        num_anchors = len(cfg.MODEL.RETINANET.ASPECT_RATIOS) \
                        * cfg.MODEL.RETINANET.SCALES_PER_OCTAVE
        // num_anchors: 9


} // END RetinaNetHead._init__(cfg, in_channels)
  }
  head = RetinaNetHead(cfg, in_channels=1024) // RETURNED
  // head: RetinaNetHead(
  (cls_tower): Sequential(
    (0): Conv2d(1024, 1024, kernel_size=(3, 3), stride=(1, 1), padding=(1, 1))
    (1): ReLU()
    (2): Conv2d(1024, 1024, kernel_size=(3, 3), stride=(1, 1), padding=(1, 1))
    (3): ReLU()
    (4): Conv2d(1024, 1024, kernel_size=(3, 3), stride=(1, 1), padding=(1, 1))
    (5): ReLU()
    (6): Conv2d(1024, 1024, kernel_size=(3, 3), stride=(1, 1), padding=(1, 1))
    (7): ReLU()
  )
  (bbox_tower): Sequential(
    (0): Conv2d(1024, 1024, kernel_size=(3, 3), stride=(1, 1), padding=(1, 1))
    (1): ReLU()
    (2): Conv2d(1024, 1024, kernel_size=(3, 3), stride=(1, 1), padding=(1, 1))
    (3): ReLU()
    (4): Conv2d(1024, 1024, kernel_size=(3, 3), stride=(1, 1), padding=(1, 1))
    (5): ReLU()
    (6): Conv2d(1024, 1024, kernel_size=(3, 3), stride=(1, 1), padding=(1, 1))
    (7): ReLU()
  )
  (cls_logits): Conv2d(1024, 9, kernel_size=(3, 3), stride=(1, 1), padding=(1, 1))
  (bbox_pred): Conv2d(1024, 36, kernel_size=(3, 3), stride=(1, 1), padding=(1, 1))
)
  #============================
  # 1.2.3 RPN box_coder build
  #============================
  box_coder = BoxCoder(weights=(10., 10., 5., 5.)) // CALL
  {
    BoxCoder.__init__(self, weights, bbox_xfrom_clip)__ { // BEGIN
      // defined in /home/kimkk/work/lomin/maskrcnn_benchmark/modeling/box_coder.py
      // Params:
        weights: (10.0, 10.0, 5.0, 5.0)
…
} // END make_retinanet_postprocessor()
  }
  box_selector_test = make_retinanet_postprocessor(cfg, box_coder) // RETURNED
  // box_selector_test: RetinaNetPostProcessor()
  self.anchor_generator = anchor_generator
  self.head = head
  self.box_selector_test = box_selector_test


} // RetinaNetModule.__init__(self, cfg, in_channels) END
  } // END build_retinanet(cfg, in_channels)
  self.rpn = build_rpn(cfg, self.backbone.out_channels) // RETURNED


  // self.rpn: RetinaNetModule(
  (anchor_generator): AnchorGenerator(
    (cell_anchors): BufferList()
  )
  (head): RetinaNetHead(
    (cls_tower): Sequential(
      (0): Conv2d(1024, 1024, kernel_size=(3, 3), stride=(1, 1), padding=(1, 1))
      (1): ReLU()
      (2): Conv2d(1024, 1024, kernel_size=(3, 3), stride=(1, 1), padding=(1, 1))
      (3): ReLU()
      (4): Conv2d(1024, 1024, kernel_size=(3, 3), stride=(1, 1), padding=(1, 1))
      (5): ReLU()
      (6): Conv2d(1024, 1024, kernel_size=(3, 3), stride=(1, 1), padding=(1, 1))
      (7): ReLU()
    )
    (bbox_tower): Sequential(
      (0): Conv2d(1024, 1024, kernel_size=(3, 3), stride=(1, 1), padding=(1, 1))
      (1): ReLU()
      (2): Conv2d(1024, 1024, kernel_size=(3, 3), stride=(1, 1), padding=(1, 1))
      (3): ReLU()
      (4): Conv2d(1024, 1024, kernel_size=(3, 3), stride=(1, 1), padding=(1, 1))
      (5): ReLU()
      (6): Conv2d(1024, 1024, kernel_size=(3, 3), stride=(1, 1), padding=(1, 1))
      (7): ReLU()
    )
    (cls_logits): Conv2d(1024, 9, kernel_size=(3, 3), stride=(1, 1), padding=(1, 1))
    (bbox_pred): Conv2d(1024, 36, kernel_size=(3, 3), stride=(1, 1), padding=(1, 1))
  )
  (box_selector_test): RetinaNetPostProcessor()
)

  } // END of 1.2

} // END GeneralizedRCNN.__init__(self, cfg)
  }

  self.model = build_detection_model(self.cfg) // RETURNED
  // self.model: GeneralizedRCNN(
  (backbone): Sequential(
    (body): ResNet(
      (stem): StemWithFixedBatchNorm(
        (conv1): Conv2d(3, 64, kernel_size=(7, 7), stride=(2, 2), padding=(3, 3), bias=False)
        (bn1): FrozenBatchNorm2d()
      )
      (layer1): Sequential(
        (0): BottleneckWithFixedBatchNorm(
          (downsample): Sequential(
            (0): Conv2d(64, 256, kernel_size=(1, 1), stride=(1, 1), bias=False)
            (1): FrozenBatchNorm2d()
          )
          (conv1): Conv2d(64, 64, kernel_size=(1, 1), stride=(1, 1), bias=False)
          (bn1): FrozenBatchNorm2d()
          (conv2): Conv2d(64, 64, kernel_size=(3, 3), stride=(1, 1), padding=(1, 1), bias=False)
          (bn2): FrozenBatchNorm2d()
          (conv3): Conv2d(64, 256, kernel_size=(1, 1), stride=(1, 1), bias=False)
          (bn3): FrozenBatchNorm2d()
        )
        (1): BottleneckWithFixedBatchNorm(
          (conv1): Conv2d(256, 64, kernel_size=(1, 1), stride=(1, 1), bias=False)
          (bn1): FrozenBatchNorm2d()
          (conv2): Conv2d(64, 64, kernel_size=(3, 3), stride=(1, 1), padding=(1, 1), bias=False)
          (bn2): FrozenBatchNorm2d()
          (conv3): Conv2d(64, 256, kernel_size=(1, 1), stride=(1, 1), bias=False)
          (bn3): FrozenBatchNorm2d()
        )
        (2): BottleneckWithFixedBatchNorm(
          (conv1): Conv2d(256, 64, kernel_size=(1, 1), stride=(1, 1), bias=False)
          (bn1): FrozenBatchNorm2d()
          (conv2): Conv2d(64, 64, kernel_size=(3, 3), stride=(1, 1), padding=(1, 1), bias=False)
          (bn2): FrozenBatchNorm2d()
          (conv3): Conv2d(64, 256, kernel_size=(1, 1), stride=(1, 1), bias=False)
          (bn3): FrozenBatchNorm2d()
        )
      )
      (layer2): Sequential(
        (0): BottleneckWithFixedBatchNorm(
          (downsample): Sequential(
            (0): Conv2d(256, 512, kernel_size=(1, 1), stride=(2, 2), bias=False)
            (1): FrozenBatchNorm2d()
          )
          (conv1): Conv2d(256, 128, kernel_size=(1, 1), stride=(2, 2), bias=False)
          (bn1): FrozenBatchNorm2d()
          (conv2): Conv2d(128, 128, kernel_size=(3, 3), stride=(1, 1), padding=(1, 1), bias=False)
          (bn2): FrozenBatchNorm2d()
          (conv3): Conv2d(128, 512, kernel_size=(1, 1), stride=(1, 1), bias=False)
          (bn3): FrozenBatchNorm2d()
        )
        (1): BottleneckWithFixedBatchNorm(
          (conv1): Conv2d(512, 128, kernel_size=(1, 1), stride=(1, 1), bias=False)
          (bn1): FrozenBatchNorm2d()
          (conv2): Conv2d(128, 128, kernel_size=(3, 3), stride=(1, 1), padding=(1, 1), bias=False)
          (bn2): FrozenBatchNorm2d()
          (conv3): Conv2d(128, 512, kernel_size=(1, 1), stride=(1, 1), bias=False)
          (bn3): FrozenBatchNorm2d()
        )
        (2): BottleneckWithFixedBatchNorm(
          (conv1): Conv2d(512, 128, kernel_size=(1, 1), stride=(1, 1), bias=False)
          (bn1): FrozenBatchNorm2d()
          (conv2): Conv2d(128, 128, kernel_size=(3, 3), stride=(1, 1), padding=(1, 1), bias=False)
          (bn2): FrozenBatchNorm2d()
          (conv3): Conv2d(128, 512, kernel_size=(1, 1), stride=(1, 1), bias=False)
          (bn3): FrozenBatchNorm2d()
        )
        (3): BottleneckWithFixedBatchNorm(
          (conv1): Conv2d(512, 128, kernel_size=(1, 1), stride=(1, 1), bias=False)
          (bn1): FrozenBatchNorm2d()
          (conv2): Conv2d(128, 128, kernel_size=(3, 3), stride=(1, 1), padding=(1, 1), bias=False)
          (bn2): FrozenBatchNorm2d()
          (conv3): Conv2d(128, 512, kernel_size=(1, 1), stride=(1, 1), bias=False)
          (bn3): FrozenBatchNorm2d()
        )
      )
      (layer3): Sequential(
        (0): BottleneckWithFixedBatchNorm(
          (downsample): Sequential(
            (0): Conv2d(512, 1024, kernel_size=(1, 1), stride=(2, 2), bias=False)
            (1): FrozenBatchNorm2d()
          )
          (conv1): Conv2d(512, 256, kernel_size=(1, 1), stride=(2, 2), bias=False)
          (bn1): FrozenBatchNorm2d()
          (conv2): Conv2d(256, 256, kernel_size=(3, 3), stride=(1, 1), padding=(1, 1), bias=False)
          (bn2): FrozenBatchNorm2d()
          (conv3): Conv2d(256, 1024, kernel_size=(1, 1), stride=(1, 1), bias=False)
          (bn3): FrozenBatchNorm2d()
        )
        (1): BottleneckWithFixedBatchNorm(
          (conv1): Conv2d(1024, 256, kernel_size=(1, 1), stride=(1, 1), bias=False)
          (bn1): FrozenBatchNorm2d()
          (conv2): Conv2d(256, 256, kernel_size=(3, 3), stride=(1, 1), padding=(1, 1), bias=False)
          (bn2): FrozenBatchNorm2d()
          (conv3): Conv2d(256, 1024, kernel_size=(1, 1), stride=(1, 1), bias=False)
          (bn3): FrozenBatchNorm2d()
        )
        (2): BottleneckWithFixedBatchNorm(
          (conv1): Conv2d(1024, 256, kernel_size=(1, 1), stride=(1, 1), bias=False)
          (bn1): FrozenBatchNorm2d()
          (conv2): Conv2d(256, 256, kernel_size=(3, 3), stride=(1, 1), padding=(1, 1), bias=False)
          (bn2): FrozenBatchNorm2d()
          (conv3): Conv2d(256, 1024, kernel_size=(1, 1), stride=(1, 1), bias=False)
          (bn3): FrozenBatchNorm2d()
        )
        (3): BottleneckWithFixedBatchNorm(
          (conv1): Conv2d(1024, 256, kernel_size=(1, 1), stride=(1, 1), bias=False)
          (bn1): FrozenBatchNorm2d()
          (conv2): Conv2d(256, 256, kernel_size=(3, 3), stride=(1, 1), padding=(1, 1), bias=False)
          (bn2): FrozenBatchNorm2d()
          (conv3): Conv2d(256, 1024, kernel_size=(1, 1), stride=(1, 1), bias=False)
          (bn3): FrozenBatchNorm2d()
        )
        (4): BottleneckWithFixedBatchNorm(
          (conv1): Conv2d(1024, 256, kernel_size=(1, 1), stride=(1, 1), bias=False)
          (bn1): FrozenBatchNorm2d()
          (conv2): Conv2d(256, 256, kernel_size=(3, 3), stride=(1, 1), padding=(1, 1), bias=False)
          (bn2): FrozenBatchNorm2d()
          (conv3): Conv2d(256, 1024, kernel_size=(1, 1), stride=(1, 1), bias=False)
          (bn3): FrozenBatchNorm2d()
        )
        (5): BottleneckWithFixedBatchNorm(
          (conv1): Conv2d(1024, 256, kernel_size=(1, 1), stride=(1, 1), bias=False)
          (bn1): FrozenBatchNorm2d()
          (conv2): Conv2d(256, 256, kernel_size=(3, 3), stride=(1, 1), padding=(1, 1), bias=False)
          (bn2): FrozenBatchNorm2d()
          (conv3): Conv2d(256, 1024, kernel_size=(1, 1), stride=(1, 1), bias=False)
          (bn3): FrozenBatchNorm2d()
        )
      )
      (layer4): Sequential(
        (0): BottleneckWithFixedBatchNorm(
          (downsample): Sequential(
            (0): Conv2d(1024, 2048, kernel_size=(1, 1), stride=(2, 2), bias=False)
            (1): FrozenBatchNorm2d()
          )
          (conv1): Conv2d(1024, 512, kernel_size=(1, 1), stride=(2, 2), bias=False)
          (bn1): FrozenBatchNorm2d()
          (conv2): Conv2d(512, 512, kernel_size=(3, 3), stride=(1, 1), padding=(1, 1), bias=False)
          (bn2): FrozenBatchNorm2d()
          (conv3): Conv2d(512, 2048, kernel_size=(1, 1), stride=(1, 1), bias=False)
          (bn3): FrozenBatchNorm2d()
        )
        (1): BottleneckWithFixedBatchNorm(
          (conv1): Conv2d(2048, 512, kernel_size=(1, 1), stride=(1, 1), bias=False)
          (bn1): FrozenBatchNorm2d()
          (conv2): Conv2d(512, 512, kernel_size=(3, 3), stride=(1, 1), padding=(1, 1), bias=False)
          (bn2): FrozenBatchNorm2d()
          (conv3): Conv2d(512, 2048, kernel_size=(1, 1), stride=(1, 1), bias=False)
          (bn3): FrozenBatchNorm2d()
        )
        (2): BottleneckWithFixedBatchNorm(
          (conv1): Conv2d(2048, 512, kernel_size=(1, 1), stride=(1, 1), bias=False)
          (bn1): FrozenBatchNorm2d()
          (conv2): Conv2d(512, 512, kernel_size=(3, 3), stride=(1, 1), padding=(1, 1), bias=False)
          (bn2): FrozenBatchNorm2d()
          (conv3): Conv2d(512, 2048, kernel_size=(1, 1), stride=(1, 1), bias=False)
          (bn3): FrozenBatchNorm2d()
        )
      )
    )
    (fpn): FPN(
      (fpn_inner2): Conv2d(512, 1024, kernel_size=(1, 1), stride=(1, 1))
      (fpn_layer2): Conv2d(1024, 1024, kernel_size=(3, 3), stride=(1, 1), padding=(1, 1))
      (fpn_inner3): Conv2d(1024, 1024, kernel_size=(1, 1), stride=(1, 1))
      (fpn_layer3): Conv2d(1024, 1024, kernel_size=(3, 3), stride=(1, 1), padding=(1, 1))
      (fpn_inner4): Conv2d(2048, 1024, kernel_size=(1, 1), stride=(1, 1))
      (fpn_layer4): Conv2d(1024, 1024, kernel_size=(3, 3), stride=(1, 1), padding=(1, 1))
      (top_blocks): LastLevelP6P7(
        (p6): Conv2d(2048, 1024, kernel_size=(3, 3), stride=(2, 2), padding=(1, 1))
        (p7): Conv2d(1024, 1024, kernel_size=(3, 3), stride=(2, 2), padding=(1, 1))
      )
    )
  )
  (rpn): RetinaNetModule(
    (anchor_generator): AnchorGenerator(
      (cell_anchors): BufferList()
    )
    (head): RetinaNetHead(
      (cls_tower): Sequential(
        (0): Conv2d(1024, 1024, kernel_size=(3, 3), stride=(1, 1), padding=(1, 1))
        (1): ReLU()
        (2): Conv2d(1024, 1024, kernel_size=(3, 3), stride=(1, 1), padding=(1, 1))
        (3): ReLU()
        (4): Conv2d(1024, 1024, kernel_size=(3, 3), stride=(1, 1), padding=(1, 1))
        (5): ReLU()
        (6): Conv2d(1024, 1024, kernel_size=(3, 3), stride=(1, 1), padding=(1, 1))
        (7): ReLU()
      )
      (bbox_tower): Sequential(
        (0): Conv2d(1024, 1024, kernel_size=(3, 3), stride=(1, 1), padding=(1, 1))
        (1): ReLU()
        (2): Conv2d(1024, 1024, kernel_size=(3, 3), stride=(1, 1), padding=(1, 1))
        (3): ReLU()
        (4): Conv2d(1024, 1024, kernel_size=(3, 3), stride=(1, 1), padding=(1, 1))
        (5): ReLU()
        (6): Conv2d(1024, 1024, kernel_size=(3, 3), stride=(1, 1), padding=(1, 1))
        (7): ReLU()
      )
      (cls_logits): Conv2d(1024, 9, kernel_size=(3, 3), stride=(1, 1), padding=(1, 1))
      (bbox_pred): Conv2d(1024, 36, kernel_size=(3, 3), stride=(1, 1), padding=(1, 1))
    )
    (box_selector_test): RetinaNetPostProcessor()
  )
)


  # -----------------------------------------
  # 1.3 set to evaluation mode for interference
  # -----------------------------------------
  self.model.eval()

  // in detection_model_debug.py
  # -----------------------------------------
  # 1.4 Load Weight
  # -----------------------------------------
…
    # should be prepared because caffe don't have sub-net iteration structure
    #=========================================
    for idx, feature in enumerate(x) {
      {
      # BEGIN iteration: 1/5

      // ===================================
      // feature P2 of shape: torch.Size([1, 1024, 60, 72])
      // ===================================
      # 2-3-2-1-1. append cls_logits(cls_tower(feature))
      logits.append(self.cls_logits(self.cls_tower(feature)))
      logits.append(self.cls_logits(self.cls_tower(feature)))
        // feature.shape: torch.Size([1, 1024, 60, 72])
        // self.cls_tower: Sequential(
  (0): Conv2d(1024, 1024, kernel_size=(3, 3), stride=(1, 1), padding=(1, 1))
  (1): ReLU()
  (2): Conv2d(1024, 1024, kernel_size=(3, 3), stride=(1, 1), padding=(1, 1))
  (3): ReLU()
  (4): Conv2d(1024, 1024, kernel_size=(3, 3), stride=(1, 1), padding=(1, 1))
  (5): ReLU()
  (6): Conv2d(1024, 1024, kernel_size=(3, 3), stride=(1, 1), padding=(1, 1))
  (7): ReLU()
)
        // self.cls_logits: Conv2d(1024, 9, kernel_size=(3, 3), stride=(1, 1), padding=(1, 1))
        // logits[-1].shape: torch.Size([1, 9, 60, 72])
        // len(logits): 1

      # 2-3-2-1-2. append bbox_pred(bbox_tower(feature))
      bbox_reg.append(self.bbox_pred(self.bbox_tower(feature)))
        // feature.shape: torch.Size([1, 1024, 60, 72])
        // self.bbox_tower: Sequential(
  (0): Conv2d(1024, 1024, kernel_size=(3, 3), stride=(1, 1), padding=(1, 1))
  (1): ReLU()
  (2): Conv2d(1024, 1024, kernel_size=(3, 3), stride=(1, 1), padding=(1, 1))
  (3): ReLU()
  (4): Conv2d(1024, 1024, kernel_size=(3, 3), stride=(1, 1), padding=(1, 1))
  (5): ReLU()
  (6): Conv2d(1024, 1024, kernel_size=(3, 3), stride=(1, 1), padding=(1, 1))
  (7): ReLU()
)
        // self.bbox_pred: Conv2d(1024, 36, kernel_size=(3, 3), stride=(1, 1), padding=(1, 1))
        // bbox_reg[-1].shape: torch.Size([1, 36, 60, 72])
        // len(bbox_reg): 1

      } // END iteration: 1/5

      {
      # BEGIN iteration: 2/5

      // ===================================
      // feature P3 of shape: torch.Size([1, 1024, 30, 36])
      // ===================================
      # 2-3-2-1-1. append cls_logits(cls_tower(feature))
      logits.append(self.cls_logits(self.cls_tower(feature)))
      logits.append(self.cls_logits(self.cls_tower(feature)))
        // feature.shape: torch.Size([1, 1024, 30, 36])
        // self.cls_tower: Sequential(
  (0): Conv2d(1024, 1024, kernel_size=(3, 3), stride=(1, 1), padding=(1, 1))
  (1): ReLU()
  (2): Conv2d(1024, 1024, kernel_size=(3, 3), stride=(1, 1), padding=(1, 1))
  (3): ReLU()
  (4): Conv2d(1024, 1024, kernel_size=(3, 3), stride=(1, 1), padding=(1, 1))
  (5): ReLU()
  (6): Conv2d(1024, 1024, kernel_size=(3, 3), stride=(1, 1), padding=(1, 1))
  (7): ReLU()
)
        // self.cls_logits: Conv2d(1024, 9, kernel_size=(3, 3), stride=(1, 1), padding=(1, 1))
        // logits[-1].shape: torch.Size([1, 9, 30, 36])
        // len(logits): 2

      # 2-3-2-1-2. append bbox_pred(bbox_tower(feature))
      bbox_reg.append(self.bbox_pred(self.bbox_tower(feature)))
        // feature.shape: torch.Size([1, 1024, 30, 36])
        // self.bbox_tower: Sequential(
  (0): Conv2d(1024, 1024, kernel_size=(3, 3), stride=(1, 1), padding=(1, 1))
  (1): ReLU()
  (2): Conv2d(1024, 1024, kernel_size=(3, 3), stride=(1, 1), padding=(1, 1))
  (3): ReLU()
  (4): Conv2d(1024, 1024, kernel_size=(3, 3), stride=(1, 1), padding=(1, 1))
  (5): ReLU()
  (6): Conv2d(1024, 1024, kernel_size=(3, 3), stride=(1, 1), padding=(1, 1))
  (7): ReLU()
)
        // self.bbox_pred: Conv2d(1024, 36, kernel_size=(3, 3), stride=(1, 1), padding=(1, 1))
        // bbox_reg[-1].shape: torch.Size([1, 36, 30, 36])
        // len(bbox_reg): 2

      } // END iteration: 2/5

      {
      # BEGIN iteration: 3/5

      // ===================================
      // feature P4 of shape: torch.Size([1, 1024, 15, 18])
      // ===================================
      # 2-3-2-1-1. append cls_logits(cls_tower(feature))
      logits.append(self.cls_logits(self.cls_tower(feature)))
      logits.append(self.cls_logits(self.cls_tower(feature)))
        // feature.shape: torch.Size([1, 1024, 15, 18])
        // self.cls_tower: Sequential(
  (0): Conv2d(1024, 1024, kernel_size=(3, 3), stride=(1, 1), padding=(1, 1))
  (1): ReLU()
  (2): Conv2d(1024, 1024, kernel_size=(3, 3), stride=(1, 1), padding=(1, 1))
  (3): ReLU()
  (4): Conv2d(1024, 1024, kernel_size=(3, 3), stride=(1, 1), padding=(1, 1))
  (5): ReLU()
  (6): Conv2d(1024, 1024, kernel_size=(3, 3), stride=(1, 1), padding=(1, 1))
  (7): ReLU()
)
        // self.cls_logits: Conv2d(1024, 9, kernel_size=(3, 3), stride=(1, 1), padding=(1, 1))
        // logits[-1].shape: torch.Size([1, 9, 15, 18])
        // len(logits): 3

      # 2-3-2-1-2. append bbox_pred(bbox_tower(feature))
      bbox_reg.append(self.bbox_pred(self.bbox_tower(feature)))
        // feature.shape: torch.Size([1, 1024, 15, 18])
        // self.bbox_tower: Sequential(
  (0): Conv2d(1024, 1024, kernel_size=(3, 3), stride=(1, 1), padding=(1, 1))
  (1): ReLU()
  (2): Conv2d(1024, 1024, kernel_size=(3, 3), stride=(1, 1), padding=(1, 1))
  (3): ReLU()
  (4): Conv2d(1024, 1024, kernel_size=(3, 3), stride=(1, 1), padding=(1, 1))
  (5): ReLU()
  (6): Conv2d(1024, 1024, kernel_size=(3, 3), stride=(1, 1), padding=(1, 1))
  (7): ReLU()
)
        // self.bbox_pred: Conv2d(1024, 36, kernel_size=(3, 3), stride=(1, 1), padding=(1, 1))
        // bbox_reg[-1].shape: torch.Size([1, 36, 15, 18])
        // len(bbox_reg): 3

      } // END iteration: 3/5

      {
      # BEGIN iteration: 4/5

      // ===================================
      // feature p6 of shape: torch.Size([1, 1024, 8, 9])
      // ===================================
      # 2-3-2-1-1. append cls_logits(cls_tower(feature))
      logits.append(self.cls_logits(self.cls_tower(feature)))
      logits.append(self.cls_logits(self.cls_tower(feature)))
        // feature.shape: torch.Size([1, 1024, 8, 9])
        // self.cls_tower: Sequential(
  (0): Conv2d(1024, 1024, kernel_size=(3, 3), stride=(1, 1), padding=(1, 1))
  (1): ReLU()
  (2): Conv2d(1024, 1024, kernel_size=(3, 3), stride=(1, 1), padding=(1, 1))
  (3): ReLU()
  (4): Conv2d(1024, 1024, kernel_size=(3, 3), stride=(1, 1), padding=(1, 1))
  (5): ReLU()
  (6): Conv2d(1024, 1024, kernel_size=(3, 3), stride=(1, 1), padding=(1, 1))
  (7): ReLU()
)
        // self.cls_logits: Conv2d(1024, 9, kernel_size=(3, 3), stride=(1, 1), padding=(1, 1))
        // logits[-1].shape: torch.Size([1, 9, 8, 9])
        // len(logits): 4

      # 2-3-2-1-2. append bbox_pred(bbox_tower(feature))
      bbox_reg.append(self.bbox_pred(self.bbox_tower(feature)))
        // feature.shape: torch.Size([1, 1024, 8, 9])
        // self.bbox_tower: Sequential(
  (0): Conv2d(1024, 1024, kernel_size=(3, 3), stride=(1, 1), padding=(1, 1))
  (1): ReLU()
  (2): Conv2d(1024, 1024, kernel_size=(3, 3), stride=(1, 1), padding=(1, 1))
  (3): ReLU()
  (4): Conv2d(1024, 1024, kernel_size=(3, 3), stride=(1, 1), padding=(1, 1))
  (5): ReLU()
  (6): Conv2d(1024, 1024, kernel_size=(3, 3), stride=(1, 1), padding=(1, 1))
  (7): ReLU()
)
        // self.bbox_pred: Conv2d(1024, 36, kernel_size=(3, 3), stride=(1, 1), padding=(1, 1))
        // bbox_reg[-1].shape: torch.Size([1, 36, 8, 9])
        // len(bbox_reg): 4

      } // END iteration: 4/5

      {
      # BEGIN iteration: 5/5

      // ===================================
      // feature p7 of shape: torch.Size([1, 1024, 4, 5])
      // ===================================
      # 2-3-2-1-1. append cls_logits(cls_tower(feature))
      logits.append(self.cls_logits(self.cls_tower(feature)))
      logits.append(self.cls_logits(self.cls_tower(feature)))
        // feature.shape: torch.Size([1, 1024, 4, 5])
        // self.cls_tower: Sequential(
  (0): Conv2d(1024, 1024, kernel_size=(3, 3), stride=(1, 1), padding=(1, 1))
  (1): ReLU()
  (2): Conv2d(1024, 1024, kernel_size=(3, 3), stride=(1, 1), padding=(1, 1))
  (3): ReLU()
  (4): Conv2d(1024, 1024, kernel_size=(3, 3), stride=(1, 1), padding=(1, 1))
  (5): ReLU()
  (6): Conv2d(1024, 1024, kernel_size=(3, 3), stride=(1, 1), padding=(1, 1))
  (7): ReLU()
)
        // self.cls_logits: Conv2d(1024, 9, kernel_size=(3, 3), stride=(1, 1), padding=(1, 1))
        // logits[-1].shape: torch.Size([1, 9, 4, 5])
        // len(logits): 5

      # 2-3-2-1-2. append bbox_pred(bbox_tower(feature))
      bbox_reg.append(self.bbox_pred(self.bbox_tower(feature)))
        // feature.shape: torch.Size([1, 1024, 4, 5])
        // self.bbox_tower: Sequential(
  (0): Conv2d(1024, 1024, kernel_size=(3, 3), stride=(1, 1), padding=(1, 1))
  (1): ReLU()
  (2): Conv2d(1024, 1024, kernel_size=(3, 3), stride=(1, 1), padding=(1, 1))
  (3): ReLU()
  (4): Conv2d(1024, 1024, kernel_size=(3, 3), stride=(1, 1), padding=(1, 1))
  (5): ReLU()
  (6): Conv2d(1024, 1024, kernel_size=(3, 3), stride=(1, 1), padding=(1, 1))
  (7): ReLU()
)
        // self.bbox_pred: Conv2d(1024, 36, kernel_size=(3, 3), stride=(1, 1), padding=(1, 1))
        // bbox_reg[-1].shape: torch.Size([1, 36, 4, 5])
        // len(bbox_reg): 5

      } // END iteration: 5/5



    }// END for idx, feature n enumerate(x)

    // ==== logits ====
    // logits[0].shape: torch.Size([1, 9, 60, 72])
…
