…
DEBUG:root:			# --------------
DEBUG:root:			blocks.append(
DEBUG:root:			    transformation_module(
DEBUG:root:			        in_channels=64,
DEBUG:root:			        bottleneck_channels=64,
DEBUG:root:			        out_channels=256,
DEBUG:root:			        num_groups=1,
DEBUG:root:			        stride_in_1x1=True,
DEBUG:root:			        stride=1,
DEBUG:root:			        dilation=1,
DEBUG:root:			        dcn_config={'stage_with_dcn': False, 'with_modulated_dcn': False, 'deformable_groups': 1}
DEBUG:root:			   )
DEBUG:root:			)

DEBUG:root:			blocks[-1]:BottleneckWithFixedBatchNorm(
  (downsample): Sequential(
    (0): Conv2d(64, 256, kernel_size=(1, 1), stride=(1, 1), bias=False)
    (1): FrozenBatchNorm2d()
  )
  (conv1): Conv2d(64, 64, kernel_size=(1, 1), stride=(1, 1), bias=False)
  (bn1): FrozenBatchNorm2d()
  (conv2): Conv2d(64, 64, kernel_size=(3, 3), stride=(1, 1), padding=(1, 1), bias=False)
  (bn2): FrozenBatchNorm2d()
  (conv3): Conv2d(64, 256, kernel_size=(1, 1), stride=(1, 1), bias=False)
  (bn3): FrozenBatchNorm2d()
)
DEBUG:root:			stride = 1
DEBUG:root:			in_channels = out_channels
DEBUG:root:
			}
DEBUG:root:			{
DEBUG:root:			# --------------
DEBUG:root:			# blocks.append iteration 2/3
DEBUG:root:			# --------------
DEBUG:root:			blocks.append(
DEBUG:root:			    transformation_module(
DEBUG:root:			        in_channels=256,
DEBUG:root:			        bottleneck_channels=64,
DEBUG:root:			        out_channels=256,
DEBUG:root:			        num_groups=1,
DEBUG:root:			        stride_in_1x1=True,
DEBUG:root:			        stride=1,
DEBUG:root:			        dilation=1,
DEBUG:root:			        dcn_config={'stage_with_dcn': False, 'with_modulated_dcn': False, 'deformable_groups': 1}
DEBUG:root:			   )
DEBUG:root:			)

DEBUG:root:			blocks[-1]:BottleneckWithFixedBatchNorm(
  (conv1): Conv2d(256, 64, kernel_size=(1, 1), stride=(1, 1), bias=False)
  (bn1): FrozenBatchNorm2d()
  (conv2): Conv2d(64, 64, kernel_size=(3, 3), stride=(1, 1), padding=(1, 1), bias=False)
  (bn2): FrozenBatchNorm2d()
  (conv3): Conv2d(64, 256, kernel_size=(1, 1), stride=(1, 1), bias=False)
  (bn3): FrozenBatchNorm2d()
)
DEBUG:root:			stride = 1
DEBUG:root:			in_channels = out_channels
DEBUG:root:
			}
DEBUG:root:			{
DEBUG:root:			# --------------
DEBUG:root:			# blocks.append iteration 3/3
DEBUG:root:			# --------------
DEBUG:root:			blocks.append(
DEBUG:root:			    transformation_module(
DEBUG:root:			        in_channels=256,
DEBUG:root:			        bottleneck_channels=64,
DEBUG:root:			        out_channels=256,
DEBUG:root:			        num_groups=1,
DEBUG:root:			        stride_in_1x1=True,
DEBUG:root:			        stride=1,
DEBUG:root:			        dilation=1,
DEBUG:root:			        dcn_config={'stage_with_dcn': False, 'with_modulated_dcn': False, 'deformable_groups': 1}
DEBUG:root:			   )
DEBUG:root:			)

DEBUG:root:			blocks[-1]:BottleneckWithFixedBatchNorm(
  (conv1): Conv2d(256, 64, kernel_size=(1, 1), stride=(1, 1), bias=False)
  (bn1): FrozenBatchNorm2d()
  (conv2): Conv2d(64, 64, kernel_size=(3, 3), stride=(1, 1), padding=(1, 1), bias=False)
  (bn2): FrozenBatchNorm2d()
  (conv3): Conv2d(64, 256, kernel_size=(1, 1), stride=(1, 1), bias=False)
  (bn3): FrozenBatchNorm2d()
)
DEBUG:root:			stride = 1
DEBUG:root:			in_channels = out_channels
DEBUG:root:
			}
DEBUG:root:		}// END for _ in range(block_count):

DEBUG:root:		return nn.Sequential(*blocks)

DEBUG:root:
	} // END _make_stage()
DEBUG:root:				}
DEBUG:root:			module = _make_stage(
DEBUG:root:				transformation_module = <class 'maskrcnn_benchmark.modeling.backbone.resnet.BottleneckWithFixedBatchNorm'>,
…
DEBUG:root:			# --------------
DEBUG:root:			blocks.append(
DEBUG:root:			    transformation_module(
DEBUG:root:			        in_channels=256,
DEBUG:root:			        bottleneck_channels=128,
DEBUG:root:			        out_channels=512,
DEBUG:root:			        num_groups=1,
DEBUG:root:			        stride_in_1x1=True,
DEBUG:root:			        stride=2,
DEBUG:root:			        dilation=1,
DEBUG:root:			        dcn_config={'stage_with_dcn': False, 'with_modulated_dcn': False, 'deformable_groups': 1}
DEBUG:root:			   )
DEBUG:root:			)

DEBUG:root:			blocks[-1]:BottleneckWithFixedBatchNorm(
  (downsample): Sequential(
    (0): Conv2d(256, 512, kernel_size=(1, 1), stride=(2, 2), bias=False)
    (1): FrozenBatchNorm2d()
  )
  (conv1): Conv2d(256, 128, kernel_size=(1, 1), stride=(2, 2), bias=False)
  (bn1): FrozenBatchNorm2d()
  (conv2): Conv2d(128, 128, kernel_size=(3, 3), stride=(1, 1), padding=(1, 1), bias=False)
  (bn2): FrozenBatchNorm2d()
  (conv3): Conv2d(128, 512, kernel_size=(1, 1), stride=(1, 1), bias=False)
  (bn3): FrozenBatchNorm2d()
)
DEBUG:root:			stride = 1
DEBUG:root:			in_channels = out_channels
DEBUG:root:
			}
DEBUG:root:			{
DEBUG:root:			# --------------
DEBUG:root:			# blocks.append iteration 2/4
DEBUG:root:			# --------------
DEBUG:root:			blocks.append(
DEBUG:root:			    transformation_module(
DEBUG:root:			        in_channels=512,
DEBUG:root:			        bottleneck_channels=128,
DEBUG:root:			        out_channels=512,
DEBUG:root:			        num_groups=1,
DEBUG:root:			        stride_in_1x1=True,
DEBUG:root:			        stride=1,
DEBUG:root:			        dilation=1,
DEBUG:root:			        dcn_config={'stage_with_dcn': False, 'with_modulated_dcn': False, 'deformable_groups': 1}
DEBUG:root:			   )
DEBUG:root:			)

DEBUG:root:			blocks[-1]:BottleneckWithFixedBatchNorm(
  (conv1): Conv2d(512, 128, kernel_size=(1, 1), stride=(1, 1), bias=False)
  (bn1): FrozenBatchNorm2d()
  (conv2): Conv2d(128, 128, kernel_size=(3, 3), stride=(1, 1), padding=(1, 1), bias=False)
  (bn2): FrozenBatchNorm2d()
  (conv3): Conv2d(128, 512, kernel_size=(1, 1), stride=(1, 1), bias=False)
  (bn3): FrozenBatchNorm2d()
)
DEBUG:root:			stride = 1
DEBUG:root:			in_channels = out_channels
DEBUG:root:
			}
DEBUG:root:			{
DEBUG:root:			# --------------
DEBUG:root:			# blocks.append iteration 3/4
DEBUG:root:			# --------------
DEBUG:root:			blocks.append(
DEBUG:root:			    transformation_module(
DEBUG:root:			        in_channels=512,
DEBUG:root:			        bottleneck_channels=128,
DEBUG:root:			        out_channels=512,
DEBUG:root:			        num_groups=1,
DEBUG:root:			        stride_in_1x1=True,
DEBUG:root:			        stride=1,
DEBUG:root:			        dilation=1,
DEBUG:root:			        dcn_config={'stage_with_dcn': False, 'with_modulated_dcn': False, 'deformable_groups': 1}
DEBUG:root:			   )
DEBUG:root:			)

DEBUG:root:			blocks[-1]:BottleneckWithFixedBatchNorm(
  (conv1): Conv2d(512, 128, kernel_size=(1, 1), stride=(1, 1), bias=False)
  (bn1): FrozenBatchNorm2d()
  (conv2): Conv2d(128, 128, kernel_size=(3, 3), stride=(1, 1), padding=(1, 1), bias=False)
  (bn2): FrozenBatchNorm2d()
  (conv3): Conv2d(128, 512, kernel_size=(1, 1), stride=(1, 1), bias=False)
  (bn3): FrozenBatchNorm2d()
)
DEBUG:root:			stride = 1
DEBUG:root:			in_channels = out_channels
DEBUG:root:
			}
DEBUG:root:			{
DEBUG:root:			# --------------
DEBUG:root:			# blocks.append iteration 4/4
DEBUG:root:			# --------------
DEBUG:root:			blocks.append(
DEBUG:root:			    transformation_module(
DEBUG:root:			        in_channels=512,
DEBUG:root:			        bottleneck_channels=128,
DEBUG:root:			        out_channels=512,
DEBUG:root:			        num_groups=1,
DEBUG:root:			        stride_in_1x1=True,
DEBUG:root:			        stride=1,
DEBUG:root:			        dilation=1,
DEBUG:root:			        dcn_config={'stage_with_dcn': False, 'with_modulated_dcn': False, 'deformable_groups': 1}
DEBUG:root:			   )
DEBUG:root:			)

DEBUG:root:			blocks[-1]:BottleneckWithFixedBatchNorm(
  (conv1): Conv2d(512, 128, kernel_size=(1, 1), stride=(1, 1), bias=False)
  (bn1): FrozenBatchNorm2d()
  (conv2): Conv2d(128, 128, kernel_size=(3, 3), stride=(1, 1), padding=(1, 1), bias=False)
  (bn2): FrozenBatchNorm2d()
  (conv3): Conv2d(128, 512, kernel_size=(1, 1), stride=(1, 1), bias=False)
  (bn3): FrozenBatchNorm2d()
)
DEBUG:root:			stride = 1
DEBUG:root:			in_channels = out_channels
DEBUG:root:
			}
DEBUG:root:		}// END for _ in range(block_count):

DEBUG:root:		return nn.Sequential(*blocks)

DEBUG:root:
	} // END _make_stage()
DEBUG:root:				}
DEBUG:root:			module = _make_stage(
DEBUG:root:				transformation_module = <class 'maskrcnn_benchmark.modeling.backbone.resnet.BottleneckWithFixedBatchNorm'>,
…
DEBUG:root:			# --------------
DEBUG:root:			blocks.append(
DEBUG:root:			    transformation_module(
DEBUG:root:			        in_channels=512,
DEBUG:root:			        bottleneck_channels=256,
DEBUG:root:			        out_channels=1024,
DEBUG:root:			        num_groups=1,
DEBUG:root:			        stride_in_1x1=True,
DEBUG:root:			        stride=2,
DEBUG:root:			        dilation=1,
DEBUG:root:			        dcn_config={'stage_with_dcn': False, 'with_modulated_dcn': False, 'deformable_groups': 1}
DEBUG:root:			   )
DEBUG:root:			)

DEBUG:root:			blocks[-1]:BottleneckWithFixedBatchNorm(
  (downsample): Sequential(
    (0): Conv2d(512, 1024, kernel_size=(1, 1), stride=(2, 2), bias=False)
    (1): FrozenBatchNorm2d()
  )
  (conv1): Conv2d(512, 256, kernel_size=(1, 1), stride=(2, 2), bias=False)
  (bn1): FrozenBatchNorm2d()
  (conv2): Conv2d(256, 256, kernel_size=(3, 3), stride=(1, 1), padding=(1, 1), bias=False)
  (bn2): FrozenBatchNorm2d()
  (conv3): Conv2d(256, 1024, kernel_size=(1, 1), stride=(1, 1), bias=False)
  (bn3): FrozenBatchNorm2d()
)
DEBUG:root:			stride = 1
DEBUG:root:			in_channels = out_channels
DEBUG:root:
			}
DEBUG:root:			{
DEBUG:root:			# --------------
DEBUG:root:			# blocks.append iteration 2/6
DEBUG:root:			# --------------
DEBUG:root:			blocks.append(
DEBUG:root:			    transformation_module(
DEBUG:root:			        in_channels=1024,
DEBUG:root:			        bottleneck_channels=256,
DEBUG:root:			        out_channels=1024,
DEBUG:root:			        num_groups=1,
DEBUG:root:			        stride_in_1x1=True,
DEBUG:root:			        stride=1,
DEBUG:root:			        dilation=1,
DEBUG:root:			        dcn_config={'stage_with_dcn': False, 'with_modulated_dcn': False, 'deformable_groups': 1}
DEBUG:root:			   )
DEBUG:root:			)

DEBUG:root:			blocks[-1]:BottleneckWithFixedBatchNorm(
  (conv1): Conv2d(1024, 256, kernel_size=(1, 1), stride=(1, 1), bias=False)
  (bn1): FrozenBatchNorm2d()
  (conv2): Conv2d(256, 256, kernel_size=(3, 3), stride=(1, 1), padding=(1, 1), bias=False)
  (bn2): FrozenBatchNorm2d()
  (conv3): Conv2d(256, 1024, kernel_size=(1, 1), stride=(1, 1), bias=False)
  (bn3): FrozenBatchNorm2d()
)
DEBUG:root:			stride = 1
DEBUG:root:			in_channels = out_channels
DEBUG:root:
			}
DEBUG:root:			{
DEBUG:root:			# --------------
DEBUG:root:			# blocks.append iteration 3/6
DEBUG:root:			# --------------
DEBUG:root:			blocks.append(
DEBUG:root:			    transformation_module(
DEBUG:root:			        in_channels=1024,
DEBUG:root:			        bottleneck_channels=256,
DEBUG:root:			        out_channels=1024,
DEBUG:root:			        num_groups=1,
DEBUG:root:			        stride_in_1x1=True,
DEBUG:root:			        stride=1,
DEBUG:root:			        dilation=1,
DEBUG:root:			        dcn_config={'stage_with_dcn': False, 'with_modulated_dcn': False, 'deformable_groups': 1}
DEBUG:root:			   )
DEBUG:root:			)

DEBUG:root:			blocks[-1]:BottleneckWithFixedBatchNorm(
  (conv1): Conv2d(1024, 256, kernel_size=(1, 1), stride=(1, 1), bias=False)
  (bn1): FrozenBatchNorm2d()
  (conv2): Conv2d(256, 256, kernel_size=(3, 3), stride=(1, 1), padding=(1, 1), bias=False)
  (bn2): FrozenBatchNorm2d()
  (conv3): Conv2d(256, 1024, kernel_size=(1, 1), stride=(1, 1), bias=False)
  (bn3): FrozenBatchNorm2d()
)
DEBUG:root:			stride = 1
DEBUG:root:			in_channels = out_channels
DEBUG:root:
			}
DEBUG:root:			{
DEBUG:root:			# --------------
DEBUG:root:			# blocks.append iteration 4/6
DEBUG:root:			# --------------
DEBUG:root:			blocks.append(
DEBUG:root:			    transformation_module(
DEBUG:root:			        in_channels=1024,
DEBUG:root:			        bottleneck_channels=256,
DEBUG:root:			        out_channels=1024,
DEBUG:root:			        num_groups=1,
DEBUG:root:			        stride_in_1x1=True,
DEBUG:root:			        stride=1,
DEBUG:root:			        dilation=1,
DEBUG:root:			        dcn_config={'stage_with_dcn': False, 'with_modulated_dcn': False, 'deformable_groups': 1}
DEBUG:root:			   )
DEBUG:root:			)

DEBUG:root:			blocks[-1]:BottleneckWithFixedBatchNorm(
  (conv1): Conv2d(1024, 256, kernel_size=(1, 1), stride=(1, 1), bias=False)
  (bn1): FrozenBatchNorm2d()
  (conv2): Conv2d(256, 256, kernel_size=(3, 3), stride=(1, 1), padding=(1, 1), bias=False)
  (bn2): FrozenBatchNorm2d()
  (conv3): Conv2d(256, 1024, kernel_size=(1, 1), stride=(1, 1), bias=False)
  (bn3): FrozenBatchNorm2d()
)
DEBUG:root:			stride = 1
DEBUG:root:			in_channels = out_channels
DEBUG:root:
			}
DEBUG:root:			{
DEBUG:root:			# --------------
DEBUG:root:			# blocks.append iteration 5/6
DEBUG:root:			# --------------
DEBUG:root:			blocks.append(
DEBUG:root:			    transformation_module(
DEBUG:root:			        in_channels=1024,
DEBUG:root:			        bottleneck_channels=256,
DEBUG:root:			        out_channels=1024,
DEBUG:root:			        num_groups=1,
DEBUG:root:			        stride_in_1x1=True,
DEBUG:root:			        stride=1,
DEBUG:root:			        dilation=1,
DEBUG:root:			        dcn_config={'stage_with_dcn': False, 'with_modulated_dcn': False, 'deformable_groups': 1}
DEBUG:root:			   )
DEBUG:root:			)

DEBUG:root:			blocks[-1]:BottleneckWithFixedBatchNorm(
  (conv1): Conv2d(1024, 256, kernel_size=(1, 1), stride=(1, 1), bias=False)
  (bn1): FrozenBatchNorm2d()
  (conv2): Conv2d(256, 256, kernel_size=(3, 3), stride=(1, 1), padding=(1, 1), bias=False)
  (bn2): FrozenBatchNorm2d()
  (conv3): Conv2d(256, 1024, kernel_size=(1, 1), stride=(1, 1), bias=False)
  (bn3): FrozenBatchNorm2d()
)
DEBUG:root:			stride = 1
DEBUG:root:			in_channels = out_channels
DEBUG:root:
			}
DEBUG:root:			{
DEBUG:root:			# --------------
DEBUG:root:			# blocks.append iteration 6/6
DEBUG:root:			# --------------
DEBUG:root:			blocks.append(
DEBUG:root:			    transformation_module(
DEBUG:root:			        in_channels=1024,
DEBUG:root:			        bottleneck_channels=256,
DEBUG:root:			        out_channels=1024,
DEBUG:root:			        num_groups=1,
DEBUG:root:			        stride_in_1x1=True,
DEBUG:root:			        stride=1,
DEBUG:root:			        dilation=1,
DEBUG:root:			        dcn_config={'stage_with_dcn': False, 'with_modulated_dcn': False, 'deformable_groups': 1}
DEBUG:root:			   )
DEBUG:root:			)

DEBUG:root:			blocks[-1]:BottleneckWithFixedBatchNorm(
  (conv1): Conv2d(1024, 256, kernel_size=(1, 1), stride=(1, 1), bias=False)
  (bn1): FrozenBatchNorm2d()
  (conv2): Conv2d(256, 256, kernel_size=(3, 3), stride=(1, 1), padding=(1, 1), bias=False)
  (bn2): FrozenBatchNorm2d()
  (conv3): Conv2d(256, 1024, kernel_size=(1, 1), stride=(1, 1), bias=False)
  (bn3): FrozenBatchNorm2d()
)
DEBUG:root:			stride = 1
DEBUG:root:			in_channels = out_channels
DEBUG:root:
			}
DEBUG:root:		}// END for _ in range(block_count):

DEBUG:root:		return nn.Sequential(*blocks)

DEBUG:root:
	} // END _make_stage()
DEBUG:root:				}
DEBUG:root:			module = _make_stage(
DEBUG:root:				transformation_module = <class 'maskrcnn_benchmark.modeling.backbone.resnet.BottleneckWithFixedBatchNorm'>,
…
DEBUG:root:			# --------------
DEBUG:root:			blocks.append(
DEBUG:root:			    transformation_module(
DEBUG:root:			        in_channels=1024,
DEBUG:root:			        bottleneck_channels=512,
DEBUG:root:			        out_channels=2048,
DEBUG:root:			        num_groups=1,
DEBUG:root:			        stride_in_1x1=True,
DEBUG:root:			        stride=2,
DEBUG:root:			        dilation=1,
DEBUG:root:			        dcn_config={'stage_with_dcn': False, 'with_modulated_dcn': False, 'deformable_groups': 1}
DEBUG:root:			   )
DEBUG:root:			)

DEBUG:root:			blocks[-1]:BottleneckWithFixedBatchNorm(
  (downsample): Sequential(
    (0): Conv2d(1024, 2048, kernel_size=(1, 1), stride=(2, 2), bias=False)
    (1): FrozenBatchNorm2d()
  )
  (conv1): Conv2d(1024, 512, kernel_size=(1, 1), stride=(2, 2), bias=False)
  (bn1): FrozenBatchNorm2d()
  (conv2): Conv2d(512, 512, kernel_size=(3, 3), stride=(1, 1), padding=(1, 1), bias=False)
  (bn2): FrozenBatchNorm2d()
  (conv3): Conv2d(512, 2048, kernel_size=(1, 1), stride=(1, 1), bias=False)
  (bn3): FrozenBatchNorm2d()
)
DEBUG:root:			stride = 1
DEBUG:root:			in_channels = out_channels
DEBUG:root:
			}
DEBUG:root:			{
DEBUG:root:			# --------------
DEBUG:root:			# blocks.append iteration 2/3
DEBUG:root:			# --------------
DEBUG:root:			blocks.append(
DEBUG:root:			    transformation_module(
DEBUG:root:			        in_channels=2048,
DEBUG:root:			        bottleneck_channels=512,
DEBUG:root:			        out_channels=2048,
DEBUG:root:			        num_groups=1,
DEBUG:root:			        stride_in_1x1=True,
DEBUG:root:			        stride=1,
DEBUG:root:			        dilation=1,
DEBUG:root:			        dcn_config={'stage_with_dcn': False, 'with_modulated_dcn': False, 'deformable_groups': 1}
DEBUG:root:			   )
DEBUG:root:			)

DEBUG:root:			blocks[-1]:BottleneckWithFixedBatchNorm(
  (conv1): Conv2d(2048, 512, kernel_size=(1, 1), stride=(1, 1), bias=False)
  (bn1): FrozenBatchNorm2d()
  (conv2): Conv2d(512, 512, kernel_size=(3, 3), stride=(1, 1), padding=(1, 1), bias=False)
  (bn2): FrozenBatchNorm2d()
  (conv3): Conv2d(512, 2048, kernel_size=(1, 1), stride=(1, 1), bias=False)
  (bn3): FrozenBatchNorm2d()
)
DEBUG:root:			stride = 1
DEBUG:root:			in_channels = out_channels
DEBUG:root:
			}
DEBUG:root:			{
DEBUG:root:			# --------------
DEBUG:root:			# blocks.append iteration 3/3
DEBUG:root:			# --------------
DEBUG:root:			blocks.append(
DEBUG:root:			    transformation_module(
DEBUG:root:			        in_channels=2048,
DEBUG:root:			        bottleneck_channels=512,
DEBUG:root:			        out_channels=2048,
DEBUG:root:			        num_groups=1,
DEBUG:root:			        stride_in_1x1=True,
DEBUG:root:			        stride=1,
DEBUG:root:			        dilation=1,
DEBUG:root:			        dcn_config={'stage_with_dcn': False, 'with_modulated_dcn': False, 'deformable_groups': 1}
DEBUG:root:			   )
DEBUG:root:			)

DEBUG:root:			blocks[-1]:BottleneckWithFixedBatchNorm(
  (conv1): Conv2d(2048, 512, kernel_size=(1, 1), stride=(1, 1), bias=False)
  (bn1): FrozenBatchNorm2d()
  (conv2): Conv2d(512, 512, kernel_size=(3, 3), stride=(1, 1), padding=(1, 1), bias=False)
  (bn2): FrozenBatchNorm2d()
  (conv3): Conv2d(512, 2048, kernel_size=(1, 1), stride=(1, 1), bias=False)
  (bn3): FrozenBatchNorm2d()
)
DEBUG:root:			stride = 1
DEBUG:root:			in_channels = out_channels
DEBUG:root:
			}
DEBUG:root:		}// END for _ in range(block_count):

DEBUG:root:		return nn.Sequential(*blocks)

DEBUG:root:
	} // END _make_stage()
DEBUG:root:				}
DEBUG:root:			module = _make_stage(
DEBUG:root:				transformation_module = <class 'maskrcnn_benchmark.modeling.backbone.resnet.BottleneckWithFixedBatchNorm'>,
…
DEBUG:root:		// self.fpn_inner3: Conv2d(1024, 1024, kernel_size=(1, 1), stride=(1, 1))
DEBUG:root:		// self.fpn_inner4: Conv2d(2048, 1024, kernel_size=(1, 1), stride=(1, 1))
DEBUG:root:
	// self.layer_blocks: ['fpn_layer2', 'fpn_layer3', 'fpn_layer4']
DEBUG:root:		// self.fpn_layer2: Conv2d(1024, 1024, kernel_size=(3, 3), stride=(1, 1), padding=(1, 1))
DEBUG:root:		// self.fpn_layer3: Conv2d(1024, 1024, kernel_size=(3, 3), stride=(1, 1), padding=(1, 1))
DEBUG:root:		// self.fpn_layer4: Conv2d(1024, 1024, kernel_size=(3, 3), stride=(1, 1), padding=(1, 1))
DEBUG:root:
	// self.top_blocks: LastLevelP6P7(
  (p6): Conv2d(2048, 1024, kernel_size=(3, 3), stride=(2, 2), padding=(1, 1))
  (p7): Conv2d(1024, 1024, kernel_size=(3, 3), stride=(2, 2), padding=(1, 1))
)
DEBUG:root:
} // END FPN.__init__


DEBUG:root:
		fpn = fpn_module.FPN(
DEBUG:root:
				in_channels_list = [0, 512, 1024, 2048],
DEBUG:root:
				out_channels = 1024,
DEBUG:root:
				conv_block=conv_with_kaiming_uniform( cfg.MODEL.FPN.USE_GN =False, cfg.MODEL.FPN.USE_RELU =False ),
DEBUG:root:
				top_blocks=fpn_module.LastLevelP6P7(in_channels_p6p7=2048, out_channels=1024,) // RETURNED
DEBUG:root:
			// fpn: FPN(
  (fpn_inner2): Conv2d(512, 1024, kernel_size=(1, 1), stride=(1, 1))
  (fpn_layer2): Conv2d(1024, 1024, kernel_size=(3, 3), stride=(1, 1), padding=(1, 1))
  (fpn_inner3): Conv2d(1024, 1024, kernel_size=(1, 1), stride=(1, 1))
  (fpn_layer3): Conv2d(1024, 1024, kernel_size=(3, 3), stride=(1, 1), padding=(1, 1))
  (fpn_inner4): Conv2d(2048, 1024, kernel_size=(1, 1), stride=(1, 1))
  (fpn_layer4): Conv2d(1024, 1024, kernel_size=(3, 3), stride=(1, 1), padding=(1, 1))
  (top_blocks): LastLevelP6P7(
    (p6): Conv2d(2048, 1024, kernel_size=(3, 3), stride=(2, 2), padding=(1, 1))
    (p7): Conv2d(1024, 1024, kernel_size=(3, 3), stride=(2, 2), padding=(1, 1))
  )
)


DEBUG:root:		model = nn.Sequential(OrderedDict([("body", body), ("fpn", fpn)]))

DEBUG:root:		model.out_channels = out_channels
DEBUG:root:			// model.out_channels: 1024

DEBUG:root:		return model

DEBUG:root:	} // END build_resnet_fpn_p3p7_backbone(cfg)


DEBUG:root:	} // END build_backbone(cfg)

DEBUG:root:	}
DEBUG:root:	self.backbone = build_backbone(cfg) // RETURNED
…
DEBUG:root:				num_classes = cfg.MODEL.RETINANET.NUM_CLASSES - 1
DEBUG:root:				// num_classes: 1
DEBUG:root:				// cfg.MODEL.RETINANET.ASPECT_RATIOS: (0.5, 1.0, 2.0)
DEBUG:root:				// cfg.MODEL.RETINANET.SCALES_PER_OCTAVE: 3
DEBUG:root:				num_anchors = len(cfg.MODEL.RETINANET.ASPECT_RATIOS) \
DEBUG:root:				                * cfg.MODEL.RETINANET.SCALES_PER_OCTAVE
DEBUG:root:				// num_anchors: 9
DEBUG:root:

} // END RetinaNetHead._init__(cfg, in_channels)
DEBUG:root:	}
	head = RetinaNetHead(cfg, in_channels=1024) // RETURNED
DEBUG:root:	// head: RetinaNetHead(
  (cls_tower): Sequential(
    (0): Conv2d(1024, 1024, kernel_size=(3, 3), stride=(1, 1), padding=(1, 1))
    (1): ReLU()
    (2): Conv2d(1024, 1024, kernel_size=(3, 3), stride=(1, 1), padding=(1, 1))
    (3): ReLU()
    (4): Conv2d(1024, 1024, kernel_size=(3, 3), stride=(1, 1), padding=(1, 1))
    (5): ReLU()
    (6): Conv2d(1024, 1024, kernel_size=(3, 3), stride=(1, 1), padding=(1, 1))
    (7): ReLU()
  )
  (bbox_tower): Sequential(
    (0): Conv2d(1024, 1024, kernel_size=(3, 3), stride=(1, 1), padding=(1, 1))
    (1): ReLU()
    (2): Conv2d(1024, 1024, kernel_size=(3, 3), stride=(1, 1), padding=(1, 1))
    (3): ReLU()
    (4): Conv2d(1024, 1024, kernel_size=(3, 3), stride=(1, 1), padding=(1, 1))
    (5): ReLU()
    (6): Conv2d(1024, 1024, kernel_size=(3, 3), stride=(1, 1), padding=(1, 1))
    (7): ReLU()
  )
  (cls_logits): Conv2d(1024, 9, kernel_size=(3, 3), stride=(1, 1), padding=(1, 1))
  (bbox_pred): Conv2d(1024, 36, kernel_size=(3, 3), stride=(1, 1), padding=(1, 1))
)
DEBUG:root:	#============================
DEBUG:root:	# 1.2.3 RPN box_coder build
DEBUG:root:	#============================
DEBUG:root:	box_coder = BoxCoder(weights=(10., 10., 5., 5.)) // CALL
	{
DEBUG:root:		BoxCoder.__init__(self, weights, bbox_xfrom_clip)__ { // BEGIN
DEBUG:root:			// defined in /home/kimkk/work/lomin/maskrcnn_benchmark/modeling/box_coder.py
…
	box_selector_test = make_retinanet_postprocessor(cfg, box_coder) // RETURNED
DEBUG:root:	// box_selector_test: RetinaNetPostProcessor()
DEBUG:root:	self.anchor_generator = anchor_generator
DEBUG:root:	self.head = head
DEBUG:root:	self.box_selector_test = box_selector_test
DEBUG:root:

} // RetinaNetModule.__init__(self, cfg, in_channels) END
DEBUG:root:	} // END build_retinanet(cfg, in_channels)
DEBUG:root:	self.rpn = build_rpn(cfg, self.backbone.out_channels) // RETURNED


DEBUG:root:	// self.rpn: RetinaNetModule(
  (anchor_generator): AnchorGenerator(
    (cell_anchors): BufferList()
  )
  (head): RetinaNetHead(
    (cls_tower): Sequential(
      (0): Conv2d(1024, 1024, kernel_size=(3, 3), stride=(1, 1), padding=(1, 1))
      (1): ReLU()
      (2): Conv2d(1024, 1024, kernel_size=(3, 3), stride=(1, 1), padding=(1, 1))
      (3): ReLU()
      (4): Conv2d(1024, 1024, kernel_size=(3, 3), stride=(1, 1), padding=(1, 1))
      (5): ReLU()
      (6): Conv2d(1024, 1024, kernel_size=(3, 3), stride=(1, 1), padding=(1, 1))
      (7): ReLU()
    )
    (bbox_tower): Sequential(
      (0): Conv2d(1024, 1024, kernel_size=(3, 3), stride=(1, 1), padding=(1, 1))
      (1): ReLU()
      (2): Conv2d(1024, 1024, kernel_size=(3, 3), stride=(1, 1), padding=(1, 1))
      (3): ReLU()
      (4): Conv2d(1024, 1024, kernel_size=(3, 3), stride=(1, 1), padding=(1, 1))
      (5): ReLU()
      (6): Conv2d(1024, 1024, kernel_size=(3, 3), stride=(1, 1), padding=(1, 1))
      (7): ReLU()
    )
    (cls_logits): Conv2d(1024, 9, kernel_size=(3, 3), stride=(1, 1), padding=(1, 1))
    (bbox_pred): Conv2d(1024, 36, kernel_size=(3, 3), stride=(1, 1), padding=(1, 1))
  )
  (box_selector_test): RetinaNetPostProcessor()
)
DEBUG:root:
	} // END of 1.2

DEBUG:root:} // END GeneralizedRCNN.__init__(self, cfg)
DEBUG:root:	}
DEBUG:root:
	self.model = build_detection_model(self.cfg) // RETURNED
DEBUG:root:	// self.model: GeneralizedRCNN(
  (backbone): Sequential(
    (body): ResNet(
      (stem): StemWithFixedBatchNorm(
        (conv1): Conv2d(3, 64, kernel_size=(7, 7), stride=(2, 2), padding=(3, 3), bias=False)
        (bn1): FrozenBatchNorm2d()
      )
      (layer1): Sequential(
        (0): BottleneckWithFixedBatchNorm(
          (downsample): Sequential(
            (0): Conv2d(64, 256, kernel_size=(1, 1), stride=(1, 1), bias=False)
            (1): FrozenBatchNorm2d()
          )
          (conv1): Conv2d(64, 64, kernel_size=(1, 1), stride=(1, 1), bias=False)
          (bn1): FrozenBatchNorm2d()
          (conv2): Conv2d(64, 64, kernel_size=(3, 3), stride=(1, 1), padding=(1, 1), bias=False)
          (bn2): FrozenBatchNorm2d()
          (conv3): Conv2d(64, 256, kernel_size=(1, 1), stride=(1, 1), bias=False)
          (bn3): FrozenBatchNorm2d()
        )
        (1): BottleneckWithFixedBatchNorm(
          (conv1): Conv2d(256, 64, kernel_size=(1, 1), stride=(1, 1), bias=False)
          (bn1): FrozenBatchNorm2d()
          (conv2): Conv2d(64, 64, kernel_size=(3, 3), stride=(1, 1), padding=(1, 1), bias=False)
          (bn2): FrozenBatchNorm2d()
          (conv3): Conv2d(64, 256, kernel_size=(1, 1), stride=(1, 1), bias=False)
          (bn3): FrozenBatchNorm2d()
        )
        (2): BottleneckWithFixedBatchNorm(
          (conv1): Conv2d(256, 64, kernel_size=(1, 1), stride=(1, 1), bias=False)
          (bn1): FrozenBatchNorm2d()
          (conv2): Conv2d(64, 64, kernel_size=(3, 3), stride=(1, 1), padding=(1, 1), bias=False)
          (bn2): FrozenBatchNorm2d()
          (conv3): Conv2d(64, 256, kernel_size=(1, 1), stride=(1, 1), bias=False)
          (bn3): FrozenBatchNorm2d()
        )
      )
      (layer2): Sequential(
        (0): BottleneckWithFixedBatchNorm(
          (downsample): Sequential(
            (0): Conv2d(256, 512, kernel_size=(1, 1), stride=(2, 2), bias=False)
            (1): FrozenBatchNorm2d()
          )
          (conv1): Conv2d(256, 128, kernel_size=(1, 1), stride=(2, 2), bias=False)
          (bn1): FrozenBatchNorm2d()
          (conv2): Conv2d(128, 128, kernel_size=(3, 3), stride=(1, 1), padding=(1, 1), bias=False)
          (bn2): FrozenBatchNorm2d()
          (conv3): Conv2d(128, 512, kernel_size=(1, 1), stride=(1, 1), bias=False)
          (bn3): FrozenBatchNorm2d()
        )
        (1): BottleneckWithFixedBatchNorm(
          (conv1): Conv2d(512, 128, kernel_size=(1, 1), stride=(1, 1), bias=False)
          (bn1): FrozenBatchNorm2d()
          (conv2): Conv2d(128, 128, kernel_size=(3, 3), stride=(1, 1), padding=(1, 1), bias=False)
          (bn2): FrozenBatchNorm2d()
          (conv3): Conv2d(128, 512, kernel_size=(1, 1), stride=(1, 1), bias=False)
          (bn3): FrozenBatchNorm2d()
        )
        (2): BottleneckWithFixedBatchNorm(
          (conv1): Conv2d(512, 128, kernel_size=(1, 1), stride=(1, 1), bias=False)
          (bn1): FrozenBatchNorm2d()
          (conv2): Conv2d(128, 128, kernel_size=(3, 3), stride=(1, 1), padding=(1, 1), bias=False)
          (bn2): FrozenBatchNorm2d()
          (conv3): Conv2d(128, 512, kernel_size=(1, 1), stride=(1, 1), bias=False)
          (bn3): FrozenBatchNorm2d()
        )
        (3): BottleneckWithFixedBatchNorm(
          (conv1): Conv2d(512, 128, kernel_size=(1, 1), stride=(1, 1), bias=False)
          (bn1): FrozenBatchNorm2d()
          (conv2): Conv2d(128, 128, kernel_size=(3, 3), stride=(1, 1), padding=(1, 1), bias=False)
          (bn2): FrozenBatchNorm2d()
          (conv3): Conv2d(128, 512, kernel_size=(1, 1), stride=(1, 1), bias=False)
          (bn3): FrozenBatchNorm2d()
        )
      )
      (layer3): Sequential(
        (0): BottleneckWithFixedBatchNorm(
          (downsample): Sequential(
            (0): Conv2d(512, 1024, kernel_size=(1, 1), stride=(2, 2), bias=False)
            (1): FrozenBatchNorm2d()
          )
          (conv1): Conv2d(512, 256, kernel_size=(1, 1), stride=(2, 2), bias=False)
          (bn1): FrozenBatchNorm2d()
          (conv2): Conv2d(256, 256, kernel_size=(3, 3), stride=(1, 1), padding=(1, 1), bias=False)
          (bn2): FrozenBatchNorm2d()
          (conv3): Conv2d(256, 1024, kernel_size=(1, 1), stride=(1, 1), bias=False)
          (bn3): FrozenBatchNorm2d()
        )
        (1): BottleneckWithFixedBatchNorm(
          (conv1): Conv2d(1024, 256, kernel_size=(1, 1), stride=(1, 1), bias=False)
          (bn1): FrozenBatchNorm2d()
          (conv2): Conv2d(256, 256, kernel_size=(3, 3), stride=(1, 1), padding=(1, 1), bias=False)
          (bn2): FrozenBatchNorm2d()
          (conv3): Conv2d(256, 1024, kernel_size=(1, 1), stride=(1, 1), bias=False)
          (bn3): FrozenBatchNorm2d()
        )
        (2): BottleneckWithFixedBatchNorm(
          (conv1): Conv2d(1024, 256, kernel_size=(1, 1), stride=(1, 1), bias=False)
          (bn1): FrozenBatchNorm2d()
          (conv2): Conv2d(256, 256, kernel_size=(3, 3), stride=(1, 1), padding=(1, 1), bias=False)
          (bn2): FrozenBatchNorm2d()
          (conv3): Conv2d(256, 1024, kernel_size=(1, 1), stride=(1, 1), bias=False)
          (bn3): FrozenBatchNorm2d()
        )
        (3): BottleneckWithFixedBatchNorm(
          (conv1): Conv2d(1024, 256, kernel_size=(1, 1), stride=(1, 1), bias=False)
          (bn1): FrozenBatchNorm2d()
          (conv2): Conv2d(256, 256, kernel_size=(3, 3), stride=(1, 1), padding=(1, 1), bias=False)
          (bn2): FrozenBatchNorm2d()
          (conv3): Conv2d(256, 1024, kernel_size=(1, 1), stride=(1, 1), bias=False)
          (bn3): FrozenBatchNorm2d()
        )
        (4): BottleneckWithFixedBatchNorm(
          (conv1): Conv2d(1024, 256, kernel_size=(1, 1), stride=(1, 1), bias=False)
          (bn1): FrozenBatchNorm2d()
          (conv2): Conv2d(256, 256, kernel_size=(3, 3), stride=(1, 1), padding=(1, 1), bias=False)
          (bn2): FrozenBatchNorm2d()
          (conv3): Conv2d(256, 1024, kernel_size=(1, 1), stride=(1, 1), bias=False)
          (bn3): FrozenBatchNorm2d()
        )
        (5): BottleneckWithFixedBatchNorm(
          (conv1): Conv2d(1024, 256, kernel_size=(1, 1), stride=(1, 1), bias=False)
          (bn1): FrozenBatchNorm2d()
          (conv2): Conv2d(256, 256, kernel_size=(3, 3), stride=(1, 1), padding=(1, 1), bias=False)
          (bn2): FrozenBatchNorm2d()
          (conv3): Conv2d(256, 1024, kernel_size=(1, 1), stride=(1, 1), bias=False)
          (bn3): FrozenBatchNorm2d()
        )
      )
      (layer4): Sequential(
        (0): BottleneckWithFixedBatchNorm(
          (downsample): Sequential(
            (0): Conv2d(1024, 2048, kernel_size=(1, 1), stride=(2, 2), bias=False)
            (1): FrozenBatchNorm2d()
          )
          (conv1): Conv2d(1024, 512, kernel_size=(1, 1), stride=(2, 2), bias=False)
          (bn1): FrozenBatchNorm2d()
          (conv2): Conv2d(512, 512, kernel_size=(3, 3), stride=(1, 1), padding=(1, 1), bias=False)
          (bn2): FrozenBatchNorm2d()
          (conv3): Conv2d(512, 2048, kernel_size=(1, 1), stride=(1, 1), bias=False)
          (bn3): FrozenBatchNorm2d()
        )
        (1): BottleneckWithFixedBatchNorm(
          (conv1): Conv2d(2048, 512, kernel_size=(1, 1), stride=(1, 1), bias=False)
          (bn1): FrozenBatchNorm2d()
          (conv2): Conv2d(512, 512, kernel_size=(3, 3), stride=(1, 1), padding=(1, 1), bias=False)
          (bn2): FrozenBatchNorm2d()
          (conv3): Conv2d(512, 2048, kernel_size=(1, 1), stride=(1, 1), bias=False)
          (bn3): FrozenBatchNorm2d()
        )
        (2): BottleneckWithFixedBatchNorm(
          (conv1): Conv2d(2048, 512, kernel_size=(1, 1), stride=(1, 1), bias=False)
          (bn1): FrozenBatchNorm2d()
          (conv2): Conv2d(512, 512, kernel_size=(3, 3), stride=(1, 1), padding=(1, 1), bias=False)
          (bn2): FrozenBatchNorm2d()
          (conv3): Conv2d(512, 2048, kernel_size=(1, 1), stride=(1, 1), bias=False)
          (bn3): FrozenBatchNorm2d()
        )
      )
    )
    (fpn): FPN(
      (fpn_inner2): Conv2d(512, 1024, kernel_size=(1, 1), stride=(1, 1))
      (fpn_layer2): Conv2d(1024, 1024, kernel_size=(3, 3), stride=(1, 1), padding=(1, 1))
      (fpn_inner3): Conv2d(1024, 1024, kernel_size=(1, 1), stride=(1, 1))
      (fpn_layer3): Conv2d(1024, 1024, kernel_size=(3, 3), stride=(1, 1), padding=(1, 1))
      (fpn_inner4): Conv2d(2048, 1024, kernel_size=(1, 1), stride=(1, 1))
      (fpn_layer4): Conv2d(1024, 1024, kernel_size=(3, 3), stride=(1, 1), padding=(1, 1))
      (top_blocks): LastLevelP6P7(
        (p6): Conv2d(2048, 1024, kernel_size=(3, 3), stride=(2, 2), padding=(1, 1))
        (p7): Conv2d(1024, 1024, kernel_size=(3, 3), stride=(2, 2), padding=(1, 1))
      )
    )
  )
  (rpn): RetinaNetModule(
    (anchor_generator): AnchorGenerator(
      (cell_anchors): BufferList()
    )
    (head): RetinaNetHead(
      (cls_tower): Sequential(
        (0): Conv2d(1024, 1024, kernel_size=(3, 3), stride=(1, 1), padding=(1, 1))
        (1): ReLU()
        (2): Conv2d(1024, 1024, kernel_size=(3, 3), stride=(1, 1), padding=(1, 1))
        (3): ReLU()
        (4): Conv2d(1024, 1024, kernel_size=(3, 3), stride=(1, 1), padding=(1, 1))
        (5): ReLU()
        (6): Conv2d(1024, 1024, kernel_size=(3, 3), stride=(1, 1), padding=(1, 1))
        (7): ReLU()
      )
      (bbox_tower): Sequential(
        (0): Conv2d(1024, 1024, kernel_size=(3, 3), stride=(1, 1), padding=(1, 1))
        (1): ReLU()
        (2): Conv2d(1024, 1024, kernel_size=(3, 3), stride=(1, 1), padding=(1, 1))
        (3): ReLU()
        (4): Conv2d(1024, 1024, kernel_size=(3, 3), stride=(1, 1), padding=(1, 1))
        (5): ReLU()
        (6): Conv2d(1024, 1024, kernel_size=(3, 3), stride=(1, 1), padding=(1, 1))
        (7): ReLU()
      )
      (cls_logits): Conv2d(1024, 9, kernel_size=(3, 3), stride=(1, 1), padding=(1, 1))
      (bbox_pred): Conv2d(1024, 36, kernel_size=(3, 3), stride=(1, 1), padding=(1, 1))
    )
    (box_selector_test): RetinaNetPostProcessor()
  )
)


DEBUG:root:	# -----------------------------------------
DEBUG:root:	# 1.3 set to evaluation mode for interference
DEBUG:root:	# -----------------------------------------
DEBUG:root:	self.model.eval()

DEBUG:root:	// in detection_model_debug.py
DEBUG:root:	# -----------------------------------------
…
DEBUG:root:		#=========================================
DEBUG:root:		for idx, feature in enumerate(x) {
DEBUG:root:			{
DEBUG:root:			# BEGIN iteration: 1/5

DEBUG:root:			// ===================================
DEBUG:root:			// feature P2 of shape: torch.Size([1, 1024, 60, 72])
DEBUG:root:			// ===================================
DEBUG:root:			# 2-3-2-1-1. append cls_logits(cls_tower(feature))
DEBUG:root:			logits.append(self.cls_logits(self.cls_tower(feature)))
DEBUG:root:			logits.append(self.cls_logits(self.cls_tower(feature)))
DEBUG:root:				// feature.shape: torch.Size([1, 1024, 60, 72])
DEBUG:root:				// self.cls_tower: Sequential(
  (0): Conv2d(1024, 1024, kernel_size=(3, 3), stride=(1, 1), padding=(1, 1))
  (1): ReLU()
  (2): Conv2d(1024, 1024, kernel_size=(3, 3), stride=(1, 1), padding=(1, 1))
  (3): ReLU()
  (4): Conv2d(1024, 1024, kernel_size=(3, 3), stride=(1, 1), padding=(1, 1))
  (5): ReLU()
  (6): Conv2d(1024, 1024, kernel_size=(3, 3), stride=(1, 1), padding=(1, 1))
  (7): ReLU()
)
DEBUG:root:				// self.cls_logits: Conv2d(1024, 9, kernel_size=(3, 3), stride=(1, 1), padding=(1, 1))
DEBUG:root:				// logits[-1].shape: torch.Size([1, 9, 60, 72])
DEBUG:root:				// len(logits): 1

DEBUG:root:			# 2-3-2-1-2. append bbox_pred(bbox_tower(feature))
DEBUG:root:			bbox_reg.append(self.bbox_pred(self.bbox_tower(feature)))
DEBUG:root:				// feature.shape: torch.Size([1, 1024, 60, 72])
DEBUG:root:				// self.bbox_tower: Sequential(
  (0): Conv2d(1024, 1024, kernel_size=(3, 3), stride=(1, 1), padding=(1, 1))
  (1): ReLU()
  (2): Conv2d(1024, 1024, kernel_size=(3, 3), stride=(1, 1), padding=(1, 1))
  (3): ReLU()
  (4): Conv2d(1024, 1024, kernel_size=(3, 3), stride=(1, 1), padding=(1, 1))
  (5): ReLU()
  (6): Conv2d(1024, 1024, kernel_size=(3, 3), stride=(1, 1), padding=(1, 1))
  (7): ReLU()
)
DEBUG:root:				// self.bbox_pred: Conv2d(1024, 36, kernel_size=(3, 3), stride=(1, 1), padding=(1, 1))
DEBUG:root:				// bbox_reg[-1].shape: torch.Size([1, 36, 60, 72])
DEBUG:root:				// len(bbox_reg): 1

DEBUG:root:			} // END iteration: 1/5

DEBUG:root:			{
DEBUG:root:			# BEGIN iteration: 2/5

DEBUG:root:			// ===================================
DEBUG:root:			// feature P3 of shape: torch.Size([1, 1024, 30, 36])
DEBUG:root:			// ===================================
DEBUG:root:			# 2-3-2-1-1. append cls_logits(cls_tower(feature))
DEBUG:root:			logits.append(self.cls_logits(self.cls_tower(feature)))
DEBUG:root:			logits.append(self.cls_logits(self.cls_tower(feature)))
DEBUG:root:				// feature.shape: torch.Size([1, 1024, 30, 36])
DEBUG:root:				// self.cls_tower: Sequential(
  (0): Conv2d(1024, 1024, kernel_size=(3, 3), stride=(1, 1), padding=(1, 1))
  (1): ReLU()
  (2): Conv2d(1024, 1024, kernel_size=(3, 3), stride=(1, 1), padding=(1, 1))
  (3): ReLU()
  (4): Conv2d(1024, 1024, kernel_size=(3, 3), stride=(1, 1), padding=(1, 1))
  (5): ReLU()
  (6): Conv2d(1024, 1024, kernel_size=(3, 3), stride=(1, 1), padding=(1, 1))
  (7): ReLU()
)
DEBUG:root:				// self.cls_logits: Conv2d(1024, 9, kernel_size=(3, 3), stride=(1, 1), padding=(1, 1))
DEBUG:root:				// logits[-1].shape: torch.Size([1, 9, 30, 36])
DEBUG:root:				// len(logits): 2

DEBUG:root:			# 2-3-2-1-2. append bbox_pred(bbox_tower(feature))
DEBUG:root:			bbox_reg.append(self.bbox_pred(self.bbox_tower(feature)))
DEBUG:root:				// feature.shape: torch.Size([1, 1024, 30, 36])
DEBUG:root:				// self.bbox_tower: Sequential(
  (0): Conv2d(1024, 1024, kernel_size=(3, 3), stride=(1, 1), padding=(1, 1))
  (1): ReLU()
  (2): Conv2d(1024, 1024, kernel_size=(3, 3), stride=(1, 1), padding=(1, 1))
  (3): ReLU()
  (4): Conv2d(1024, 1024, kernel_size=(3, 3), stride=(1, 1), padding=(1, 1))
  (5): ReLU()
  (6): Conv2d(1024, 1024, kernel_size=(3, 3), stride=(1, 1), padding=(1, 1))
  (7): ReLU()
)
DEBUG:root:				// self.bbox_pred: Conv2d(1024, 36, kernel_size=(3, 3), stride=(1, 1), padding=(1, 1))
DEBUG:root:				// bbox_reg[-1].shape: torch.Size([1, 36, 30, 36])
DEBUG:root:				// len(bbox_reg): 2

DEBUG:root:			} // END iteration: 2/5

DEBUG:root:			{
DEBUG:root:			# BEGIN iteration: 3/5

DEBUG:root:			// ===================================
DEBUG:root:			// feature P4 of shape: torch.Size([1, 1024, 15, 18])
DEBUG:root:			// ===================================
DEBUG:root:			# 2-3-2-1-1. append cls_logits(cls_tower(feature))
DEBUG:root:			logits.append(self.cls_logits(self.cls_tower(feature)))
DEBUG:root:			logits.append(self.cls_logits(self.cls_tower(feature)))
DEBUG:root:				// feature.shape: torch.Size([1, 1024, 15, 18])
DEBUG:root:				// self.cls_tower: Sequential(
  (0): Conv2d(1024, 1024, kernel_size=(3, 3), stride=(1, 1), padding=(1, 1))
  (1): ReLU()
  (2): Conv2d(1024, 1024, kernel_size=(3, 3), stride=(1, 1), padding=(1, 1))
  (3): ReLU()
  (4): Conv2d(1024, 1024, kernel_size=(3, 3), stride=(1, 1), padding=(1, 1))
  (5): ReLU()
  (6): Conv2d(1024, 1024, kernel_size=(3, 3), stride=(1, 1), padding=(1, 1))
  (7): ReLU()
)
DEBUG:root:				// self.cls_logits: Conv2d(1024, 9, kernel_size=(3, 3), stride=(1, 1), padding=(1, 1))
DEBUG:root:				// logits[-1].shape: torch.Size([1, 9, 15, 18])
DEBUG:root:				// len(logits): 3

DEBUG:root:			# 2-3-2-1-2. append bbox_pred(bbox_tower(feature))
DEBUG:root:			bbox_reg.append(self.bbox_pred(self.bbox_tower(feature)))
DEBUG:root:				// feature.shape: torch.Size([1, 1024, 15, 18])
DEBUG:root:				// self.bbox_tower: Sequential(
  (0): Conv2d(1024, 1024, kernel_size=(3, 3), stride=(1, 1), padding=(1, 1))
  (1): ReLU()
  (2): Conv2d(1024, 1024, kernel_size=(3, 3), stride=(1, 1), padding=(1, 1))
  (3): ReLU()
  (4): Conv2d(1024, 1024, kernel_size=(3, 3), stride=(1, 1), padding=(1, 1))
  (5): ReLU()
  (6): Conv2d(1024, 1024, kernel_size=(3, 3), stride=(1, 1), padding=(1, 1))
  (7): ReLU()
)
DEBUG:root:				// self.bbox_pred: Conv2d(1024, 36, kernel_size=(3, 3), stride=(1, 1), padding=(1, 1))
DEBUG:root:				// bbox_reg[-1].shape: torch.Size([1, 36, 15, 18])
DEBUG:root:				// len(bbox_reg): 3

DEBUG:root:			} // END iteration: 3/5

DEBUG:root:			{
DEBUG:root:			# BEGIN iteration: 4/5

DEBUG:root:			// ===================================
DEBUG:root:			// feature p6 of shape: torch.Size([1, 1024, 8, 9])
DEBUG:root:			// ===================================
DEBUG:root:			# 2-3-2-1-1. append cls_logits(cls_tower(feature))
DEBUG:root:			logits.append(self.cls_logits(self.cls_tower(feature)))
DEBUG:root:			logits.append(self.cls_logits(self.cls_tower(feature)))
DEBUG:root:				// feature.shape: torch.Size([1, 1024, 8, 9])
DEBUG:root:				// self.cls_tower: Sequential(
  (0): Conv2d(1024, 1024, kernel_size=(3, 3), stride=(1, 1), padding=(1, 1))
  (1): ReLU()
  (2): Conv2d(1024, 1024, kernel_size=(3, 3), stride=(1, 1), padding=(1, 1))
  (3): ReLU()
  (4): Conv2d(1024, 1024, kernel_size=(3, 3), stride=(1, 1), padding=(1, 1))
  (5): ReLU()
  (6): Conv2d(1024, 1024, kernel_size=(3, 3), stride=(1, 1), padding=(1, 1))
  (7): ReLU()
)
DEBUG:root:				// self.cls_logits: Conv2d(1024, 9, kernel_size=(3, 3), stride=(1, 1), padding=(1, 1))
DEBUG:root:				// logits[-1].shape: torch.Size([1, 9, 8, 9])
DEBUG:root:				// len(logits): 4

DEBUG:root:			# 2-3-2-1-2. append bbox_pred(bbox_tower(feature))
DEBUG:root:			bbox_reg.append(self.bbox_pred(self.bbox_tower(feature)))
DEBUG:root:				// feature.shape: torch.Size([1, 1024, 8, 9])
DEBUG:root:				// self.bbox_tower: Sequential(
  (0): Conv2d(1024, 1024, kernel_size=(3, 3), stride=(1, 1), padding=(1, 1))
  (1): ReLU()
  (2): Conv2d(1024, 1024, kernel_size=(3, 3), stride=(1, 1), padding=(1, 1))
  (3): ReLU()
  (4): Conv2d(1024, 1024, kernel_size=(3, 3), stride=(1, 1), padding=(1, 1))
  (5): ReLU()
  (6): Conv2d(1024, 1024, kernel_size=(3, 3), stride=(1, 1), padding=(1, 1))
  (7): ReLU()
)
DEBUG:root:				// self.bbox_pred: Conv2d(1024, 36, kernel_size=(3, 3), stride=(1, 1), padding=(1, 1))
DEBUG:root:				// bbox_reg[-1].shape: torch.Size([1, 36, 8, 9])
DEBUG:root:				// len(bbox_reg): 4

DEBUG:root:			} // END iteration: 4/5

DEBUG:root:			{
DEBUG:root:			# BEGIN iteration: 5/5

DEBUG:root:			// ===================================
DEBUG:root:			// feature p7 of shape: torch.Size([1, 1024, 4, 5])
DEBUG:root:			// ===================================
DEBUG:root:			# 2-3-2-1-1. append cls_logits(cls_tower(feature))
DEBUG:root:			logits.append(self.cls_logits(self.cls_tower(feature)))
DEBUG:root:			logits.append(self.cls_logits(self.cls_tower(feature)))
DEBUG:root:				// feature.shape: torch.Size([1, 1024, 4, 5])
DEBUG:root:				// self.cls_tower: Sequential(
  (0): Conv2d(1024, 1024, kernel_size=(3, 3), stride=(1, 1), padding=(1, 1))
  (1): ReLU()
  (2): Conv2d(1024, 1024, kernel_size=(3, 3), stride=(1, 1), padding=(1, 1))
  (3): ReLU()
  (4): Conv2d(1024, 1024, kernel_size=(3, 3), stride=(1, 1), padding=(1, 1))
  (5): ReLU()
  (6): Conv2d(1024, 1024, kernel_size=(3, 3), stride=(1, 1), padding=(1, 1))
  (7): ReLU()
)
DEBUG:root:				// self.cls_logits: Conv2d(1024, 9, kernel_size=(3, 3), stride=(1, 1), padding=(1, 1))
DEBUG:root:				// logits[-1].shape: torch.Size([1, 9, 4, 5])
DEBUG:root:				// len(logits): 5

DEBUG:root:			# 2-3-2-1-2. append bbox_pred(bbox_tower(feature))
DEBUG:root:			bbox_reg.append(self.bbox_pred(self.bbox_tower(feature)))
DEBUG:root:				// feature.shape: torch.Size([1, 1024, 4, 5])
DEBUG:root:				// self.bbox_tower: Sequential(
  (0): Conv2d(1024, 1024, kernel_size=(3, 3), stride=(1, 1), padding=(1, 1))
  (1): ReLU()
  (2): Conv2d(1024, 1024, kernel_size=(3, 3), stride=(1, 1), padding=(1, 1))
  (3): ReLU()
  (4): Conv2d(1024, 1024, kernel_size=(3, 3), stride=(1, 1), padding=(1, 1))
  (5): ReLU()
  (6): Conv2d(1024, 1024, kernel_size=(3, 3), stride=(1, 1), padding=(1, 1))
  (7): ReLU()
)
DEBUG:root:				// self.bbox_pred: Conv2d(1024, 36, kernel_size=(3, 3), stride=(1, 1), padding=(1, 1))
DEBUG:root:				// bbox_reg[-1].shape: torch.Size([1, 36, 4, 5])
DEBUG:root:				// len(bbox_reg): 5

DEBUG:root:			} // END iteration: 5/5

DEBUG:root:

		}// END for idx, feature n enumerate(x)

DEBUG:root:		// ==== logits ====
…
