…
=========================================== RetinaNetModule.forward(self, images, features, targets=None): BEGIN
DEBUG:root:	Params:
DEBUG:root:		type(images.image_size): <class 'list'>
DEBUG:root:		type(images.tensors): <class 'torch.Tensor'>
DEBUG:root:		len(features)): 5
DEBUG:root:			feature[0].shape: torch.Size([1, 1024, 60, 72])
DEBUG:root:			feature[1].shape: torch.Size([1, 1024, 30, 36])
DEBUG:root:			feature[2].shape: torch.Size([1, 1024, 15, 18])
DEBUG:root:			feature[3].shape: torch.Size([1, 1024, 8, 9])
DEBUG:root:			feature[4].shape: torch.Size([1, 1024, 4, 5])
DEBUG:root:self.head: RetinaNetHead(
  (cls_tower): Sequential(
    (0): Conv2d(1024, 1024, kernel_size=(3, 3), stride=(1, 1), padding=(1, 1))
    (1): ReLU()
    (2): Conv2d(1024, 1024, kernel_size=(3, 3), stride=(1, 1), padding=(1, 1))
    (3): ReLU()
    (4): Conv2d(1024, 1024, kernel_size=(3, 3), stride=(1, 1), padding=(1, 1))
    (5): ReLU()
    (6): Conv2d(1024, 1024, kernel_size=(3, 3), stride=(1, 1), padding=(1, 1))
    (7): ReLU()
  )
  (bbox_tower): Sequential(
    (0): Conv2d(1024, 1024, kernel_size=(3, 3), stride=(1, 1), padding=(1, 1))
    (1): ReLU()
    (2): Conv2d(1024, 1024, kernel_size=(3, 3), stride=(1, 1), padding=(1, 1))
    (3): ReLU()
    (4): Conv2d(1024, 1024, kernel_size=(3, 3), stride=(1, 1), padding=(1, 1))
    (5): ReLU()
    (6): Conv2d(1024, 1024, kernel_size=(3, 3), stride=(1, 1), padding=(1, 1))
    (7): ReLU()
  )
  (cls_logits): Conv2d(1024, 9, kernel_size=(3, 3), stride=(1, 1), padding=(1, 1))
  (bbox_pred): Conv2d(1024, 36, kernel_size=(3, 3), stride=(1, 1), padding=(1, 1))
)
DEBUG:root:box_cls, box_regression = self.head(features)
DEBUG:root:

=========================================== RetinaNetHead.forward(self, x): BEGIN
DEBUG:root:	Param:
DEBUG:root:		len(x)): 5 x is features returned from FPN
DEBUG:root:			x[0].shape: torch.Size([1, 1024, 60, 72])
DEBUG:root:			x[1].shape: torch.Size([1, 1024, 30, 36])
…
