…
			transformation_module = <class 'maskrcnn_benchmark.modeling.backbone.resnet.BottleneckWithFixedBatchNorm'>,
			in_channels = 64,
			bottleneck_channels = 64,
			out_channels = 256,
			stage_spec.block_count = 3,
			num_groups = 1,
			cfg.MODEL.RESNETS.STRIDE_IN_1X1 : True,
			first_stride=int(stage_spec.index > 1) + 1: 1,
			dcn_config={
				'stage_with_dcn': False,
				'with_modulated_dcn': False,
				'deformable_groups': 1,
				}
			)
		in_channels = out_channels
		in_channels: 256
		self.add_module(name=layer1, module=Sequential(
  (0): BottleneckWithFixedBatchNorm(
    (downsample): Sequential(
      (0): Conv2d(64, 256, kernel_size=(1, 1), stride=(1, 1), bias=False)
      (1): FrozenBatchNorm2d()
    )
    (conv1): Conv2d(64, 64, kernel_size=(1, 1), stride=(1, 1), bias=False)
    (bn1): FrozenBatchNorm2d()
    (conv2): Conv2d(64, 64, kernel_size=(3, 3), stride=(1, 1), padding=(1, 1), bias=False)
    (bn2): FrozenBatchNorm2d()
    (conv3): Conv2d(64, 256, kernel_size=(1, 1), stride=(1, 1), bias=False)
    (bn3): FrozenBatchNorm2d()
  )
  (1): BottleneckWithFixedBatchNorm(
    (conv1): Conv2d(256, 64, kernel_size=(1, 1), stride=(1, 1), bias=False)
    (bn1): FrozenBatchNorm2d()
    (conv2): Conv2d(64, 64, kernel_size=(3, 3), stride=(1, 1), padding=(1, 1), bias=False)
    (bn2): FrozenBatchNorm2d()
    (conv3): Conv2d(64, 256, kernel_size=(1, 1), stride=(1, 1), bias=False)
    (bn3): FrozenBatchNorm2d()
  )
  (2): BottleneckWithFixedBatchNorm(
    (conv1): Conv2d(256, 64, kernel_size=(1, 1), stride=(1, 1), bias=False)
    (bn1): FrozenBatchNorm2d()
    (conv2): Conv2d(64, 64, kernel_size=(3, 3), stride=(1, 1), padding=(1, 1), bias=False)
    (bn2): FrozenBatchNorm2d()
    (conv3): Conv2d(64, 256, kernel_size=(1, 1), stride=(1, 1), bias=False)
    (bn3): FrozenBatchNorm2d()
  )
))
		self.stages.append(name=layer1)
		name: layer1
		stage_spec.return_features: True
		self.return_features[name] = stage_spec.return_features
		stage_spec: StageSpec(index=2, block_count=4, return_features=True)
		stage_spec.index: 2
		name = "layer" + str(stage_spec.index)
		name: layer2
		stage2_relative_factor = 2 ** (stage_spec.index - 1)
…
			transformation_module = <class 'maskrcnn_benchmark.modeling.backbone.resnet.BottleneckWithFixedBatchNorm'>,
			in_channels = 256,
			bottleneck_channels = 128,
			out_channels = 512,
			stage_spec.block_count = 4,
			num_groups = 1,
			cfg.MODEL.RESNETS.STRIDE_IN_1X1 : True,
			first_stride=int(stage_spec.index > 1) + 1: 2,
			dcn_config={
				'stage_with_dcn': False,
				'with_modulated_dcn': False,
				'deformable_groups': 1,
				}
			)
		in_channels = out_channels
		in_channels: 512
		self.add_module(name=layer2, module=Sequential(
  (0): BottleneckWithFixedBatchNorm(
    (downsample): Sequential(
      (0): Conv2d(256, 512, kernel_size=(1, 1), stride=(2, 2), bias=False)
      (1): FrozenBatchNorm2d()
    )
    (conv1): Conv2d(256, 128, kernel_size=(1, 1), stride=(2, 2), bias=False)
    (bn1): FrozenBatchNorm2d()
    (conv2): Conv2d(128, 128, kernel_size=(3, 3), stride=(1, 1), padding=(1, 1), bias=False)
    (bn2): FrozenBatchNorm2d()
    (conv3): Conv2d(128, 512, kernel_size=(1, 1), stride=(1, 1), bias=False)
    (bn3): FrozenBatchNorm2d()
  )
  (1): BottleneckWithFixedBatchNorm(
    (conv1): Conv2d(512, 128, kernel_size=(1, 1), stride=(1, 1), bias=False)
    (bn1): FrozenBatchNorm2d()
    (conv2): Conv2d(128, 128, kernel_size=(3, 3), stride=(1, 1), padding=(1, 1), bias=False)
    (bn2): FrozenBatchNorm2d()
    (conv3): Conv2d(128, 512, kernel_size=(1, 1), stride=(1, 1), bias=False)
    (bn3): FrozenBatchNorm2d()
  )
  (2): BottleneckWithFixedBatchNorm(
    (conv1): Conv2d(512, 128, kernel_size=(1, 1), stride=(1, 1), bias=False)
    (bn1): FrozenBatchNorm2d()
    (conv2): Conv2d(128, 128, kernel_size=(3, 3), stride=(1, 1), padding=(1, 1), bias=False)
    (bn2): FrozenBatchNorm2d()
    (conv3): Conv2d(128, 512, kernel_size=(1, 1), stride=(1, 1), bias=False)
    (bn3): FrozenBatchNorm2d()
  )
  (3): BottleneckWithFixedBatchNorm(
    (conv1): Conv2d(512, 128, kernel_size=(1, 1), stride=(1, 1), bias=False)
    (bn1): FrozenBatchNorm2d()
    (conv2): Conv2d(128, 128, kernel_size=(3, 3), stride=(1, 1), padding=(1, 1), bias=False)
    (bn2): FrozenBatchNorm2d()
    (conv3): Conv2d(128, 512, kernel_size=(1, 1), stride=(1, 1), bias=False)
    (bn3): FrozenBatchNorm2d()
  )
))
		self.stages.append(name=layer2)
		name: layer2
		stage_spec.return_features: True
		self.return_features[name] = stage_spec.return_features
		stage_spec: StageSpec(index=3, block_count=6, return_features=True)
		stage_spec.index: 3
		name = "layer" + str(stage_spec.index)
		name: layer3
		stage2_relative_factor = 2 ** (stage_spec.index - 1)
…
			transformation_module = <class 'maskrcnn_benchmark.modeling.backbone.resnet.BottleneckWithFixedBatchNorm'>,
			in_channels = 512,
			bottleneck_channels = 256,
			out_channels = 1024,
			stage_spec.block_count = 6,
			num_groups = 1,
			cfg.MODEL.RESNETS.STRIDE_IN_1X1 : True,
			first_stride=int(stage_spec.index > 1) + 1: 2,
			dcn_config={
				'stage_with_dcn': False,
				'with_modulated_dcn': False,
				'deformable_groups': 1,
				}
			)
		in_channels = out_channels
		in_channels: 1024
		self.add_module(name=layer3, module=Sequential(
  (0): BottleneckWithFixedBatchNorm(
    (downsample): Sequential(
      (0): Conv2d(512, 1024, kernel_size=(1, 1), stride=(2, 2), bias=False)
      (1): FrozenBatchNorm2d()
    )
    (conv1): Conv2d(512, 256, kernel_size=(1, 1), stride=(2, 2), bias=False)
    (bn1): FrozenBatchNorm2d()
    (conv2): Conv2d(256, 256, kernel_size=(3, 3), stride=(1, 1), padding=(1, 1), bias=False)
    (bn2): FrozenBatchNorm2d()
    (conv3): Conv2d(256, 1024, kernel_size=(1, 1), stride=(1, 1), bias=False)
    (bn3): FrozenBatchNorm2d()
  )
  (1): BottleneckWithFixedBatchNorm(
    (conv1): Conv2d(1024, 256, kernel_size=(1, 1), stride=(1, 1), bias=False)
    (bn1): FrozenBatchNorm2d()
    (conv2): Conv2d(256, 256, kernel_size=(3, 3), stride=(1, 1), padding=(1, 1), bias=False)
    (bn2): FrozenBatchNorm2d()
    (conv3): Conv2d(256, 1024, kernel_size=(1, 1), stride=(1, 1), bias=False)
    (bn3): FrozenBatchNorm2d()
  )
  (2): BottleneckWithFixedBatchNorm(
    (conv1): Conv2d(1024, 256, kernel_size=(1, 1), stride=(1, 1), bias=False)
    (bn1): FrozenBatchNorm2d()
    (conv2): Conv2d(256, 256, kernel_size=(3, 3), stride=(1, 1), padding=(1, 1), bias=False)
    (bn2): FrozenBatchNorm2d()
    (conv3): Conv2d(256, 1024, kernel_size=(1, 1), stride=(1, 1), bias=False)
    (bn3): FrozenBatchNorm2d()
  )
  (3): BottleneckWithFixedBatchNorm(
    (conv1): Conv2d(1024, 256, kernel_size=(1, 1), stride=(1, 1), bias=False)
    (bn1): FrozenBatchNorm2d()
    (conv2): Conv2d(256, 256, kernel_size=(3, 3), stride=(1, 1), padding=(1, 1), bias=False)
    (bn2): FrozenBatchNorm2d()
    (conv3): Conv2d(256, 1024, kernel_size=(1, 1), stride=(1, 1), bias=False)
    (bn3): FrozenBatchNorm2d()
  )
  (4): BottleneckWithFixedBatchNorm(
    (conv1): Conv2d(1024, 256, kernel_size=(1, 1), stride=(1, 1), bias=False)
    (bn1): FrozenBatchNorm2d()
    (conv2): Conv2d(256, 256, kernel_size=(3, 3), stride=(1, 1), padding=(1, 1), bias=False)
    (bn2): FrozenBatchNorm2d()
    (conv3): Conv2d(256, 1024, kernel_size=(1, 1), stride=(1, 1), bias=False)
    (bn3): FrozenBatchNorm2d()
  )
  (5): BottleneckWithFixedBatchNorm(
    (conv1): Conv2d(1024, 256, kernel_size=(1, 1), stride=(1, 1), bias=False)
    (bn1): FrozenBatchNorm2d()
    (conv2): Conv2d(256, 256, kernel_size=(3, 3), stride=(1, 1), padding=(1, 1), bias=False)
    (bn2): FrozenBatchNorm2d()
    (conv3): Conv2d(256, 1024, kernel_size=(1, 1), stride=(1, 1), bias=False)
    (bn3): FrozenBatchNorm2d()
  )
))
		self.stages.append(name=layer3)
		name: layer3
		stage_spec.return_features: True
		self.return_features[name] = stage_spec.return_features
		stage_spec: StageSpec(index=4, block_count=3, return_features=True)
		stage_spec.index: 4
		name = "layer" + str(stage_spec.index)
		name: layer4
		stage2_relative_factor = 2 ** (stage_spec.index - 1)
…
			transformation_module = <class 'maskrcnn_benchmark.modeling.backbone.resnet.BottleneckWithFixedBatchNorm'>,
			in_channels = 1024,
			bottleneck_channels = 512,
			out_channels = 2048,
			stage_spec.block_count = 3,
			num_groups = 1,
			cfg.MODEL.RESNETS.STRIDE_IN_1X1 : True,
			first_stride=int(stage_spec.index > 1) + 1: 2,
			dcn_config={
				'stage_with_dcn': False,
				'with_modulated_dcn': False,
				'deformable_groups': 1,
				}
			)
		in_channels = out_channels
		in_channels: 2048
		self.add_module(name=layer4, module=Sequential(
  (0): BottleneckWithFixedBatchNorm(
    (downsample): Sequential(
      (0): Conv2d(1024, 2048, kernel_size=(1, 1), stride=(2, 2), bias=False)
      (1): FrozenBatchNorm2d()
    )
    (conv1): Conv2d(1024, 512, kernel_size=(1, 1), stride=(2, 2), bias=False)
    (bn1): FrozenBatchNorm2d()
    (conv2): Conv2d(512, 512, kernel_size=(3, 3), stride=(1, 1), padding=(1, 1), bias=False)
    (bn2): FrozenBatchNorm2d()
    (conv3): Conv2d(512, 2048, kernel_size=(1, 1), stride=(1, 1), bias=False)
    (bn3): FrozenBatchNorm2d()
  )
  (1): BottleneckWithFixedBatchNorm(
    (conv1): Conv2d(2048, 512, kernel_size=(1, 1), stride=(1, 1), bias=False)
    (bn1): FrozenBatchNorm2d()
    (conv2): Conv2d(512, 512, kernel_size=(3, 3), stride=(1, 1), padding=(1, 1), bias=False)
    (bn2): FrozenBatchNorm2d()
    (conv3): Conv2d(512, 2048, kernel_size=(1, 1), stride=(1, 1), bias=False)
    (bn3): FrozenBatchNorm2d()
  )
  (2): BottleneckWithFixedBatchNorm(
    (conv1): Conv2d(2048, 512, kernel_size=(1, 1), stride=(1, 1), bias=False)
    (bn1): FrozenBatchNorm2d()
    (conv2): Conv2d(512, 512, kernel_size=(3, 3), stride=(1, 1), padding=(1, 1), bias=False)
    (bn2): FrozenBatchNorm2d()
    (conv3): Conv2d(512, 2048, kernel_size=(1, 1), stride=(1, 1), bias=False)
    (bn3): FrozenBatchNorm2d()
  )
))
		self.stages.append(name=layer4)
		name: layer4
		stage_spec.return_features: True
		self.return_features[name] = stage_spec.return_features
		cfg.MODEL.BACKBONE.FREEZE_CONV_BODY_AT: 2)
		self._freeze_backbone(cfg.MODEL.BACKBONE.FREEZE_CONV_BODY_AT)

	=========================================== Resnet.__freeze_backbone() START
	=========================================== Resnet.__freeze_backbone() END

=========================================== Resnet.__init__ END

	body = resnet.ResNet(cfg)
	body: ResNet(
  (stem): StemWithFixedBatchNorm(
    (conv1): Conv2d(3, 64, kernel_size=(7, 7), stride=(2, 2), padding=(3, 3), bias=False)
    (bn1): FrozenBatchNorm2d()
  )
  (layer1): Sequential(
    (0): BottleneckWithFixedBatchNorm(
      (downsample): Sequential(
        (0): Conv2d(64, 256, kernel_size=(1, 1), stride=(1, 1), bias=False)
        (1): FrozenBatchNorm2d()
      )
      (conv1): Conv2d(64, 64, kernel_size=(1, 1), stride=(1, 1), bias=False)
      (bn1): FrozenBatchNorm2d()
      (conv2): Conv2d(64, 64, kernel_size=(3, 3), stride=(1, 1), padding=(1, 1), bias=False)
      (bn2): FrozenBatchNorm2d()
      (conv3): Conv2d(64, 256, kernel_size=(1, 1), stride=(1, 1), bias=False)
      (bn3): FrozenBatchNorm2d()
    )
    (1): BottleneckWithFixedBatchNorm(
      (conv1): Conv2d(256, 64, kernel_size=(1, 1), stride=(1, 1), bias=False)
      (bn1): FrozenBatchNorm2d()
      (conv2): Conv2d(64, 64, kernel_size=(3, 3), stride=(1, 1), padding=(1, 1), bias=False)
      (bn2): FrozenBatchNorm2d()
      (conv3): Conv2d(64, 256, kernel_size=(1, 1), stride=(1, 1), bias=False)
      (bn3): FrozenBatchNorm2d()
    )
    (2): BottleneckWithFixedBatchNorm(
      (conv1): Conv2d(256, 64, kernel_size=(1, 1), stride=(1, 1), bias=False)
      (bn1): FrozenBatchNorm2d()
      (conv2): Conv2d(64, 64, kernel_size=(3, 3), stride=(1, 1), padding=(1, 1), bias=False)
      (bn2): FrozenBatchNorm2d()
      (conv3): Conv2d(64, 256, kernel_size=(1, 1), stride=(1, 1), bias=False)
      (bn3): FrozenBatchNorm2d()
    )
  )
  (layer2): Sequential(
    (0): BottleneckWithFixedBatchNorm(
      (downsample): Sequential(
        (0): Conv2d(256, 512, kernel_size=(1, 1), stride=(2, 2), bias=False)
        (1): FrozenBatchNorm2d()
      )
      (conv1): Conv2d(256, 128, kernel_size=(1, 1), stride=(2, 2), bias=False)
      (bn1): FrozenBatchNorm2d()
      (conv2): Conv2d(128, 128, kernel_size=(3, 3), stride=(1, 1), padding=(1, 1), bias=False)
      (bn2): FrozenBatchNorm2d()
      (conv3): Conv2d(128, 512, kernel_size=(1, 1), stride=(1, 1), bias=False)
      (bn3): FrozenBatchNorm2d()
    )
    (1): BottleneckWithFixedBatchNorm(
      (conv1): Conv2d(512, 128, kernel_size=(1, 1), stride=(1, 1), bias=False)
      (bn1): FrozenBatchNorm2d()
      (conv2): Conv2d(128, 128, kernel_size=(3, 3), stride=(1, 1), padding=(1, 1), bias=False)
      (bn2): FrozenBatchNorm2d()
      (conv3): Conv2d(128, 512, kernel_size=(1, 1), stride=(1, 1), bias=False)
      (bn3): FrozenBatchNorm2d()
    )
    (2): BottleneckWithFixedBatchNorm(
      (conv1): Conv2d(512, 128, kernel_size=(1, 1), stride=(1, 1), bias=False)
      (bn1): FrozenBatchNorm2d()
      (conv2): Conv2d(128, 128, kernel_size=(3, 3), stride=(1, 1), padding=(1, 1), bias=False)
      (bn2): FrozenBatchNorm2d()
      (conv3): Conv2d(128, 512, kernel_size=(1, 1), stride=(1, 1), bias=False)
      (bn3): FrozenBatchNorm2d()
    )
    (3): BottleneckWithFixedBatchNorm(
      (conv1): Conv2d(512, 128, kernel_size=(1, 1), stride=(1, 1), bias=False)
      (bn1): FrozenBatchNorm2d()
      (conv2): Conv2d(128, 128, kernel_size=(3, 3), stride=(1, 1), padding=(1, 1), bias=False)
      (bn2): FrozenBatchNorm2d()
      (conv3): Conv2d(128, 512, kernel_size=(1, 1), stride=(1, 1), bias=False)
      (bn3): FrozenBatchNorm2d()
    )
  )
  (layer3): Sequential(
    (0): BottleneckWithFixedBatchNorm(
      (downsample): Sequential(
        (0): Conv2d(512, 1024, kernel_size=(1, 1), stride=(2, 2), bias=False)
        (1): FrozenBatchNorm2d()
      )
      (conv1): Conv2d(512, 256, kernel_size=(1, 1), stride=(2, 2), bias=False)
      (bn1): FrozenBatchNorm2d()
      (conv2): Conv2d(256, 256, kernel_size=(3, 3), stride=(1, 1), padding=(1, 1), bias=False)
      (bn2): FrozenBatchNorm2d()
      (conv3): Conv2d(256, 1024, kernel_size=(1, 1), stride=(1, 1), bias=False)
      (bn3): FrozenBatchNorm2d()
    )
    (1): BottleneckWithFixedBatchNorm(
      (conv1): Conv2d(1024, 256, kernel_size=(1, 1), stride=(1, 1), bias=False)
      (bn1): FrozenBatchNorm2d()
      (conv2): Conv2d(256, 256, kernel_size=(3, 3), stride=(1, 1), padding=(1, 1), bias=False)
      (bn2): FrozenBatchNorm2d()
      (conv3): Conv2d(256, 1024, kernel_size=(1, 1), stride=(1, 1), bias=False)
      (bn3): FrozenBatchNorm2d()
    )
    (2): BottleneckWithFixedBatchNorm(
      (conv1): Conv2d(1024, 256, kernel_size=(1, 1), stride=(1, 1), bias=False)
      (bn1): FrozenBatchNorm2d()
      (conv2): Conv2d(256, 256, kernel_size=(3, 3), stride=(1, 1), padding=(1, 1), bias=False)
      (bn2): FrozenBatchNorm2d()
      (conv3): Conv2d(256, 1024, kernel_size=(1, 1), stride=(1, 1), bias=False)
      (bn3): FrozenBatchNorm2d()
    )
    (3): BottleneckWithFixedBatchNorm(
      (conv1): Conv2d(1024, 256, kernel_size=(1, 1), stride=(1, 1), bias=False)
      (bn1): FrozenBatchNorm2d()
      (conv2): Conv2d(256, 256, kernel_size=(3, 3), stride=(1, 1), padding=(1, 1), bias=False)
      (bn2): FrozenBatchNorm2d()
      (conv3): Conv2d(256, 1024, kernel_size=(1, 1), stride=(1, 1), bias=False)
      (bn3): FrozenBatchNorm2d()
    )
    (4): BottleneckWithFixedBatchNorm(
      (conv1): Conv2d(1024, 256, kernel_size=(1, 1), stride=(1, 1), bias=False)
      (bn1): FrozenBatchNorm2d()
      (conv2): Conv2d(256, 256, kernel_size=(3, 3), stride=(1, 1), padding=(1, 1), bias=False)
      (bn2): FrozenBatchNorm2d()
      (conv3): Conv2d(256, 1024, kernel_size=(1, 1), stride=(1, 1), bias=False)
      (bn3): FrozenBatchNorm2d()
    )
    (5): BottleneckWithFixedBatchNorm(
      (conv1): Conv2d(1024, 256, kernel_size=(1, 1), stride=(1, 1), bias=False)
      (bn1): FrozenBatchNorm2d()
      (conv2): Conv2d(256, 256, kernel_size=(3, 3), stride=(1, 1), padding=(1, 1), bias=False)
      (bn2): FrozenBatchNorm2d()
      (conv3): Conv2d(256, 1024, kernel_size=(1, 1), stride=(1, 1), bias=False)
      (bn3): FrozenBatchNorm2d()
    )
  )
  (layer4): Sequential(
    (0): BottleneckWithFixedBatchNorm(
      (downsample): Sequential(
        (0): Conv2d(1024, 2048, kernel_size=(1, 1), stride=(2, 2), bias=False)
        (1): FrozenBatchNorm2d()
      )
      (conv1): Conv2d(1024, 512, kernel_size=(1, 1), stride=(2, 2), bias=False)
      (bn1): FrozenBatchNorm2d()
      (conv2): Conv2d(512, 512, kernel_size=(3, 3), stride=(1, 1), padding=(1, 1), bias=False)
      (bn2): FrozenBatchNorm2d()
      (conv3): Conv2d(512, 2048, kernel_size=(1, 1), stride=(1, 1), bias=False)
      (bn3): FrozenBatchNorm2d()
    )
    (1): BottleneckWithFixedBatchNorm(
      (conv1): Conv2d(2048, 512, kernel_size=(1, 1), stride=(1, 1), bias=False)
      (bn1): FrozenBatchNorm2d()
      (conv2): Conv2d(512, 512, kernel_size=(3, 3), stride=(1, 1), padding=(1, 1), bias=False)
      (bn2): FrozenBatchNorm2d()
      (conv3): Conv2d(512, 2048, kernel_size=(1, 1), stride=(1, 1), bias=False)
      (bn3): FrozenBatchNorm2d()
    )
    (2): BottleneckWithFixedBatchNorm(
      (conv1): Conv2d(2048, 512, kernel_size=(1, 1), stride=(1, 1), bias=False)
      (bn1): FrozenBatchNorm2d()
      (conv2): Conv2d(512, 512, kernel_size=(3, 3), stride=(1, 1), padding=(1, 1), bias=False)
      (bn2): FrozenBatchNorm2d()
      (conv3): Conv2d(512, 2048, kernel_size=(1, 1), stride=(1, 1), bias=False)
      (bn3): FrozenBatchNorm2d()
    )
  )
)

	cfg.MODEL.RESNETS.RES2_OUT_CHANNELS: 256
	in_channels_stage2 = cfg.MODEL.RESNETS.RES2_OUT_CHANNELS
	in_channels_stage2 = 256
	cfg.MODEL.RESNETS.BACKBONE_OUT_CHANNELS:1024
	out_channels = cfg.MODEL.RESNETS.BACKBONE_OUT_CHANNELS
	out_channels = 1024
	in_channels_stage2: 256
	out_channels: 1024
	cfg.MODEL.RETINANET.USE_C5: True
…
	self.inner_blocks: ['fpn_inner2', 'fpn_inner3', 'fpn_inner4']
		self.fpn_inner2: Conv2d(512, 1024, kernel_size=(1, 1), stride=(1, 1))
		self.fpn_inner3: Conv2d(1024, 1024, kernel_size=(1, 1), stride=(1, 1))
		self.fpn_inner4: Conv2d(2048, 1024, kernel_size=(1, 1), stride=(1, 1))

	self.layer_blocks: ['fpn_layer2', 'fpn_layer3', 'fpn_layer4']
		self.fpn_layer2: Conv2d(1024, 1024, kernel_size=(3, 3), stride=(1, 1), padding=(1, 1))
		self.fpn_layer3: Conv2d(1024, 1024, kernel_size=(3, 3), stride=(1, 1), padding=(1, 1))
		self.fpn_layer4: Conv2d(1024, 1024, kernel_size=(3, 3), stride=(1, 1), padding=(1, 1))

	self.top_blocks: LastLevelP6P7(
  (p6): Conv2d(2048, 1024, kernel_size=(3, 3), stride=(2, 2), padding=(1, 1))
  (p7): Conv2d(1024, 1024, kernel_size=(3, 3), stride=(2, 2), padding=(1, 1))
)
=========================================== FPN.__init__ end



	fpn: {fpn}
	model = nn.Sequential(OrderedDict([("body", body), ("fpn", fpn)]))
	model: Sequential(
  (body): ResNet(
    (stem): StemWithFixedBatchNorm(
      (conv1): Conv2d(3, 64, kernel_size=(7, 7), stride=(2, 2), padding=(3, 3), bias=False)
      (bn1): FrozenBatchNorm2d()
    )
    (layer1): Sequential(
      (0): BottleneckWithFixedBatchNorm(
        (downsample): Sequential(
          (0): Conv2d(64, 256, kernel_size=(1, 1), stride=(1, 1), bias=False)
          (1): FrozenBatchNorm2d()
        )
        (conv1): Conv2d(64, 64, kernel_size=(1, 1), stride=(1, 1), bias=False)
        (bn1): FrozenBatchNorm2d()
        (conv2): Conv2d(64, 64, kernel_size=(3, 3), stride=(1, 1), padding=(1, 1), bias=False)
        (bn2): FrozenBatchNorm2d()
        (conv3): Conv2d(64, 256, kernel_size=(1, 1), stride=(1, 1), bias=False)
        (bn3): FrozenBatchNorm2d()
      )
      (1): BottleneckWithFixedBatchNorm(
        (conv1): Conv2d(256, 64, kernel_size=(1, 1), stride=(1, 1), bias=False)
        (bn1): FrozenBatchNorm2d()
        (conv2): Conv2d(64, 64, kernel_size=(3, 3), stride=(1, 1), padding=(1, 1), bias=False)
        (bn2): FrozenBatchNorm2d()
        (conv3): Conv2d(64, 256, kernel_size=(1, 1), stride=(1, 1), bias=False)
        (bn3): FrozenBatchNorm2d()
      )
      (2): BottleneckWithFixedBatchNorm(
        (conv1): Conv2d(256, 64, kernel_size=(1, 1), stride=(1, 1), bias=False)
        (bn1): FrozenBatchNorm2d()
        (conv2): Conv2d(64, 64, kernel_size=(3, 3), stride=(1, 1), padding=(1, 1), bias=False)
        (bn2): FrozenBatchNorm2d()
        (conv3): Conv2d(64, 256, kernel_size=(1, 1), stride=(1, 1), bias=False)
        (bn3): FrozenBatchNorm2d()
      )
    )
    (layer2): Sequential(
      (0): BottleneckWithFixedBatchNorm(
        (downsample): Sequential(
          (0): Conv2d(256, 512, kernel_size=(1, 1), stride=(2, 2), bias=False)
          (1): FrozenBatchNorm2d()
        )
        (conv1): Conv2d(256, 128, kernel_size=(1, 1), stride=(2, 2), bias=False)
        (bn1): FrozenBatchNorm2d()
        (conv2): Conv2d(128, 128, kernel_size=(3, 3), stride=(1, 1), padding=(1, 1), bias=False)
        (bn2): FrozenBatchNorm2d()
        (conv3): Conv2d(128, 512, kernel_size=(1, 1), stride=(1, 1), bias=False)
        (bn3): FrozenBatchNorm2d()
      )
      (1): BottleneckWithFixedBatchNorm(
        (conv1): Conv2d(512, 128, kernel_size=(1, 1), stride=(1, 1), bias=False)
        (bn1): FrozenBatchNorm2d()
        (conv2): Conv2d(128, 128, kernel_size=(3, 3), stride=(1, 1), padding=(1, 1), bias=False)
        (bn2): FrozenBatchNorm2d()
        (conv3): Conv2d(128, 512, kernel_size=(1, 1), stride=(1, 1), bias=False)
        (bn3): FrozenBatchNorm2d()
      )
      (2): BottleneckWithFixedBatchNorm(
        (conv1): Conv2d(512, 128, kernel_size=(1, 1), stride=(1, 1), bias=False)
        (bn1): FrozenBatchNorm2d()
        (conv2): Conv2d(128, 128, kernel_size=(3, 3), stride=(1, 1), padding=(1, 1), bias=False)
        (bn2): FrozenBatchNorm2d()
        (conv3): Conv2d(128, 512, kernel_size=(1, 1), stride=(1, 1), bias=False)
        (bn3): FrozenBatchNorm2d()
      )
      (3): BottleneckWithFixedBatchNorm(
        (conv1): Conv2d(512, 128, kernel_size=(1, 1), stride=(1, 1), bias=False)
        (bn1): FrozenBatchNorm2d()
        (conv2): Conv2d(128, 128, kernel_size=(3, 3), stride=(1, 1), padding=(1, 1), bias=False)
        (bn2): FrozenBatchNorm2d()
        (conv3): Conv2d(128, 512, kernel_size=(1, 1), stride=(1, 1), bias=False)
        (bn3): FrozenBatchNorm2d()
      )
    )
    (layer3): Sequential(
      (0): BottleneckWithFixedBatchNorm(
        (downsample): Sequential(
          (0): Conv2d(512, 1024, kernel_size=(1, 1), stride=(2, 2), bias=False)
          (1): FrozenBatchNorm2d()
        )
        (conv1): Conv2d(512, 256, kernel_size=(1, 1), stride=(2, 2), bias=False)
        (bn1): FrozenBatchNorm2d()
        (conv2): Conv2d(256, 256, kernel_size=(3, 3), stride=(1, 1), padding=(1, 1), bias=False)
        (bn2): FrozenBatchNorm2d()
        (conv3): Conv2d(256, 1024, kernel_size=(1, 1), stride=(1, 1), bias=False)
        (bn3): FrozenBatchNorm2d()
      )
      (1): BottleneckWithFixedBatchNorm(
        (conv1): Conv2d(1024, 256, kernel_size=(1, 1), stride=(1, 1), bias=False)
        (bn1): FrozenBatchNorm2d()
        (conv2): Conv2d(256, 256, kernel_size=(3, 3), stride=(1, 1), padding=(1, 1), bias=False)
        (bn2): FrozenBatchNorm2d()
        (conv3): Conv2d(256, 1024, kernel_size=(1, 1), stride=(1, 1), bias=False)
        (bn3): FrozenBatchNorm2d()
      )
      (2): BottleneckWithFixedBatchNorm(
        (conv1): Conv2d(1024, 256, kernel_size=(1, 1), stride=(1, 1), bias=False)
        (bn1): FrozenBatchNorm2d()
        (conv2): Conv2d(256, 256, kernel_size=(3, 3), stride=(1, 1), padding=(1, 1), bias=False)
        (bn2): FrozenBatchNorm2d()
        (conv3): Conv2d(256, 1024, kernel_size=(1, 1), stride=(1, 1), bias=False)
        (bn3): FrozenBatchNorm2d()
      )
      (3): BottleneckWithFixedBatchNorm(
        (conv1): Conv2d(1024, 256, kernel_size=(1, 1), stride=(1, 1), bias=False)
        (bn1): FrozenBatchNorm2d()
        (conv2): Conv2d(256, 256, kernel_size=(3, 3), stride=(1, 1), padding=(1, 1), bias=False)
        (bn2): FrozenBatchNorm2d()
        (conv3): Conv2d(256, 1024, kernel_size=(1, 1), stride=(1, 1), bias=False)
        (bn3): FrozenBatchNorm2d()
      )
      (4): BottleneckWithFixedBatchNorm(
        (conv1): Conv2d(1024, 256, kernel_size=(1, 1), stride=(1, 1), bias=False)
        (bn1): FrozenBatchNorm2d()
        (conv2): Conv2d(256, 256, kernel_size=(3, 3), stride=(1, 1), padding=(1, 1), bias=False)
        (bn2): FrozenBatchNorm2d()
        (conv3): Conv2d(256, 1024, kernel_size=(1, 1), stride=(1, 1), bias=False)
        (bn3): FrozenBatchNorm2d()
      )
      (5): BottleneckWithFixedBatchNorm(
        (conv1): Conv2d(1024, 256, kernel_size=(1, 1), stride=(1, 1), bias=False)
        (bn1): FrozenBatchNorm2d()
        (conv2): Conv2d(256, 256, kernel_size=(3, 3), stride=(1, 1), padding=(1, 1), bias=False)
        (bn2): FrozenBatchNorm2d()
        (conv3): Conv2d(256, 1024, kernel_size=(1, 1), stride=(1, 1), bias=False)
        (bn3): FrozenBatchNorm2d()
      )
    )
    (layer4): Sequential(
      (0): BottleneckWithFixedBatchNorm(
        (downsample): Sequential(
          (0): Conv2d(1024, 2048, kernel_size=(1, 1), stride=(2, 2), bias=False)
          (1): FrozenBatchNorm2d()
        )
        (conv1): Conv2d(1024, 512, kernel_size=(1, 1), stride=(2, 2), bias=False)
        (bn1): FrozenBatchNorm2d()
        (conv2): Conv2d(512, 512, kernel_size=(3, 3), stride=(1, 1), padding=(1, 1), bias=False)
        (bn2): FrozenBatchNorm2d()
        (conv3): Conv2d(512, 2048, kernel_size=(1, 1), stride=(1, 1), bias=False)
        (bn3): FrozenBatchNorm2d()
      )
      (1): BottleneckWithFixedBatchNorm(
        (conv1): Conv2d(2048, 512, kernel_size=(1, 1), stride=(1, 1), bias=False)
        (bn1): FrozenBatchNorm2d()
        (conv2): Conv2d(512, 512, kernel_size=(3, 3), stride=(1, 1), padding=(1, 1), bias=False)
        (bn2): FrozenBatchNorm2d()
        (conv3): Conv2d(512, 2048, kernel_size=(1, 1), stride=(1, 1), bias=False)
        (bn3): FrozenBatchNorm2d()
      )
      (2): BottleneckWithFixedBatchNorm(
        (conv1): Conv2d(2048, 512, kernel_size=(1, 1), stride=(1, 1), bias=False)
        (bn1): FrozenBatchNorm2d()
        (conv2): Conv2d(512, 512, kernel_size=(3, 3), stride=(1, 1), padding=(1, 1), bias=False)
        (bn2): FrozenBatchNorm2d()
        (conv3): Conv2d(512, 2048, kernel_size=(1, 1), stride=(1, 1), bias=False)
        (bn3): FrozenBatchNorm2d()
      )
    )
  )
  (fpn): FPN(
    (fpn_inner2): Conv2d(512, 1024, kernel_size=(1, 1), stride=(1, 1))
    (fpn_layer2): Conv2d(1024, 1024, kernel_size=(3, 3), stride=(1, 1), padding=(1, 1))
    (fpn_inner3): Conv2d(1024, 1024, kernel_size=(1, 1), stride=(1, 1))
    (fpn_layer3): Conv2d(1024, 1024, kernel_size=(3, 3), stride=(1, 1), padding=(1, 1))
    (fpn_inner4): Conv2d(2048, 1024, kernel_size=(1, 1), stride=(1, 1))
    (fpn_layer4): Conv2d(1024, 1024, kernel_size=(3, 3), stride=(1, 1), padding=(1, 1))
    (top_blocks): LastLevelP6P7(
      (p6): Conv2d(2048, 1024, kernel_size=(3, 3), stride=(2, 2), padding=(1, 1))
      (p7): Conv2d(1024, 1024, kernel_size=(3, 3), stride=(2, 2), padding=(1, 1))
    )
  )
)
	model.out_channels = out_channels
	model.out_channels: 1024
	return model
build_resnet_fpn_p3p7_backbone(cfg) ====== END


	registry.BACKBONES[cfg.MODEL.BACKBONE.CONV_BODY](cfg): Sequential(
  (body): ResNet(
    (stem): StemWithFixedBatchNorm(
      (conv1): Conv2d(3, 64, kernel_size=(7, 7), stride=(2, 2), padding=(3, 3), bias=False)
      (bn1): FrozenBatchNorm2d()
    )
    (layer1): Sequential(
      (0): BottleneckWithFixedBatchNorm(
        (downsample): Sequential(
          (0): Conv2d(64, 256, kernel_size=(1, 1), stride=(1, 1), bias=False)
          (1): FrozenBatchNorm2d()
        )
        (conv1): Conv2d(64, 64, kernel_size=(1, 1), stride=(1, 1), bias=False)
        (bn1): FrozenBatchNorm2d()
        (conv2): Conv2d(64, 64, kernel_size=(3, 3), stride=(1, 1), padding=(1, 1), bias=False)
        (bn2): FrozenBatchNorm2d()
        (conv3): Conv2d(64, 256, kernel_size=(1, 1), stride=(1, 1), bias=False)
        (bn3): FrozenBatchNorm2d()
      )
      (1): BottleneckWithFixedBatchNorm(
        (conv1): Conv2d(256, 64, kernel_size=(1, 1), stride=(1, 1), bias=False)
        (bn1): FrozenBatchNorm2d()
        (conv2): Conv2d(64, 64, kernel_size=(3, 3), stride=(1, 1), padding=(1, 1), bias=False)
        (bn2): FrozenBatchNorm2d()
        (conv3): Conv2d(64, 256, kernel_size=(1, 1), stride=(1, 1), bias=False)
        (bn3): FrozenBatchNorm2d()
      )
      (2): BottleneckWithFixedBatchNorm(
        (conv1): Conv2d(256, 64, kernel_size=(1, 1), stride=(1, 1), bias=False)
        (bn1): FrozenBatchNorm2d()
        (conv2): Conv2d(64, 64, kernel_size=(3, 3), stride=(1, 1), padding=(1, 1), bias=False)
        (bn2): FrozenBatchNorm2d()
        (conv3): Conv2d(64, 256, kernel_size=(1, 1), stride=(1, 1), bias=False)
        (bn3): FrozenBatchNorm2d()
      )
    )
    (layer2): Sequential(
      (0): BottleneckWithFixedBatchNorm(
        (downsample): Sequential(
          (0): Conv2d(256, 512, kernel_size=(1, 1), stride=(2, 2), bias=False)
          (1): FrozenBatchNorm2d()
        )
        (conv1): Conv2d(256, 128, kernel_size=(1, 1), stride=(2, 2), bias=False)
        (bn1): FrozenBatchNorm2d()
        (conv2): Conv2d(128, 128, kernel_size=(3, 3), stride=(1, 1), padding=(1, 1), bias=False)
        (bn2): FrozenBatchNorm2d()
        (conv3): Conv2d(128, 512, kernel_size=(1, 1), stride=(1, 1), bias=False)
        (bn3): FrozenBatchNorm2d()
      )
      (1): BottleneckWithFixedBatchNorm(
        (conv1): Conv2d(512, 128, kernel_size=(1, 1), stride=(1, 1), bias=False)
        (bn1): FrozenBatchNorm2d()
        (conv2): Conv2d(128, 128, kernel_size=(3, 3), stride=(1, 1), padding=(1, 1), bias=False)
        (bn2): FrozenBatchNorm2d()
        (conv3): Conv2d(128, 512, kernel_size=(1, 1), stride=(1, 1), bias=False)
        (bn3): FrozenBatchNorm2d()
      )
      (2): BottleneckWithFixedBatchNorm(
        (conv1): Conv2d(512, 128, kernel_size=(1, 1), stride=(1, 1), bias=False)
        (bn1): FrozenBatchNorm2d()
        (conv2): Conv2d(128, 128, kernel_size=(3, 3), stride=(1, 1), padding=(1, 1), bias=False)
        (bn2): FrozenBatchNorm2d()
        (conv3): Conv2d(128, 512, kernel_size=(1, 1), stride=(1, 1), bias=False)
        (bn3): FrozenBatchNorm2d()
      )
      (3): BottleneckWithFixedBatchNorm(
        (conv1): Conv2d(512, 128, kernel_size=(1, 1), stride=(1, 1), bias=False)
        (bn1): FrozenBatchNorm2d()
        (conv2): Conv2d(128, 128, kernel_size=(3, 3), stride=(1, 1), padding=(1, 1), bias=False)
        (bn2): FrozenBatchNorm2d()
        (conv3): Conv2d(128, 512, kernel_size=(1, 1), stride=(1, 1), bias=False)
        (bn3): FrozenBatchNorm2d()
      )
    )
    (layer3): Sequential(
      (0): BottleneckWithFixedBatchNorm(
        (downsample): Sequential(
          (0): Conv2d(512, 1024, kernel_size=(1, 1), stride=(2, 2), bias=False)
          (1): FrozenBatchNorm2d()
        )
        (conv1): Conv2d(512, 256, kernel_size=(1, 1), stride=(2, 2), bias=False)
        (bn1): FrozenBatchNorm2d()
        (conv2): Conv2d(256, 256, kernel_size=(3, 3), stride=(1, 1), padding=(1, 1), bias=False)
        (bn2): FrozenBatchNorm2d()
        (conv3): Conv2d(256, 1024, kernel_size=(1, 1), stride=(1, 1), bias=False)
        (bn3): FrozenBatchNorm2d()
      )
      (1): BottleneckWithFixedBatchNorm(
        (conv1): Conv2d(1024, 256, kernel_size=(1, 1), stride=(1, 1), bias=False)
        (bn1): FrozenBatchNorm2d()
        (conv2): Conv2d(256, 256, kernel_size=(3, 3), stride=(1, 1), padding=(1, 1), bias=False)
        (bn2): FrozenBatchNorm2d()
        (conv3): Conv2d(256, 1024, kernel_size=(1, 1), stride=(1, 1), bias=False)
        (bn3): FrozenBatchNorm2d()
      )
      (2): BottleneckWithFixedBatchNorm(
        (conv1): Conv2d(1024, 256, kernel_size=(1, 1), stride=(1, 1), bias=False)
        (bn1): FrozenBatchNorm2d()
        (conv2): Conv2d(256, 256, kernel_size=(3, 3), stride=(1, 1), padding=(1, 1), bias=False)
        (bn2): FrozenBatchNorm2d()
        (conv3): Conv2d(256, 1024, kernel_size=(1, 1), stride=(1, 1), bias=False)
        (bn3): FrozenBatchNorm2d()
      )
      (3): BottleneckWithFixedBatchNorm(
        (conv1): Conv2d(1024, 256, kernel_size=(1, 1), stride=(1, 1), bias=False)
        (bn1): FrozenBatchNorm2d()
        (conv2): Conv2d(256, 256, kernel_size=(3, 3), stride=(1, 1), padding=(1, 1), bias=False)
        (bn2): FrozenBatchNorm2d()
        (conv3): Conv2d(256, 1024, kernel_size=(1, 1), stride=(1, 1), bias=False)
        (bn3): FrozenBatchNorm2d()
      )
      (4): BottleneckWithFixedBatchNorm(
        (conv1): Conv2d(1024, 256, kernel_size=(1, 1), stride=(1, 1), bias=False)
        (bn1): FrozenBatchNorm2d()
        (conv2): Conv2d(256, 256, kernel_size=(3, 3), stride=(1, 1), padding=(1, 1), bias=False)
        (bn2): FrozenBatchNorm2d()
        (conv3): Conv2d(256, 1024, kernel_size=(1, 1), stride=(1, 1), bias=False)
        (bn3): FrozenBatchNorm2d()
      )
      (5): BottleneckWithFixedBatchNorm(
        (conv1): Conv2d(1024, 256, kernel_size=(1, 1), stride=(1, 1), bias=False)
        (bn1): FrozenBatchNorm2d()
        (conv2): Conv2d(256, 256, kernel_size=(3, 3), stride=(1, 1), padding=(1, 1), bias=False)
        (bn2): FrozenBatchNorm2d()
        (conv3): Conv2d(256, 1024, kernel_size=(1, 1), stride=(1, 1), bias=False)
        (bn3): FrozenBatchNorm2d()
      )
    )
    (layer4): Sequential(
      (0): BottleneckWithFixedBatchNorm(
        (downsample): Sequential(
          (0): Conv2d(1024, 2048, kernel_size=(1, 1), stride=(2, 2), bias=False)
          (1): FrozenBatchNorm2d()
        )
        (conv1): Conv2d(1024, 512, kernel_size=(1, 1), stride=(2, 2), bias=False)
        (bn1): FrozenBatchNorm2d()
        (conv2): Conv2d(512, 512, kernel_size=(3, 3), stride=(1, 1), padding=(1, 1), bias=False)
        (bn2): FrozenBatchNorm2d()
        (conv3): Conv2d(512, 2048, kernel_size=(1, 1), stride=(1, 1), bias=False)
        (bn3): FrozenBatchNorm2d()
      )
      (1): BottleneckWithFixedBatchNorm(
        (conv1): Conv2d(2048, 512, kernel_size=(1, 1), stride=(1, 1), bias=False)
        (bn1): FrozenBatchNorm2d()
        (conv2): Conv2d(512, 512, kernel_size=(3, 3), stride=(1, 1), padding=(1, 1), bias=False)
        (bn2): FrozenBatchNorm2d()
        (conv3): Conv2d(512, 2048, kernel_size=(1, 1), stride=(1, 1), bias=False)
        (bn3): FrozenBatchNorm2d()
      )
      (2): BottleneckWithFixedBatchNorm(
        (conv1): Conv2d(2048, 512, kernel_size=(1, 1), stride=(1, 1), bias=False)
        (bn1): FrozenBatchNorm2d()
        (conv2): Conv2d(512, 512, kernel_size=(3, 3), stride=(1, 1), padding=(1, 1), bias=False)
        (bn2): FrozenBatchNorm2d()
        (conv3): Conv2d(512, 2048, kernel_size=(1, 1), stride=(1, 1), bias=False)
        (bn3): FrozenBatchNorm2d()
      )
    )
  )
  (fpn): FPN(
    (fpn_inner2): Conv2d(512, 1024, kernel_size=(1, 1), stride=(1, 1))
    (fpn_layer2): Conv2d(1024, 1024, kernel_size=(3, 3), stride=(1, 1), padding=(1, 1))
    (fpn_inner3): Conv2d(1024, 1024, kernel_size=(1, 1), stride=(1, 1))
    (fpn_layer3): Conv2d(1024, 1024, kernel_size=(3, 3), stride=(1, 1), padding=(1, 1))
    (fpn_inner4): Conv2d(2048, 1024, kernel_size=(1, 1), stride=(1, 1))
    (fpn_layer4): Conv2d(1024, 1024, kernel_size=(3, 3), stride=(1, 1), padding=(1, 1))
    (top_blocks): LastLevelP6P7(
      (p6): Conv2d(2048, 1024, kernel_size=(3, 3), stride=(2, 2), padding=(1, 1))
      (p7): Conv2d(1024, 1024, kernel_size=(3, 3), stride=(2, 2), padding=(1, 1))
    )
  )
)
	return registry.BACKBONES[cfg.MODEL.BACKBONE.CONV_BODY](cfg)
build_backbone(cfg) ====== END
build_resnet_fpn_p3p7_backbone(cfg) ====== BEGIN

=========================================== Resnet.__init__ BEGIN
	_STEM_MODULES: {'StemWithFixedBatchNorm': <class 'maskrcnn_benchmark.modeling.backbone.resnet.StemWithFixedBatchNorm'>}
…
	self.inner_blocks: ['fpn_inner2', 'fpn_inner3', 'fpn_inner4']
		self.fpn_inner2: Conv2d(512, 1024, kernel_size=(1, 1), stride=(1, 1))
		self.fpn_inner3: Conv2d(1024, 1024, kernel_size=(1, 1), stride=(1, 1))
		self.fpn_inner4: Conv2d(2048, 1024, kernel_size=(1, 1), stride=(1, 1))

	self.layer_blocks: ['fpn_layer2', 'fpn_layer3', 'fpn_layer4']
		self.fpn_layer2: Conv2d(1024, 1024, kernel_size=(3, 3), stride=(1, 1), padding=(1, 1))
		self.fpn_layer3: Conv2d(1024, 1024, kernel_size=(3, 3), stride=(1, 1), padding=(1, 1))
		self.fpn_layer4: Conv2d(1024, 1024, kernel_size=(3, 3), stride=(1, 1), padding=(1, 1))

	self.top_blocks: LastLevelP6P7(
  (p6): Conv2d(2048, 1024, kernel_size=(3, 3), stride=(2, 2), padding=(1, 1))
  (p7): Conv2d(1024, 1024, kernel_size=(3, 3), stride=(2, 2), padding=(1, 1))
)
=========================================== FPN.__init__ end



	fpn: {fpn}
	model = nn.Sequential(OrderedDict([("body", body), ("fpn", fpn)]))
	model: Sequential(
  (body): ResNet(
    (stem): StemWithFixedBatchNorm(
      (conv1): Conv2d(3, 64, kernel_size=(7, 7), stride=(2, 2), padding=(3, 3), bias=False)
      (bn1): FrozenBatchNorm2d()
    )
    (layer1): Sequential(
      (0): BottleneckWithFixedBatchNorm(
        (downsample): Sequential(
          (0): Conv2d(64, 256, kernel_size=(1, 1), stride=(1, 1), bias=False)
          (1): FrozenBatchNorm2d()
        )
        (conv1): Conv2d(64, 64, kernel_size=(1, 1), stride=(1, 1), bias=False)
        (bn1): FrozenBatchNorm2d()
        (conv2): Conv2d(64, 64, kernel_size=(3, 3), stride=(1, 1), padding=(1, 1), bias=False)
        (bn2): FrozenBatchNorm2d()
        (conv3): Conv2d(64, 256, kernel_size=(1, 1), stride=(1, 1), bias=False)
        (bn3): FrozenBatchNorm2d()
      )
      (1): BottleneckWithFixedBatchNorm(
        (conv1): Conv2d(256, 64, kernel_size=(1, 1), stride=(1, 1), bias=False)
        (bn1): FrozenBatchNorm2d()
        (conv2): Conv2d(64, 64, kernel_size=(3, 3), stride=(1, 1), padding=(1, 1), bias=False)
        (bn2): FrozenBatchNorm2d()
        (conv3): Conv2d(64, 256, kernel_size=(1, 1), stride=(1, 1), bias=False)
        (bn3): FrozenBatchNorm2d()
      )
      (2): BottleneckWithFixedBatchNorm(
        (conv1): Conv2d(256, 64, kernel_size=(1, 1), stride=(1, 1), bias=False)
        (bn1): FrozenBatchNorm2d()
        (conv2): Conv2d(64, 64, kernel_size=(3, 3), stride=(1, 1), padding=(1, 1), bias=False)
        (bn2): FrozenBatchNorm2d()
        (conv3): Conv2d(64, 256, kernel_size=(1, 1), stride=(1, 1), bias=False)
        (bn3): FrozenBatchNorm2d()
      )
    )
    (layer2): Sequential(
      (0): BottleneckWithFixedBatchNorm(
        (downsample): Sequential(
          (0): Conv2d(256, 512, kernel_size=(1, 1), stride=(2, 2), bias=False)
          (1): FrozenBatchNorm2d()
        )
        (conv1): Conv2d(256, 128, kernel_size=(1, 1), stride=(2, 2), bias=False)
        (bn1): FrozenBatchNorm2d()
        (conv2): Conv2d(128, 128, kernel_size=(3, 3), stride=(1, 1), padding=(1, 1), bias=False)
        (bn2): FrozenBatchNorm2d()
        (conv3): Conv2d(128, 512, kernel_size=(1, 1), stride=(1, 1), bias=False)
        (bn3): FrozenBatchNorm2d()
      )
      (1): BottleneckWithFixedBatchNorm(
        (conv1): Conv2d(512, 128, kernel_size=(1, 1), stride=(1, 1), bias=False)
        (bn1): FrozenBatchNorm2d()
        (conv2): Conv2d(128, 128, kernel_size=(3, 3), stride=(1, 1), padding=(1, 1), bias=False)
        (bn2): FrozenBatchNorm2d()
        (conv3): Conv2d(128, 512, kernel_size=(1, 1), stride=(1, 1), bias=False)
        (bn3): FrozenBatchNorm2d()
      )
      (2): BottleneckWithFixedBatchNorm(
        (conv1): Conv2d(512, 128, kernel_size=(1, 1), stride=(1, 1), bias=False)
        (bn1): FrozenBatchNorm2d()
        (conv2): Conv2d(128, 128, kernel_size=(3, 3), stride=(1, 1), padding=(1, 1), bias=False)
        (bn2): FrozenBatchNorm2d()
        (conv3): Conv2d(128, 512, kernel_size=(1, 1), stride=(1, 1), bias=False)
        (bn3): FrozenBatchNorm2d()
      )
      (3): BottleneckWithFixedBatchNorm(
        (conv1): Conv2d(512, 128, kernel_size=(1, 1), stride=(1, 1), bias=False)
        (bn1): FrozenBatchNorm2d()
        (conv2): Conv2d(128, 128, kernel_size=(3, 3), stride=(1, 1), padding=(1, 1), bias=False)
        (bn2): FrozenBatchNorm2d()
        (conv3): Conv2d(128, 512, kernel_size=(1, 1), stride=(1, 1), bias=False)
        (bn3): FrozenBatchNorm2d()
      )
    )
    (layer3): Sequential(
      (0): BottleneckWithFixedBatchNorm(
        (downsample): Sequential(
          (0): Conv2d(512, 1024, kernel_size=(1, 1), stride=(2, 2), bias=False)
          (1): FrozenBatchNorm2d()
        )
        (conv1): Conv2d(512, 256, kernel_size=(1, 1), stride=(2, 2), bias=False)
        (bn1): FrozenBatchNorm2d()
        (conv2): Conv2d(256, 256, kernel_size=(3, 3), stride=(1, 1), padding=(1, 1), bias=False)
        (bn2): FrozenBatchNorm2d()
        (conv3): Conv2d(256, 1024, kernel_size=(1, 1), stride=(1, 1), bias=False)
        (bn3): FrozenBatchNorm2d()
      )
      (1): BottleneckWithFixedBatchNorm(
        (conv1): Conv2d(1024, 256, kernel_size=(1, 1), stride=(1, 1), bias=False)
        (bn1): FrozenBatchNorm2d()
        (conv2): Conv2d(256, 256, kernel_size=(3, 3), stride=(1, 1), padding=(1, 1), bias=False)
        (bn2): FrozenBatchNorm2d()
        (conv3): Conv2d(256, 1024, kernel_size=(1, 1), stride=(1, 1), bias=False)
        (bn3): FrozenBatchNorm2d()
      )
      (2): BottleneckWithFixedBatchNorm(
        (conv1): Conv2d(1024, 256, kernel_size=(1, 1), stride=(1, 1), bias=False)
        (bn1): FrozenBatchNorm2d()
        (conv2): Conv2d(256, 256, kernel_size=(3, 3), stride=(1, 1), padding=(1, 1), bias=False)
        (bn2): FrozenBatchNorm2d()
        (conv3): Conv2d(256, 1024, kernel_size=(1, 1), stride=(1, 1), bias=False)
        (bn3): FrozenBatchNorm2d()
      )
      (3): BottleneckWithFixedBatchNorm(
        (conv1): Conv2d(1024, 256, kernel_size=(1, 1), stride=(1, 1), bias=False)
        (bn1): FrozenBatchNorm2d()
        (conv2): Conv2d(256, 256, kernel_size=(3, 3), stride=(1, 1), padding=(1, 1), bias=False)
        (bn2): FrozenBatchNorm2d()
        (conv3): Conv2d(256, 1024, kernel_size=(1, 1), stride=(1, 1), bias=False)
        (bn3): FrozenBatchNorm2d()
      )
      (4): BottleneckWithFixedBatchNorm(
        (conv1): Conv2d(1024, 256, kernel_size=(1, 1), stride=(1, 1), bias=False)
        (bn1): FrozenBatchNorm2d()
        (conv2): Conv2d(256, 256, kernel_size=(3, 3), stride=(1, 1), padding=(1, 1), bias=False)
        (bn2): FrozenBatchNorm2d()
        (conv3): Conv2d(256, 1024, kernel_size=(1, 1), stride=(1, 1), bias=False)
        (bn3): FrozenBatchNorm2d()
      )
      (5): BottleneckWithFixedBatchNorm(
        (conv1): Conv2d(1024, 256, kernel_size=(1, 1), stride=(1, 1), bias=False)
        (bn1): FrozenBatchNorm2d()
        (conv2): Conv2d(256, 256, kernel_size=(3, 3), stride=(1, 1), padding=(1, 1), bias=False)
        (bn2): FrozenBatchNorm2d()
        (conv3): Conv2d(256, 1024, kernel_size=(1, 1), stride=(1, 1), bias=False)
        (bn3): FrozenBatchNorm2d()
      )
    )
    (layer4): Sequential(
      (0): BottleneckWithFixedBatchNorm(
        (downsample): Sequential(
          (0): Conv2d(1024, 2048, kernel_size=(1, 1), stride=(2, 2), bias=False)
          (1): FrozenBatchNorm2d()
        )
        (conv1): Conv2d(1024, 512, kernel_size=(1, 1), stride=(2, 2), bias=False)
        (bn1): FrozenBatchNorm2d()
        (conv2): Conv2d(512, 512, kernel_size=(3, 3), stride=(1, 1), padding=(1, 1), bias=False)
        (bn2): FrozenBatchNorm2d()
        (conv3): Conv2d(512, 2048, kernel_size=(1, 1), stride=(1, 1), bias=False)
        (bn3): FrozenBatchNorm2d()
      )
      (1): BottleneckWithFixedBatchNorm(
        (conv1): Conv2d(2048, 512, kernel_size=(1, 1), stride=(1, 1), bias=False)
        (bn1): FrozenBatchNorm2d()
        (conv2): Conv2d(512, 512, kernel_size=(3, 3), stride=(1, 1), padding=(1, 1), bias=False)
        (bn2): FrozenBatchNorm2d()
        (conv3): Conv2d(512, 2048, kernel_size=(1, 1), stride=(1, 1), bias=False)
        (bn3): FrozenBatchNorm2d()
      )
      (2): BottleneckWithFixedBatchNorm(
        (conv1): Conv2d(2048, 512, kernel_size=(1, 1), stride=(1, 1), bias=False)
        (bn1): FrozenBatchNorm2d()
        (conv2): Conv2d(512, 512, kernel_size=(3, 3), stride=(1, 1), padding=(1, 1), bias=False)
        (bn2): FrozenBatchNorm2d()
        (conv3): Conv2d(512, 2048, kernel_size=(1, 1), stride=(1, 1), bias=False)
        (bn3): FrozenBatchNorm2d()
      )
    )
  )
  (fpn): FPN(
    (fpn_inner2): Conv2d(512, 1024, kernel_size=(1, 1), stride=(1, 1))
    (fpn_layer2): Conv2d(1024, 1024, kernel_size=(3, 3), stride=(1, 1), padding=(1, 1))
    (fpn_inner3): Conv2d(1024, 1024, kernel_size=(1, 1), stride=(1, 1))
    (fpn_layer3): Conv2d(1024, 1024, kernel_size=(3, 3), stride=(1, 1), padding=(1, 1))
    (fpn_inner4): Conv2d(2048, 1024, kernel_size=(1, 1), stride=(1, 1))
    (fpn_layer4): Conv2d(1024, 1024, kernel_size=(3, 3), stride=(1, 1), padding=(1, 1))
    (top_blocks): LastLevelP6P7(
      (p6): Conv2d(2048, 1024, kernel_size=(3, 3), stride=(2, 2), padding=(1, 1))
      (p7): Conv2d(1024, 1024, kernel_size=(3, 3), stride=(2, 2), padding=(1, 1))
    )
  )
)
	model.out_channels = out_channels
	model.out_channels: 1024
	return model
build_resnet_fpn_p3p7_backbone(cfg) ====== END


==== rpn build ==== 
self.backbone.out_channels: 1024
build_rpn : <function build_rpn at 0x7f338cb6ec80>
self.rpn = build_rpn(cfg, self.backbone.out_channels)


=========================================== RetinaNetModule.__init__(self, cfg, in_channels): BEGIN
…
=========================================== RetinaNetHead._init__(cfg, in_channels): END
box_coder = BoxCoder(weights=(10., 10., 5., 5.))
box_selector_test = make_retinanet_postprocessor(cfg, box_coder)
========== RPNPostProcessing.__init__() BEGIN
========== RPNPostProcessing.__init__() END
self.anchor_generator = anchor_generator
self.head = head
self.box_selector_test = box_selector_test


=========================================== RetinaNetModule.__init__(self, cfg, in_channels): END
self.rpn: RetinaNetModule(
  (anchor_generator): AnchorGenerator(
    (cell_anchors): BufferList()
  )
  (head): RetinaNetHead(
    (cls_tower): Sequential(
      (0): Conv2d(1024, 1024, kernel_size=(3, 3), stride=(1, 1), padding=(1, 1))
      (1): ReLU()
      (2): Conv2d(1024, 1024, kernel_size=(3, 3), stride=(1, 1), padding=(1, 1))
      (3): ReLU()
      (4): Conv2d(1024, 1024, kernel_size=(3, 3), stride=(1, 1), padding=(1, 1))
      (5): ReLU()
      (6): Conv2d(1024, 1024, kernel_size=(3, 3), stride=(1, 1), padding=(1, 1))
      (7): ReLU()
    )
    (bbox_tower): Sequential(
      (0): Conv2d(1024, 1024, kernel_size=(3, 3), stride=(1, 1), padding=(1, 1))
      (1): ReLU()
      (2): Conv2d(1024, 1024, kernel_size=(3, 3), stride=(1, 1), padding=(1, 1))
      (3): ReLU()
      (4): Conv2d(1024, 1024, kernel_size=(3, 3), stride=(1, 1), padding=(1, 1))
      (5): ReLU()
      (6): Conv2d(1024, 1024, kernel_size=(3, 3), stride=(1, 1), padding=(1, 1))
      (7): ReLU()
    )
    (cls_logits): Conv2d(1024, 9, kernel_size=(3, 3), stride=(1, 1), padding=(1, 1))
    (bbox_pred): Conv2d(1024, 36, kernel_size=(3, 3), stride=(1, 1), padding=(1, 1))
  )
  (box_selector_test): RetinaNetPostProcessor()
)
GeneralizedRCNN.__init(self, cfg) ====================== END
INFO:maskrcnn_benchmark.utils.checkpoint:Loading checkpoint from ./model/detection/model_det_v2_200924_002_180k.pth
INFO:maskrcnn_benchmark.utils.model_serialization:backbone.body.layer1.0.bn1.bias                  loaded from backbone.body.layer1.0.bn1.bias                  of shape (64,)
…
