…
		} // END AnchorGenerator.__init__(sizes, aspect_ratios, anchor_strides, straddle_thresh)
		anchor_generator = AnchorGenerator(
  (cell_anchors): BufferList()
)

		return anchor_generator
		} // make_anchor_generator_retinanet(config) END

	anchor_generator: AnchorGenerator(
  (cell_anchors): BufferList()
)
	head = RetinaNetHead(cfg, in_channels=1024)


                     RetinaNetHead._init__(cfg, in_channels) { //BEGIN
                         defined in /home/kimkk/work/lomin/maskrcnn_benchmark/modeling/rpn/retinanet/retinanet.py


                     } // END RetinaNetHead._init__(cfg, in_channels)
	head: RetinaNetHead(
  (cls_tower): Sequential(
    (0): Conv2d(1024, 1024, kernel_size=(3, 3), stride=(1, 1), padding=(1, 1))
    (1): ReLU()
    (2): Conv2d(1024, 1024, kernel_size=(3, 3), stride=(1, 1), padding=(1, 1))
    (3): ReLU()
    (4): Conv2d(1024, 1024, kernel_size=(3, 3), stride=(1, 1), padding=(1, 1))
    (5): ReLU()
    (6): Conv2d(1024, 1024, kernel_size=(3, 3), stride=(1, 1), padding=(1, 1))
    (7): ReLU()
  )
  (bbox_tower): Sequential(
    (0): Conv2d(1024, 1024, kernel_size=(3, 3), stride=(1, 1), padding=(1, 1))
    (1): ReLU()
    (2): Conv2d(1024, 1024, kernel_size=(3, 3), stride=(1, 1), padding=(1, 1))
    (3): ReLU()
    (4): Conv2d(1024, 1024, kernel_size=(3, 3), stride=(1, 1), padding=(1, 1))
    (5): ReLU()
    (6): Conv2d(1024, 1024, kernel_size=(3, 3), stride=(1, 1), padding=(1, 1))
    (7): ReLU()
  )
  (cls_logits): Conv2d(1024, 9, kernel_size=(3, 3), stride=(1, 1), padding=(1, 1))
  (bbox_pred): Conv2d(1024, 36, kernel_size=(3, 3), stride=(1, 1), padding=(1, 1))
)
	box_coder = BoxCoder(weights=(10., 10., 5., 5.))
	box_coder: <maskrcnn_benchmark.modeling.box_coder.BoxCoder object at 0x7f321fad5828>
	box_selector_test = make_retinanet_postprocessor(cfg, box_coder)
========== RPNPostProcessing.__init__() BEGIN
========== RPNPostProcessing.__init__() END
	box_selector_test: RetinaNetPostProcessor()
	self.anchor_generator = anchor_generator
	self.head = head
	self.box_selector_test = box_selector_test


} // RetinaNetModule.__init__(self, cfg, in_channels) END
	self.rpn: RetinaNetModule(
  (anchor_generator): AnchorGenerator(
    (cell_anchors): BufferList()
  )
  (head): RetinaNetHead(
    (cls_tower): Sequential(
      (0): Conv2d(1024, 1024, kernel_size=(3, 3), stride=(1, 1), padding=(1, 1))
      (1): ReLU()
      (2): Conv2d(1024, 1024, kernel_size=(3, 3), stride=(1, 1), padding=(1, 1))
      (3): ReLU()
      (4): Conv2d(1024, 1024, kernel_size=(3, 3), stride=(1, 1), padding=(1, 1))
      (5): ReLU()
      (6): Conv2d(1024, 1024, kernel_size=(3, 3), stride=(1, 1), padding=(1, 1))
      (7): ReLU()
    )
    (bbox_tower): Sequential(
      (0): Conv2d(1024, 1024, kernel_size=(3, 3), stride=(1, 1), padding=(1, 1))
      (1): ReLU()
      (2): Conv2d(1024, 1024, kernel_size=(3, 3), stride=(1, 1), padding=(1, 1))
      (3): ReLU()
      (4): Conv2d(1024, 1024, kernel_size=(3, 3), stride=(1, 1), padding=(1, 1))
      (5): ReLU()
      (6): Conv2d(1024, 1024, kernel_size=(3, 3), stride=(1, 1), padding=(1, 1))
      (7): ReLU()
    )
    (cls_logits): Conv2d(1024, 9, kernel_size=(3, 3), stride=(1, 1), padding=(1, 1))
    (bbox_pred): Conv2d(1024, 36, kernel_size=(3, 3), stride=(1, 1), padding=(1, 1))
  )
  (box_selector_test): RetinaNetPostProcessor()
)
	==== rpn build END==== 
} // END GeneralizedRCNN.__init__(self, cfg)
	self.model.eval()
	checkpointer = DetectronCheckpointer(cfg, self.model, save_dir='/dev/null')
	_ = checkpointer.load(weight)
INFO:maskrcnn_benchmark.utils.checkpoint:Loading checkpoint from ./model/detection/model_det_v2_200924_002_180k.pth
…
        RetinaNetHead.forward(self, x) { // BEGIN
            defined in /home/kimkk/work/lomin/maskrcnn_benchmark/modeling/rpn/retinanet/retinanet.py
                Param:
                len(x)): 5;
            x[0].shape: torch.Size([1, 1024, 60, 72])
                x[1].shape: torch.Size([1, 1024, 30, 36])
                x[2].shape: torch.Size([1, 1024, 15, 18])
                x[3].shape: torch.Size([1, 1024, 8, 9])
                x[4].shape: torch.Size([1, 1024, 4, 5])
                logits = [];
            bbox_reg = []

                self.cls_tower:
                Sequential(
                        (0): Conv2d(1024, 1024, kernel_size=(3, 3), stride=(1, 1), padding=(1, 1))
                        (1): ReLU()
                        (2): Conv2d(1024, 1024, kernel_size=(3, 3), stride=(1, 1), padding=(1, 1))
                        (3): ReLU()
                        (4): Conv2d(1024, 1024, kernel_size=(3, 3), stride=(1, 1), padding=(1, 1))
                        (5): ReLU()
                        (6): Conv2d(1024, 1024, kernel_size=(3, 3), stride=(1, 1), padding=(1, 1))
                        (7): ReLU()
                        )

                         self.cls_logits:
                             Conv2d(1024, 9, kernel_size=(3, 3), stride=(1, 1), padding=(1, 1))

                             self.bbox_tower:
                             Sequential(
                                     (0): Conv2d(1024, 1024, kernel_size=(3, 3), stride=(1, 1), padding=(1, 1))
                                     (1): ReLU()
                                     (2): Conv2d(1024, 1024, kernel_size=(3, 3), stride=(1, 1), padding=(1, 1))
                                     (3): ReLU()
                                     (4): Conv2d(1024, 1024, kernel_size=(3, 3), stride=(1, 1), padding=(1, 1))
                                     (5): ReLU()
                                     (6): Conv2d(1024, 1024, kernel_size=(3, 3), stride=(1, 1), padding=(1, 1))
                                     (7): ReLU()
                                     )

                                      self.bbox_pred:
                                          Conv2d(1024, 36, kernel_size=(3, 3), stride=(1, 1), padding=(1, 1))



                                          for idx, feature in enumerate(x) {
                                              ===== iteration: 0 ====
…
                logits[3].shape: torch.Size([1, 9, 8, 9])
                logits[4].shape: torch.Size([1, 9, 4, 5])

                ==== bbox_reg ====
                bbox_reg[0].shape: torch.Size([1, 36, 60, 72])
                bbox_reg[1].shape: torch.Size([1, 36, 30, 36])
                bbox_reg[2].shape: torch.Size([1, 36, 15, 18])
                bbox_reg[3].shape: torch.Size([1, 36, 8, 9])
                bbox_reg[4].shape: torch.Size([1, 36, 4, 5])

                return logits, bbox_reg
        } // END RetinaNetHead.forward(self, x)
    self.head: RetinaNetHead(
            (cls_tower): Sequential(
                (0): Conv2d(1024, 1024, kernel_size=(3, 3), stride=(1, 1), padding=(1, 1))
                (1): ReLU()
                (2): Conv2d(1024, 1024, kernel_size=(3, 3), stride=(1, 1), padding=(1, 1))
                (3): ReLU()
                (4): Conv2d(1024, 1024, kernel_size=(3, 3), stride=(1, 1), padding=(1, 1))
                (5): ReLU()
                (6): Conv2d(1024, 1024, kernel_size=(3, 3), stride=(1, 1), padding=(1, 1))
                (7): ReLU()
                )
            (bbox_tower): Sequential(
                (0): Conv2d(1024, 1024, kernel_size=(3, 3), stride=(1, 1), padding=(1, 1))
                (1): ReLU()
                (2): Conv2d(1024, 1024, kernel_size=(3, 3), stride=(1, 1), padding=(1, 1))
                (3): ReLU()
                (4): Conv2d(1024, 1024, kernel_size=(3, 3), stride=(1, 1), padding=(1, 1))
                (5): ReLU()
                (6): Conv2d(1024, 1024, kernel_size=(3, 3), stride=(1, 1), padding=(1, 1))
                (7): ReLU()
                )
                 (cls_logits): Conv2d(1024, 9, kernel_size=(3, 3), stride=(1, 1), padding=(1, 1))
                               (bbox_pred): Conv2d(1024, 36, kernel_size=(3, 3), stride=(1, 1), padding=(1, 1))
                                            )
                                            box_cls, box_regression = self.head(features)
                                            len(box_cls): 5
                                                          box_cls[0].shape: torch.Size([1, 9, 60, 72])
                                                          box_cls[1].shape: torch.Size([1, 9, 30, 36])
…
